Node_Classification/GAT/checkpoints/gat.pth (torch, 561501 bytes, 26 tensors)

conv1.att_src f4 [1, 2, 16]
0	0xbef5f2bc	-0.48036754
1	0x3ee4e7be	0.44708055
2	0xbee53c7a	-0.44772702
3	0xbcc8e9a5	-0.024525473
4	0x3f2d4eae	0.6769818
5	0x3edf52e2	0.43617922
6	0x3ec3e122	0.382577
7	0x3f3158d4	0.69276166
8	0xbd4ed84c	-0.050499246
9	0x3f0d8303	0.55278033
10	0x3ee6adbd	0.45054427
11	0x3f15e687	0.5855488
12	0xbe7f211b	-0.24914972
13	0x3effe286	0.4997751
14	0x3e16c99b	0.14725344
15	0x3e907f3b	0.2822207
16	0xbf052d04	-0.52021813
17	0x3f08afe3	0.5339338
18	0xbda35122	-0.07974459
19	0x3f17b5d9	0.5926185
20	0x3ea8721f	0.32899567
21	0xbf08746f	-0.53302664
22	0x3d2a9abd	0.041651476
23	0xbeda9006	-0.42688006
24	0x3f43ba92	0.7645656
25	0x3eaa7820	0.33294773
26	0xbe04137c	-0.12898058
27	0x3c474128	0.012161531
28	0xbe8ab753	-0.2709299
29	0xbe5e7faa	-0.21728387
30	0x3ef2a29e	0.47389692
31	0x3f0fdf2b	0.561999

conv1.att_dst f4 [1, 2, 16]
0	0xbeb398b8	-0.35077453
1	0x3e23946c	0.15974587
2	0xbeaf2314	-0.3420645
3	0xbe27a0ad	-0.16369887
4	0xbe804f99	-0.25060728
5	0xbe826779	-0.25469568
6	0xbdd436d1	-0.10362018
7	0x3db53e22	0.088497415
8	0x3d9f60b2	0.07782115
9	0x3e19dd17	0.15025745
10	0xbe1c46d6	-0.15261397
11	0x3e63ac98	0.22233808
12	0x3e3f9873	0.18710499
13	0x3d671806	0.056419395
14	0x3ec99a3c	0.39375484
15	0x3ea6bfa6	0.3256809
16	0xbe7dad5b	-0.24773161
17	0x3ed25149	0.4107764
18	0x3e273a85	0.16330917
19	0x3e0a2826	0.13491878
20	0xbe826062	-0.2546416
21	0xbdea9efc	-0.11456105
22	0x3d913953	0.07091012
23	0x3f22828f	0.63480467
24	0xbde592fa	-0.11209674
25	0xbe8124bb	-0.25223336
26	0xbe91ee05	-0.28501907
27	0x3dc738a2	0.09727599
28	0x3e5f4659	0.21804179
29	0x3ee48d8f	0.4463925
30	0xbd545fd4	-0.0518492
31	0x3e015c18	0.12632787

conv1.bias f4 [32]
0	0x3e00323b	0.12519161
1	0x3dfe6821	0.12422205
2	0x3d6cdc3b	0.057827216
3	0x3e1621a5	0.14661272
4	0xbc5dfb78	-0.013548724
5	0x3e066faf	0.13128541
6	0x3e26346f	0.1623094
7	0x3e1e1d00	0.1544075
8	0x3e7fc415	0.24977143
9	0x3e615c88	0.22007954
10	0x3e5e7da5	0.21727617
11	0x3d99e391	0.07514108
12	0x3e96f8b2	0.29486614
13	0x3c3c0196	0.0114749875
14	0x3d347d9b	0.0440651
15	0x3e248a79	0.16068448
16	0x3e703665	0.2345825
17	0x3dc60d91	0.09670556
18	0x3e34b115	0.17645676
19	0x3e0b5985	0.13608368
20	0x3d9a05cc	0.07520637
21	0x3e734b7b	0.23759262
22	0x3dd2ff89	0.10302646
23	0x3e305328	0.17219222
24	0x3df9ff86	0.1220694
25	0x3d13a272	0.03604359
26	0x3e2c574a	0.16830173
27	0x3e775f1e	0.24157378
28	0x3e4a55f6	0.19759354
29	0x3dc55c70	0.09636772
30	0x3de217e8	0.11039716
31	0x3e63b36a	0.2223641

conv1.lin_src.weight f4 [32, 1433]
0	0x3d991ba3	0.074759744
1	0xbdb6a423	-0.08918025
2	0x3e1ef423	0.15522818
3	0x3e055a1c	0.13022655
4	0xbe04d523	-0.1297193
5	0xbd99d4ee	-0.07511316
6	0x3decc717	0.11561411
7	0x3c74b9a0	0.014936835
8	0xbe202623	-0.15639548
9	0xbcb63172	-0.022240374
10	0xbcce9f9d	-0.025222594
11	0x3be20ab6	0.0068982495
12	0x3d15bbc9	0.03655604
13	0xbc860161	-0.01635808
14	0x3bf872aa	0.0075820284
15	0x3dd02885	0.101639785
16	0xbce912ab	-0.028451284
17	0x3c6cefab	0.014461438
18	0x3c1fc812	0.00975229
19	0x3dab3e4a	0.0836149
20	0x38f1b736	0.00011525901
21	0x3d9f92dd	0.07791684
22	0x3b78d2d4	0.003796746
23	0xbb598cd8	-0.0033195522
24	0x3d339ada	0.04384885
25	0x3da3e2d1	0.08002246
26	0x3d8af36d	0.06784711
27	0xbd106c3d	-0.035259474
28	0x3c7646e7	0.015031553
29	0x3d6d23ed	0.05789559
30	0xbd68a389	-0.056796584
31	0x3c07dab2	0.008291887
32	0x3caa014a	0.020752568
33	0x3a14559c	0.0005658509
34	0x3c78cc0e	0.015185369
35	0xbdeb413e	-0.11487053
36	0x3c69b0f1	0.0142633775
37	0xbd2657f9	-0.04061124
38	0x3c1ad9ba	0.009451324
39	0x3de2e23d	0.11078308
40	0xbd608b16	-0.054820143
41	0x3db619e6	0.088916585
42	0xbc09139a	-0.00836649
43	0x3cef77fa	0.029232014
44	0x3d5ef719	0.05443487
45	0x3d83b69e	0.06431316
46	0xbadca56e	-0.001683397
47	0x3dbf52c4	0.09341958
48	0xbe4a6f88	-0.19769108
49	0xbae119c4	-0.0017173816
50	0xbd653cf3	-0.05596633
51	0x3e9b84c3	0.30374727
52	0x3d67715b	0.05650459
53	0x39070216	0.0001287538
54	0xbd4b8b65	-0.049693484
55	0xbd8f66f0	-0.07002056
56	0x3e1874fb	0.14888375
57	0x3e0ed0e4	0.13946873
58	0x3db061b6	0.08612387
59	0xbdc8e5ba	-0.09809442
60	0x379e0b71	1.8840396e-05
61	0xbe360247	-0.17774306
62	0xbe218320	-0.15772676
63	0x3e1d0c3d	0.153367
64	0xbb2cd78b	-0.002637359
65	0x3d9325b1	0.071849234
66	0xbca0ac84	-0.019613512
67	0xbdf05244	-0.11734441
68	0x3d0691da	0.03285394
69	0x3b1d6988	0.00240192
70	0xbccee2d9	-0.025254654
71	0x3b0843f6	0.002079246
72	0xbd9b479c	-0.07582018
73	0x3c0f2a7f	0.008738159
74	0x393627b5	0.00017371665
75	0x3b85248e	0.0040631955
76	0x3acd79e1	0.0015676582
77	0x3e277e9c	0.16356891
78	0xbda8affa	-0.0823669
79	0x3d1c7b0f	0.038203295
80	0x3df0c1b0	0.11755693
81	0x3dcf9c80	0.10137272
82	0x3d0a15a4	0.033712044
83	0xbdb3fad0	-0.08788073
84	0xbbf7cad6	-0.0075620217
85	0xbde8229f	-0.113347284
86	0xbe2c582d	-0.16830511
87	0x3d00b4cd	0.031422425
88	0x3d8b2d79	0.067957826
89	0x3e43e788	0.19131291
90	0x3d38d1dc	0.045122012
91	0xbdeabd15	-0.11461846
92	0xbbcb44a5	-0.0062032514
93	0x3df311dd	0.118686415
94	0x3d5d69cd	0.054055978
95	0x3d0c52f6	0.034258805
96	0x3dbc229a	0.09186287
97	0x3d9953a2	0.07486655
98	0x3e387ac7	0.18015586
99	0xbe11575f	-0.14193486
100	0xbceb7b8b	-0.028745433
101	0x3b947e92	0.00453169
102	0x3ca0a244	0.019608624
103	0x3d569202	0.052385338
104	0x3db05d79	0.086115785
105	0xbd138dfe	-0.036024086
106	0x3b4e6612	0.0031493944
107	0xbc32bbef	-0.010909065
108	0xbd5640d4	-0.05230792
109	0xbcda5211	-0.02665046
110	0x3ace979f	0.0015761739
111	0x3bc3fa6c	0.0059807803
112	0xbc7ac0f9	-0.015304797
113	0x3abf8f0a	0.0014614773
114	0xbcddf8d4	-0.02709619
115	0x3cec97e7	0.028881026
116	0xbd8ca529	-0.06867439
117	0x3ca8d98f	0.020611553
118	0xbe19c3b1	-0.15016057
119	0xbc87d563	-0.016581243
120	0xbc8712fd	-0.016488547
121	0x3d2de368	0.0424532
122	0xbcd6de52	-0.026229057
123	0x3d10b729	0.035330925
124	0xbd510f59	-0.051040027
125	0x3d3ab279	0.04558036
126	0xbd0381ce	-0.032106213
127	0x3c3d86bf	0.0115677705
128	0x3d5917b0	0.053001106
129	0x3d607b1d	0.05480491
130	0x3bc3cba6	0.0059752045
131	0x3d4c0297	0.049807157
132	0x3d583e64	0.052793875
133	0x3e069f0f	0.13146614
134	0x3c43826a	0.011932949
135	0x3db671c8	0.08908421
136	0xbce62bec	-0.028097115
137	0x3c565f96	0.013084313
138	0x3c9d4787	0.019199146
139	0xbda59433	-0.080849074
140	0xbdbc1256	-0.09183185
141	0xbd71acae	-0.05900257
142	0x3b7b6e54	0.0038365321
143	0x3d092ac8	0.033488065
144	0x3adf75db	0.0017048673
145	0xb7e3e9a2	-2.7169302e-05
146	0x3e049d14	0.12950546
147	0xbd898189	-0.0671416
148	0x3c293026	0.010326421
149	0x3e06b87a	0.1315631
150	0xbc06ec3c	-0.008235034
151	0xbe090c7b	-0.13383667
152	0xb8e43113	-0.00010881028
153	0x3d8cbaa9	0.0687154
154	0x3bf08dec	0.007341137
155	0x3e2b8c1d	0.16752668
156	0xbcd824a9	-0.026384668
157	0x3dbe6650	0.09296858
158	0xbd75bc4a	-0.05999402
159	0xbd7e0ab1	-0.062021915
160	0xbdab8e78	-0.08376783
161	0x3d1c0a76	0.038095914
162	0xbcc6012c	-0.02417048
163	0xbcc6b90d	-0.024258161
164	0xbceca2ef	-0.028886287
165	0x3bb00edd	0.0053728656
166	0xbd225b12	-0.039637633
167	0xbd144f93	-0.0362087
168	0x3cc6f89f	0.024288474
169	0xbc2e9d2c	-0.01065759
170	0xbd814b6a	-0.06313212
171	0x3c36f20e	0.011166109
172	0x3c9bfe35	0.019042114
173	0x3dab199f	0.08354496
174	0xbca952f9	-0.020669447
175	0x3c66f8e9	0.014097431
176	0x3ca26bf3	0.019826865
177	0x388c9144	6.702778e-05
178	0x39935baa	0.0002810632
179	0x3e0bcd68	0.13652575
180	0x3b67cba2	0.0035369177
181	0xbafdf142	-0.0019374269
182	0x3d25c445	0.04047038
183	0x3d050d30	0.03248328
184	0x3c912ad7	0.017720623
185	0x389f8a26	7.607443e-05
186	0xbdaa6c1b	-0.08321401
187	0xbd0a1d1c	-0.033719167
188	0x3b03c548	0.0020106602
189	0xbcad1aff	-0.021131037
190	0x3bdf1c30	0.00680878
191	0xbd4032ef	-0.046923574
192	0xbe07af34	-0.13250428
193	0x3c6ed74b	0.014577697
194	0x3d9b5ce3	0.07586076
195	0x3d9ce88c	0.07661542
196	0xbd2a5c60	-0.041592002
197	0x3ca0c0a7	0.019623114
198	0x3d7d17dc	0.061790332
199	0x3d4fd472	0.050739713
200	0x3a97466d	0.0011541374
201	0x3adc18d7	0.0016792071
202	0x3c3c4c8a	0.011492858
203	0x3e2a63bf	0.16639613
204	0x3b6c9bcb	0.0036103602
205	0x3d558e28	0.052137524
206	0xbd84d3b6	-0.06485693
207	0xbca19c66	-0.019727897
208	0x3d790d71	0.060803834
209	0x3bf7953e	0.007555633
210	0x3c516266	0.012779808
211	0x3e07fde1	0.13280441
212	0x3cf6b058	0.030113384
213	0xbd9779c9	-0.073962756
214	0x3d2a5aa1	0.041590337
215	0x3d2d880c	0.042366073
216	0x3c0d7866	0.008634662
217	0xbd96412f	-0.073366515
218	0x3c02b335	0.007977297
219	0xbc95ca64	-0.018284984
220	0xbd38986f	-0.045067247
221	0x3d0e1eab	0.034697216
222	0x3cdc3104	0.026878841
223	0x3c000bf1	0.007815347
224	0x3a39957c	0.0007079465
225	0x3ce8e527	0.02842958
226	0xbcb7b8cc	-0.022426985
227	0x3c862a68	0.016377643
228	0x3e2dea97	0.1698402
229	0x3c4b6d19	0.012416148
230	0x3d676ca2	0.056500085
231	0xbce3331c	-0.027734332
232	0x3d294651	0.041326825
233	0x3d939553	0.07206216
234	0xbdf4de3e	-0.11956452
235	0x3d73fb4f	0.05956584
236	0xbd601497	-0.054707136
237	0x3e50b5de	0.20381877
238	0x3e2f36ef	0.17110799
239	0x3ce445b9	0.027865278
240	0xbdcacd4a	-0.09902437
241	0x3ca18ff5	0.019721964
242	0xbc091246	-0.008366173
243	0x3bf73997	0.007544707
244	0x3d7702fd	0.060305584
245	0x3d7f0714	0.06226261
246	0x3c7abed9	0.015304291
247	0xbe26205d	-0.16223283
248	0x3b8ccf48	0.004297171
249	0x3d9c76aa	0.07639821
250	0x3d0c8e80	0.034315586
251	0xbaa33e6c	-0.0012454516
252	0x3bd3bd85	0.0064618015
253	0x3d71b28c	0.059008166
254	0x3ac9aff6	0.0015387523
255	0x3cb2cebe	0.021827098

conv1.lin_dst.weight f4 [32, 1433]
0	0x3d991ba3	0.074759744
1	0xbdb6a423	-0.08918025
2	0x3e1ef423	0.15522818
3	0x3e055a1c	0.13022655
4	0xbe04d523	-0.1297193
5	0xbd99d4ee	-0.07511316
6	0x3decc717	0.11561411
7	0x3c74b9a0	0.014936835
8	0xbe202623	-0.15639548
9	0xbcb63172	-0.022240374
10	0xbcce9f9d	-0.025222594
11	0x3be20ab6	0.0068982495
12	0x3d15bbc9	0.03655604
13	0xbc860161	-0.01635808
14	0x3bf872aa	0.0075820284
15	0x3dd02885	0.101639785
16	0xbce912ab	-0.028451284
17	0x3c6cefab	0.014461438
18	0x3c1fc812	0.00975229
19	0x3dab3e4a	0.0836149
20	0x38f1b736	0.00011525901
21	0x3d9f92dd	0.07791684
22	0x3b78d2d4	0.003796746
23	0xbb598cd8	-0.0033195522
24	0x3d339ada	0.04384885
25	0x3da3e2d1	0.08002246
26	0x3d8af36d	0.06784711
27	0xbd106c3d	-0.035259474
28	0x3c7646e7	0.015031553
29	0x3d6d23ed	0.05789559
30	0xbd68a389	-0.056796584
31	0x3c07dab2	0.008291887
32	0x3caa014a	0.020752568
33	0x3a14559c	0.0005658509
34	0x3c78cc0e	0.015185369
35	0xbdeb413e	-0.11487053
36	0x3c69b0f1	0.0142633775
37	0xbd2657f9	-0.04061124
38	0x3c1ad9ba	0.009451324
39	0x3de2e23d	0.11078308
40	0xbd608b16	-0.054820143
41	0x3db619e6	0.088916585
42	0xbc09139a	-0.00836649
43	0x3cef77fa	0.029232014
44	0x3d5ef719	0.05443487
45	0x3d83b69e	0.06431316
46	0xbadca56e	-0.001683397
47	0x3dbf52c4	0.09341958
48	0xbe4a6f88	-0.19769108
49	0xbae119c4	-0.0017173816
50	0xbd653cf3	-0.05596633
51	0x3e9b84c3	0.30374727
52	0x3d67715b	0.05650459
53	0x39070216	0.0001287538
54	0xbd4b8b65	-0.049693484
55	0xbd8f66f0	-0.07002056
56	0x3e1874fb	0.14888375
57	0x3e0ed0e4	0.13946873
58	0x3db061b6	0.08612387
59	0xbdc8e5ba	-0.09809442
60	0x379e0b71	1.8840396e-05
61	0xbe360247	-0.17774306
62	0xbe218320	-0.15772676
63	0x3e1d0c3d	0.153367
64	0xbb2cd78b	-0.002637359
65	0x3d9325b1	0.071849234
66	0xbca0ac84	-0.019613512
67	0xbdf05244	-0.11734441
68	0x3d0691da	0.03285394
69	0x3b1d6988	0.00240192
70	0xbccee2d9	-0.025254654
71	0x3b0843f6	0.002079246
72	0xbd9b479c	-0.07582018
73	0x3c0f2a7f	0.008738159
74	0x393627b5	0.00017371665
75	0x3b85248e	0.0040631955
76	0x3acd79e1	0.0015676582
77	0x3e277e9c	0.16356891
78	0xbda8affa	-0.0823669
79	0x3d1c7b0f	0.038203295
80	0x3df0c1b0	0.11755693
81	0x3dcf9c80	0.10137272
82	0x3d0a15a4	0.033712044
83	0xbdb3fad0	-0.08788073
84	0xbbf7cad6	-0.0075620217
85	0xbde8229f	-0.113347284
86	0xbe2c582d	-0.16830511
87	0x3d00b4cd	0.031422425
88	0x3d8b2d79	0.067957826
89	0x3e43e788	0.19131291
90	0x3d38d1dc	0.045122012
91	0xbdeabd15	-0.11461846
92	0xbbcb44a5	-0.0062032514
93	0x3df311dd	0.118686415
94	0x3d5d69cd	0.054055978
95	0x3d0c52f6	0.034258805
96	0x3dbc229a	0.09186287
97	0x3d9953a2	0.07486655
98	0x3e387ac7	0.18015586
99	0xbe11575f	-0.14193486
100	0xbceb7b8b	-0.028745433
101	0x3b947e92	0.00453169
102	0x3ca0a244	0.019608624
103	0x3d569202	0.052385338
104	0x3db05d79	0.086115785
105	0xbd138dfe	-0.036024086
106	0x3b4e6612	0.0031493944
107	0xbc32bbef	-0.010909065
108	0xbd5640d4	-0.05230792
109	0xbcda5211	-0.02665046
110	0x3ace979f	0.0015761739
111	0x3bc3fa6c	0.0059807803
112	0xbc7ac0f9	-0.015304797
113	0x3abf8f0a	0.0014614773
114	0xbcddf8d4	-0.02709619
115	0x3cec97e7	0.028881026
116	0xbd8ca529	-0.06867439
117	0x3ca8d98f	0.020611553
118	0xbe19c3b1	-0.15016057
119	0xbc87d563	-0.016581243
120	0xbc8712fd	-0.016488547
121	0x3d2de368	0.0424532
122	0xbcd6de52	-0.026229057
123	0x3d10b729	0.035330925
124	0xbd510f59	-0.051040027
125	0x3d3ab279	0.04558036
126	0xbd0381ce	-0.032106213
127	0x3c3d86bf	0.0115677705
128	0x3d5917b0	0.053001106
129	0x3d607b1d	0.05480491
130	0x3bc3cba6	0.0059752045
131	0x3d4c0297	0.049807157
132	0x3d583e64	0.052793875
133	0x3e069f0f	0.13146614
134	0x3c43826a	0.011932949
135	0x3db671c8	0.08908421
136	0xbce62bec	-0.028097115
137	0x3c565f96	0.013084313
138	0x3c9d4787	0.019199146
139	0xbda59433	-0.080849074
140	0xbdbc1256	-0.09183185
141	0xbd71acae	-0.05900257
142	0x3b7b6e54	0.0038365321
143	0x3d092ac8	0.033488065
144	0x3adf75db	0.0017048673
145	0xb7e3e9a2	-2.7169302e-05
146	0x3e049d14	0.12950546
147	0xbd898189	-0.0671416
148	0x3c293026	0.010326421
149	0x3e06b87a	0.1315631
150	0xbc06ec3c	-0.008235034
151	0xbe090c7b	-0.13383667
152	0xb8e43113	-0.00010881028
153	0x3d8cbaa9	0.0687154
154	0x3bf08dec	0.007341137
155	0x3e2b8c1d	0.16752668
156	0xbcd824a9	-0.026384668
157	0x3dbe6650	0.09296858
158	0xbd75bc4a	-0.05999402
159	0xbd7e0ab1	-0.062021915
160	0xbdab8e78	-0.08376783
161	0x3d1c0a76	0.038095914
162	0xbcc6012c	-0.02417048
163	0xbcc6b90d	-0.024258161
164	0xbceca2ef	-0.028886287
165	0x3bb00edd	0.0053728656
166	0xbd225b12	-0.039637633
167	0xbd144f93	-0.0362087
168	0x3cc6f89f	0.024288474
169	0xbc2e9d2c	-0.01065759
170	0xbd814b6a	-0.06313212
171	0x3c36f20e	0.011166109
172	0x3c9bfe35	0.019042114
173	0x3dab199f	0.08354496
174	0xbca952f9	-0.020669447
175	0x3c66f8e9	0.014097431
176	0x3ca26bf3	0.019826865
177	0x388c9144	6.702778e-05
178	0x39935baa	0.0002810632
179	0x3e0bcd68	0.13652575
180	0x3b67cba2	0.0035369177
181	0xbafdf142	-0.0019374269
182	0x3d25c445	0.04047038
183	0x3d050d30	0.03248328
184	0x3c912ad7	0.017720623
185	0x389f8a26	7.607443e-05
186	0xbdaa6c1b	-0.08321401
187	0xbd0a1d1c	-0.033719167
188	0x3b03c548	0.0020106602
189	0xbcad1aff	-0.021131037
190	0x3bdf1c30	0.00680878
191	0xbd4032ef	-0.046923574
192	0xbe07af34	-0.13250428
193	0x3c6ed74b	0.014577697
194	0x3d9b5ce3	0.07586076
195	0x3d9ce88c	0.07661542
196	0xbd2a5c60	-0.041592002
197	0x3ca0c0a7	0.019623114
198	0x3d7d17dc	0.061790332
199	0x3d4fd472	0.050739713
200	0x3a97466d	0.0011541374
201	0x3adc18d7	0.0016792071
202	0x3c3c4c8a	0.011492858
203	0x3e2a63bf	0.16639613
204	0x3b6c9bcb	0.0036103602
205	0x3d558e28	0.052137524
206	0xbd84d3b6	-0.06485693
207	0xbca19c66	-0.019727897
208	0x3d790d71	0.060803834
209	0x3bf7953e	0.007555633
210	0x3c516266	0.012779808
211	0x3e07fde1	0.13280441
212	0x3cf6b058	0.030113384
213	0xbd9779c9	-0.073962756
214	0x3d2a5aa1	0.041590337
215	0x3d2d880c	0.042366073
216	0x3c0d7866	0.008634662
217	0xbd96412f	-0.073366515
218	0x3c02b335	0.007977297
219	0xbc95ca64	-0.018284984
220	0xbd38986f	-0.045067247
221	0x3d0e1eab	0.034697216
222	0x3cdc3104	0.026878841
223	0x3c000bf1	0.007815347
224	0x3a39957c	0.0007079465
225	0x3ce8e527	0.02842958
226	0xbcb7b8cc	-0.022426985
227	0x3c862a68	0.016377643
228	0x3e2dea97	0.1698402
229	0x3c4b6d19	0.012416148
230	0x3d676ca2	0.056500085
231	0xbce3331c	-0.027734332
232	0x3d294651	0.041326825
233	0x3d939553	0.07206216
234	0xbdf4de3e	-0.11956452
235	0x3d73fb4f	0.05956584
236	0xbd601497	-0.054707136
237	0x3e50b5de	0.20381877
238	0x3e2f36ef	0.17110799
239	0x3ce445b9	0.027865278
240	0xbdcacd4a	-0.09902437
241	0x3ca18ff5	0.019721964
242	0xbc091246	-0.008366173
243	0x3bf73997	0.007544707
244	0x3d7702fd	0.060305584
245	0x3d7f0714	0.06226261
246	0x3c7abed9	0.015304291
247	0xbe26205d	-0.16223283
248	0x3b8ccf48	0.004297171
249	0x3d9c76aa	0.07639821
250	0x3d0c8e80	0.034315586
251	0xbaa33e6c	-0.0012454516
252	0x3bd3bd85	0.0064618015
253	0x3d71b28c	0.059008166
254	0x3ac9aff6	0.0015387523
255	0x3cb2cebe	0.021827098

conv2.att_src f4 [1, 1, 7]
0	0x3d8594a4	0.065224916
1	0x3e161988	0.14658177
2	0xbe7d5df0	-0.24742866
3	0xbf13e38f	-0.577691
4	0x3d965021	0.07339502
5	0xbe99e793	-0.3005949
6	0xbe91589b	-0.28387913

conv2.att_dst f4 [1, 1, 7]
0	0xbe04d726	-0.12972698
1	0xbc8e0b9d	-0.017339522
2	0x3f02c3b3	0.51079863
3	0xbd9e4caa	-0.07729466
4	0x3de44db2	0.11147632
5	0x3f6948f4	0.9112694
6	0x3b01b803	0.0019793517

conv2.bias f4 [7]
0	0xbd1c92db	-0.03822599
1	0x3b460755	0.0030216773
2	0xbe4c3d34	-0.19945222
3	0x3d93b3e5	0.072120465
4	0x3dfdb5f9	0.12388224
5	0x3e87cd40	0.2652378
6	0xbe4f5ed6	-0.20251021

conv2.lin_src.weight f4 [7, 32]
0	0x3ebe88f8	0.37213874
1	0x3e5e51f6	0.21710953
2	0x3ef26012	0.4733892
3	0xbea69b2c	-0.32540262
4	0x3ec05f32	0.37572628
5	0x3d25e5f4	0.040502504
6	0x3ed3af76	0.41344804
7	0xbe978d32	-0.2959991
8	0x3e5f062b	0.21779697
9	0xbebc7095	-0.36804643
10	0xbef5dc3b	-0.48019585
11	0xbe534fcb	-0.20635907
12	0xbdc59ccf	-0.096490495
13	0x3ed3ab9f	0.41341874
14	0x3ee1d4ac	0.44107568
15	0xbe995cbf	-0.29953572
16	0xbeab61c6	-0.33473033
17	0xbeae9d72	-0.34104496
18	0x3eab3969	0.33442238
19	0xbe8ae7d3	-0.27129993
20	0xbe2d4d1b	-0.16923945
21	0x3e9072fb	0.28212723
22	0x3e5a1aa8	0.21299231
23	0xbe881a3c	-0.26582515
24	0xbf074a7c	-0.5284803
25	0x3ec8036a	0.39065105
26	0x3ee7a7e8	0.4524529
27	0x3e8f3d3d	0.2797641
28	0xbe92f640	-0.287035
29	0x3eac41bd	0.33643904
30	0xbeba98e1	-0.36444762
31	0xbf048b0d	-0.51774675
32	0x3dc1b84d	0.09458981
33	0xbeb8de29	-0.36106995
34	0xbef22643	-0.47294816
35	0xbe6867da	-0.22695866
36	0x3eb342a0	0.35011768
37	0x3e9fbea7	0.31200144
38	0xbeb88cf4	-0.3604504
39	0x3e873f13	0.2641531
40	0xbef74a9f	-0.4829912
41	0x3e87ee91	0.265492
42	0x3e57054d	0.20998116
43	0x3eb373c5	0.35049263
44	0x3ec05ccd	0.375708
45	0xbe72395c	-0.23654693
46	0xbedac2cf	-0.42726752
47	0x3ea23dc2	0.31687742
48	0xbeafc676	-0.343311
49	0x3ef317ff	0.47479245
50	0xbef89ae6	-0.48555678
51	0xbec9e442	-0.3943196
52	0xbec209b6	-0.37898034
53	0xbede9144	-0.43470204
54	0xbdb1afa7	-0.08676081
55	0xbe486eff	-0.19573592
56	0x3ed47742	0.41497236
57	0x3e2feea4	0.17180878
58	0xbd31b4db	-0.043385368
59	0xbecdcb08	-0.40193963
60	0xbe0107da	-0.12600651
61	0x3edb7949	0.4286597
62	0xbe1c44dd	-0.15260644
63	0xbea8fc34	-0.33004916
64	0xbe9dd65c	-0.30827606
65	0xbdc9e4fb	-0.09858128
66	0x3ed7a911	0.42121175
67	0x3ddf83a9	0.10913784
68	0xbe9e99e7	-0.30976793
69	0x3e07ffd4	0.13281184
70	0xbefe810d	-0.49707833
71	0x3ec9c6aa	0.3940938
72	0xbee508bf	-0.44733235
73	0x3e7556fb	0.23958962
74	0xbee7e7b8	-0.45293975
75	0xbe830514	-0.25589812
76	0xbea86842	-0.32892042
77	0x3e8c90d5	0.27454248
78	0x3e3483ef	0.17628454
79	0x3e96003c	0.29297054
80	0x3ef8f117	0.48621437
81	0x3f024c73	0.508979
82	0x3e8446a8	0.25835156
83	0xbedc3b60	-0.4301405
84	0x3ddc773a	0.10764928
85	0x3e5b0dd4	0.21391994
86	0x3e1d36aa	0.15352884
87	0xbe15bac0	-0.1462202
88	0x3e7dc886	0.24783525
89	0xbe7d5f92	-0.24743488
90	0xbed9460d	-0.42436257
91	0xbb1d7989	-0.002402874
92	0x3ed19466	0.40933532
93	0xbde34dee	-0.11098848
94	0xbd22bbf9	-0.039730046
95	0x3e60a946	0.21939573
96	0x3cd5740e	0.026056316
97	0xbe081124	-0.13287789
98	0xbe144102	-0.14477924
99	0xbe97bece	-0.2963776
100	0xbe17ae54	-0.14812595
101	0x3e4ea5fb	0.20180504
102	0xbdcc8b1a	-0.09987469
103	0x3e808666	0.25102538
104	0x3ef5c477	0.48001453
105	0x3ed3e9fc	0.41389453
106	0x3ebd9a85	0.37031952
107	0xbe97e3d7	-0.29666016
108	0x3ec04679	0.37553766
109	0xbe648cba	-0.22319308
110	0xbed61b31	-0.4181762
111	0x3de96f26	0.11398153
112	0xbe8cf862	-0.2753325
113	0xbe601797	-0.21883999
114	0xbe063d0f	-0.1310923
115	0xbe7cb5d2	-0.24678734
116	0xbe6a6c7c	-0.22892946
117	0x3e53fa38	0.2070092
118	0xbe9aa1d8	-0.30201602
119	0xbe505d5e	-0.20348117
120	0xbe0dd814	-0.13851959
121	0xbdf5f73d	-0.120100476
122	0x3ebe0ea6	0.3712055
123	0x3eb1b91b	0.34711537
124	0xbebe4d82	-0.3716851
125	0xbe04ccda	-0.1296877
126	0x3eccd503	0.40006265
127	0xbe911c2c	-0.28341806
128	0x3eb8ea36	0.3611619
129	0x3f02d14a	0.511006
130	0xbed8aec5	-0.4232084
131	0xbee3b98b	-0.44477496
132	0xbef57762	-0.47942644
133	0xbf1437d0	-0.57897663
134	0x3ebd91ac	0.370252
135	0x3ec2f6e2	0.38078982
136	0x3e6c3500	0.23067093
137	0xbedbd7b6	-0.42938012
138	0x3eb72f58	0.35778308
139	0xbec4ecfe	-0.3846206
140	0xbeddcdf6	-0.43321198
141	0xbecad060	-0.39612103
142	0xbedab5d9	-0.42716864
143	0xbf074626	-0.52841413
144	0xbea6cc3a	-0.32577688
145	0xbdee136f	-0.116248004
146	0xbf0c12ce	-0.54716194
147	0x3eb487a2	0.3525973
148	0x3db1592e	0.08659588
149	0x3ea66e89	0.32506207
150	0x3e909c64	0.28244317
151	0xbec75500	-0.38932037
152	0x3eb4d13f	0.35315892
153	0xbe9f3c8a	-0.31100875
154	0xbf1c9554	-0.61165357
155	0x3ee1a3b8	0.4407022
156	0xbecbbc5d	-0.39792147
157	0xbefd4dff	-0.4947357
158	0xbf15d7b0	-0.5853224
159	0x3ee4c162	0.4467879
160	0xbeb65c2e	-0.35617203
161	0x3ed0a91f	0.4075403
162	0xbeb5780f	-0.3544316
163	0x3e02425b	0.12720625
164	0x3ded2fe9	0.11581404
165	0x3e171bb8	0.14756668
166	0x3e5c3c62	0.21507409
167	0xbec55664	-0.38542473
168	0xbec73404	-0.38906872
169	0xbee7f33f	-0.4530277
170	0xbf019b71	-0.5062781
171	0x3ee2f9fd	0.4433135
172	0xbedbaf47	-0.42907164
173	0xbdbd5a6f	-0.092457645
174	0x3eb6aa10	0.35676622
175	0x3c4e3fd5	0.012588461
176	0xbea78930	-0.32721853
177	0xbea95f56	-0.33080548
178	0xbf03024b	-0.51175374
179	0x3e814633	0.2524887
180	0x3ece9754	0.4034983
181	0xbf038e94	-0.5138943
182	0x3ed53afa	0.41646558
183	0x3ebb9a23	0.36641034
184	0x3e9fcd90	0.3121152
185	0x3efeec2c	0.4978956
186	0xbef7aa83	-0.48372278
187	0xbee03396	-0.43789357
188	0x3edda5e7	0.43290636
189	0xbe58590c	-0.21127719
190	0xbdc338a3	-0.09532287
191	0xbea58558	-0.32328296
192	0xbcdd2fe8	-0.027000383
193	0xbea3be94	-0.31981337
194	0xbea61eec	-0.32445467
195	0x3ebdf3d9	0.37100103
196	0xbdf52e47	-0.11971717
197	0xbee70ec9	-0.45128468
198	0x3eac7a68	0.3368714
199	0xbeca2afb	-0.39485916
200	0xbeb331d1	-0.34998944
201	0xbeb65a54	-0.3561579
202	0x3e5c9300	0.21540451
203	0x3eb0fb6a	0.34566814
204	0x3ec22e89	0.37926129
205	0x3ecb5cf3	0.39719352
206	0x3dd317f1	0.10307301
207	0xbec04120	-0.37549686
208	0x3eb44ec9	0.35216358
209	0x3ecfb0c4	0.4056455
210	0x3eac8f64	0.33703148
211	0x3ea697a7	0.32537577
212	0xbe2ed1e5	-0.17072256
213	0xbec522d7	-0.38503143
214	0xbe84c4ca	-0.25931388
215	0x3db1575f	0.08659243
216	0xbec8a14d	-0.39185563
217	0xbe624f23	-0.22100501
218	0x3eaf37fa	0.34222394
219	0xbed063d8	-0.40701175
220	0xbeae8fa1	-0.34093955
221	0x3ebddcf7	0.37082645
222	0xbf15555d	-0.5833338
223	0x3ee7d970	0.4528308

conv2.lin_dst.weight f4 [7, 32]
0	0x3ebe88f8	0.37213874
1	0x3e5e51f6	0.21710953
2	0x3ef26012	0.4733892
3	0xbea69b2c	-0.32540262
4	0x3ec05f32	0.37572628
5	0x3d25e5f4	0.040502504
6	0x3ed3af76	0.41344804
7	0xbe978d32	-0.2959991
8	0x3e5f062b	0.21779697
9	0xbebc7095	-0.36804643
10	0xbef5dc3b	-0.48019585
11	0xbe534fcb	-0.20635907
12	0xbdc59ccf	-0.096490495
13	0x3ed3ab9f	0.41341874
14	0x3ee1d4ac	0.44107568
15	0xbe995cbf	-0.29953572
16	0xbeab61c6	-0.33473033
17	0xbeae9d72	-0.34104496
18	0x3eab3969	0.33442238
19	0xbe8ae7d3	-0.27129993
20	0xbe2d4d1b	-0.16923945
21	0x3e9072fb	0.28212723
22	0x3e5a1aa8	0.21299231
23	0xbe881a3c	-0.26582515
24	0xbf074a7c	-0.5284803
25	0x3ec8036a	0.39065105
26	0x3ee7a7e8	0.4524529
27	0x3e8f3d3d	0.2797641
28	0xbe92f640	-0.287035
29	0x3eac41bd	0.33643904
30	0xbeba98e1	-0.36444762
31	0xbf048b0d	-0.51774675
32	0x3dc1b84d	0.09458981
33	0xbeb8de29	-0.36106995
34	0xbef22643	-0.47294816
35	0xbe6867da	-0.22695866
36	0x3eb342a0	0.35011768
37	0x3e9fbea7	0.31200144
38	0xbeb88cf4	-0.3604504
39	0x3e873f13	0.2641531
40	0xbef74a9f	-0.4829912
41	0x3e87ee91	0.265492
42	0x3e57054d	0.20998116
43	0x3eb373c5	0.35049263
44	0x3ec05ccd	0.375708
45	0xbe72395c	-0.23654693
46	0xbedac2cf	-0.42726752
47	0x3ea23dc2	0.31687742
48	0xbeafc676	-0.343311
49	0x3ef317ff	0.47479245
50	0xbef89ae6	-0.48555678
51	0xbec9e442	-0.3943196
52	0xbec209b6	-0.37898034
53	0xbede9144	-0.43470204
54	0xbdb1afa7	-0.08676081
55	0xbe486eff	-0.19573592
56	0x3ed47742	0.41497236
57	0x3e2feea4	0.17180878
58	0xbd31b4db	-0.043385368
59	0xbecdcb08	-0.40193963
60	0xbe0107da	-0.12600651
61	0x3edb7949	0.4286597
62	0xbe1c44dd	-0.15260644
63	0xbea8fc34	-0.33004916
64	0xbe9dd65c	-0.30827606
65	0xbdc9e4fb	-0.09858128
66	0x3ed7a911	0.42121175
67	0x3ddf83a9	0.10913784
68	0xbe9e99e7	-0.30976793
69	0x3e07ffd4	0.13281184
70	0xbefe810d	-0.49707833
71	0x3ec9c6aa	0.3940938
72	0xbee508bf	-0.44733235
73	0x3e7556fb	0.23958962
74	0xbee7e7b8	-0.45293975
75	0xbe830514	-0.25589812
76	0xbea86842	-0.32892042
77	0x3e8c90d5	0.27454248
78	0x3e3483ef	0.17628454
79	0x3e96003c	0.29297054
80	0x3ef8f117	0.48621437
81	0x3f024c73	0.508979
82	0x3e8446a8	0.25835156
83	0xbedc3b60	-0.4301405
84	0x3ddc773a	0.10764928
85	0x3e5b0dd4	0.21391994
86	0x3e1d36aa	0.15352884
87	0xbe15bac0	-0.1462202
88	0x3e7dc886	0.24783525
89	0xbe7d5f92	-0.24743488
90	0xbed9460d	-0.42436257
91	0xbb1d7989	-0.002402874
92	0x3ed19466	0.40933532
93	0xbde34dee	-0.11098848
94	0xbd22bbf9	-0.039730046
95	0x3e60a946	0.21939573
96	0x3cd5740e	0.026056316
97	0xbe081124	-0.13287789
98	0xbe144102	-0.14477924
99	0xbe97bece	-0.2963776
100	0xbe17ae54	-0.14812595
101	0x3e4ea5fb	0.20180504
102	0xbdcc8b1a	-0.09987469
103	0x3e808666	0.25102538
104	0x3ef5c477	0.48001453
105	0x3ed3e9fc	0.41389453
106	0x3ebd9a85	0.37031952
107	0xbe97e3d7	-0.29666016
108	0x3ec04679	0.37553766
109	0xbe648cba	-0.22319308
110	0xbed61b31	-0.4181762
111	0x3de96f26	0.11398153
112	0xbe8cf862	-0.2753325
113	0xbe601797	-0.21883999
114	0xbe063d0f	-0.1310923
115	0xbe7cb5d2	-0.24678734
116	0xbe6a6c7c	-0.22892946
117	0x3e53fa38	0.2070092
118	0xbe9aa1d8	-0.30201602
119	0xbe505d5e	-0.20348117
120	0xbe0dd814	-0.13851959
121	0xbdf5f73d	-0.120100476
122	0x3ebe0ea6	0.3712055
123	0x3eb1b91b	0.34711537
124	0xbebe4d82	-0.3716851
125	0xbe04ccda	-0.1296877
126	0x3eccd503	0.40006265
127	0xbe911c2c	-0.28341806
128	0x3eb8ea36	0.3611619
129	0x3f02d14a	0.511006
130	0xbed8aec5	-0.4232084
131	0xbee3b98b	-0.44477496
132	0xbef57762	-0.47942644
133	0xbf1437d0	-0.57897663
134	0x3ebd91ac	0.370252
135	0x3ec2f6e2	0.38078982
136	0x3e6c3500	0.23067093
137	0xbedbd7b6	-0.42938012
138	0x3eb72f58	0.35778308
139	0xbec4ecfe	-0.3846206
140	0xbeddcdf6	-0.43321198
141	0xbecad060	-0.39612103
142	0xbedab5d9	-0.42716864
143	0xbf074626	-0.52841413
144	0xbea6cc3a	-0.32577688
145	0xbdee136f	-0.116248004
146	0xbf0c12ce	-0.54716194
147	0x3eb487a2	0.3525973
148	0x3db1592e	0.08659588
149	0x3ea66e89	0.32506207
150	0x3e909c64	0.28244317
151	0xbec75500	-0.38932037
152	0x3eb4d13f	0.35315892
153	0xbe9f3c8a	-0.31100875
154	0xbf1c9554	-0.61165357
155	0x3ee1a3b8	0.4407022
156	0xbecbbc5d	-0.39792147
157	0xbefd4dff	-0.4947357
158	0xbf15d7b0	-0.5853224
159	0x3ee4c162	0.4467879
160	0xbeb65c2e	-0.35617203
161	0x3ed0a91f	0.4075403
162	0xbeb5780f	-0.3544316
163	0x3e02425b	0.12720625
164	0x3ded2fe9	0.11581404
165	0x3e171bb8	0.14756668
166	0x3e5c3c62	0.21507409
167	0xbec55664	-0.38542473
168	0xbec73404	-0.38906872
169	0xbee7f33f	-0.4530277
170	0xbf019b71	-0.5062781
171	0x3ee2f9fd	0.4433135
172	0xbedbaf47	-0.42907164
173	0xbdbd5a6f	-0.092457645
174	0x3eb6aa10	0.35676622
175	0x3c4e3fd5	0.012588461
176	0xbea78930	-0.32721853
177	0xbea95f56	-0.33080548
178	0xbf03024b	-0.51175374
179	0x3e814633	0.2524887
180	0x3ece9754	0.4034983
181	0xbf038e94	-0.5138943
182	0x3ed53afa	0.41646558
183	0x3ebb9a23	0.36641034
184	0x3e9fcd90	0.3121152
185	0x3efeec2c	0.4978956
186	0xbef7aa83	-0.48372278
187	0xbee03396	-0.43789357
188	0x3edda5e7	0.43290636
189	0xbe58590c	-0.21127719
190	0xbdc338a3	-0.09532287
191	0xbea58558	-0.32328296
192	0xbcdd2fe8	-0.027000383
193	0xbea3be94	-0.31981337
194	0xbea61eec	-0.32445467
195	0x3ebdf3d9	0.37100103
196	0xbdf52e47	-0.11971717
197	0xbee70ec9	-0.45128468
198	0x3eac7a68	0.3368714
199	0xbeca2afb	-0.39485916
200	0xbeb331d1	-0.34998944
201	0xbeb65a54	-0.3561579
202	0x3e5c9300	0.21540451
203	0x3eb0fb6a	0.34566814
204	0x3ec22e89	0.37926129
205	0x3ecb5cf3	0.39719352
206	0x3dd317f1	0.10307301
207	0xbec04120	-0.37549686
208	0x3eb44ec9	0.35216358
209	0x3ecfb0c4	0.4056455
210	0x3eac8f64	0.33703148
211	0x3ea697a7	0.32537577
212	0xbe2ed1e5	-0.17072256
213	0xbec522d7	-0.38503143
214	0xbe84c4ca	-0.25931388
215	0x3db1575f	0.08659243
216	0xbec8a14d	-0.39185563
217	0xbe624f23	-0.22100501
218	0x3eaf37fa	0.34222394
219	0xbed063d8	-0.40701175
220	0xbeae8fa1	-0.34093955
221	0x3ebddcf7	0.37082645
222	0xbf15555d	-0.5833338
223	0x3ee7d970	0.4528308

exp_avg f4 [1, 2, 16]
0	0x39507839	0.00019881212
1	0xbad57345	-0.0016284963
2	0x39b8b89b	0.00035232757
3	0x38211d98	3.8412953e-05
4	0x3a09078f	0.00052272616
5	0x3944375e	0.00018712642
6	0xbac7d8c0	-0.0015247092
7	0xbab57102	-0.0013842883
8	0xba8b443e	-0.0010625196
9	0xb960ccdb	-0.0002143862
10	0xba9d216b	-0.0011988109
11	0x3949b5f2	0.00019236634
12	0x3a206fbd	0.0006120166
13	0xb9bbce4a	-0.00035821117
14	0x37e77953	2.7593842e-05
15	0x38dafd82	0.000104422696
16	0xb94c2fef	-0.00019472813
17	0xba9b4cca	-0.0011848446
18	0xb947aa96	-0.00019041667
19	0xba1f4e7e	-0.0006077065
20	0x392470e8	0.0001568232
21	0x38a3d6b5	7.812438e-05
22	0x39f6dc52	0.00047084928
23	0x39cc5607	0.00038974007
24	0xb995c507	-0.0002856629
25	0x39470b7b	0.00018982396
26	0xbaa5a6df	-0.0012638232
27	0xba3a6e4c	-0.00071117724
28	0x3a20d47d	0.0006135179
29	0xb98ab8c9	-0.00026459087
30	0xba6be527	-0.0008998685
31	0xba794d4b	-0.0009510114

exp_avg_sq f4 [1, 2, 16]
0	0x36245b28	2.4490964e-06
1	0x3608ab30	2.0365223e-06
2	0x3644bf46	2.9317612e-06
3	0x35bb31ee	1.3947117e-06
4	0x35ee1162	1.7737441e-06
5	0x364f2854	3.0868878e-06
6	0x36577c34	3.2109792e-06
7	0x368cf889	4.2012584e-06
8	0x36a7750c	4.990614e-06
9	0x367392fd	3.629538e-06
10	0x366df77f	3.5459814e-06
11	0x3634e2ac	2.695403e-06
12	0x365e7fdf	3.3155009e-06
13	0x3614f3cb	2.2195625e-06
14	0x369b8c57	4.6356977e-06
15	0x3627d2ca	2.5007635e-06
16	0x36928db0	4.3676337e-06
17	0x36ca16b7	6.0227135e-06
18	0x368727c9	4.027945e-06
19	0x362ff49c	2.6219413e-06
20	0x35ecc43b	1.7640481e-06
21	0x3691870d	4.3370587e-06
22	0x35a090f3	1.1963115e-06
23	0x35e9fb57	1.7433002e-06
24	0x3683547b	3.913939e-06
25	0x365b1042	3.2643006e-06
26	0x36060785	1.9971933e-06
27	0x36e2a6dd	6.7547503e-06
28	0x367f865a	3.8076164e-06
29	0x369c35b1	4.655413e-06
30	0x365af556	3.2627336e-06
31	0x36ccc76d	6.10289e-06

exp_avg f4 [1, 2, 16]
0	0xb9cbb809	-0.00038856294
1	0xb97acf54	-0.00023919094
2	0xb98052d8	-0.00024475786
3	0xb80a88b9	-3.3029097e-05
4	0xb91f4a8e	-0.00015191195
5	0xb94c20ac	-0.00019467127
6	0xb9d50f4a	-0.00040637917
7	0xb9138fc4	-0.0001407257
8	0xb95697fa	-0.00020465246
9	0x38e9fba7	0.0001115718
10	0xb98e6d9e	-0.00027166022
11	0x386376f6	5.423181e-05
12	0xb8179df4	-3.614831e-05
13	0xb8b3e42d	-8.577886e-05
14	0x38a1c2cc	7.713362e-05
15	0x39379616	0.00017508151
16	0xb7c687cc	-2.3666675e-05
17	0x38bc6e71	8.98511e-05
18	0xb965da9b	-0.00021920579
19	0x39a9f333	0.0003241539
20	0x3a0b0c5f	0.00053042726
21	0xb927fe0c	-0.00016021001
22	0xb8318189	-4.2320728e-05
23	0xb8c6782c	-9.4637595e-05
24	0xb928e02f	-0.00016105243
25	0xb9b58458	-0.00034621614
26	0xba4705a6	-0.0007592089
27	0x3901d985	0.00012383431
28	0x39158352	0.00014258668
29	0xba0549c3	-0.0005084539
30	0xb7f2892a	-2.891252e-05
31	0x39cc0777	0.00038915474

exp_avg_sq f4 [1, 2, 16]
0	0x34b913fe	3.4473481e-07
1	0x3421c99e	1.5067641e-07
2	0x348be80a	2.6059598e-07
3	0x3357676d	5.0152654e-08
4	0x340108b6	1.201723e-07
5	0x33e70850	1.0758288e-07
6	0x350e2f8d	5.296832e-07
7	0x33f7978c	1.15294e-07
8	0x34bd255f	3.5231184e-07
9	0x330ee496	3.326985e-08
10	0x341ace3e	1.4417398e-07
11	0x33b650d3	8.489737e-08
12	0x3431699a	1.6522827e-07
13	0x342ce9d2	1.6103812e-07
14	0x3463a21c	2.1199997e-07
15	0x334efa07	4.819051e-08
16	0x346eedd6	2.2252001e-07
17	0x33d40855	9.873535e-08
18	0x34548d9e	1.9795559e-07
19	0x344fd505	1.9355873e-07
20	0x340cbdc1	1.3107548e-07
21	0x357fdca2	9.5315966e-07
22	0x34af7c93	3.268693e-07
23	0x34a5a6a3	3.085489e-07
24	0x3496982d	2.80504e-07
25	0x3466b378	2.148571e-07
26	0x35b56d31	1.351733e-06
27	0x361198ea	2.1695691e-06
28	0x34c67a72	3.6969465e-07
29	0x346e52fc	2.2195667e-07
30	0x350ff6f7	5.363103e-07
31	0x34127f80	1.3643694e-07

exp_avg f4 [32]
0	0xba5a032c	-0.00083165127
1	0x39e410e3	0.0004350013
2	0x3a78109d	0.0009462925
3	0xb8e7601b	-0.000110328394
4	0xba59a14b	-0.00083019276
5	0x38a2d366	7.764138e-05
6	0x3a46e312	0.00075869367
7	0xb98cf11b	-0.00026882518
8	0xb949ba05	-0.00019238151
9	0xb9bbaff1	-0.00035798506
10	0xbb115d86	-0.0022180988
11	0xba345457	-0.00068790227
12	0xba843eb8	-0.0010089492
13	0x39e966f0	0.00044517918
14	0x3a3f4d97	0.00072976336
15	0xb8a58be4	-7.89387e-05
16	0x3824f694	3.933029e-05
17	0xba844697	-0.0010091838
18	0xb78165a9	-1.5425338e-05
19	0xba974a5f	-0.001154255
20	0xb96a80e0	-0.00022363989
21	0xb98bd035	-0.00026667272
22	0x3a4295a1	0.0007422809
23	0x39746abd	0.00023309416
24	0xb92467c4	-0.00015678914
25	0x398a7fc2	0.00026416598
26	0x3a8178da	0.0009877936
27	0x39bea082	0.00036359212
28	0x3893cfb7	7.048196e-05
29	0xba497ae0	-0.00076858513
30	0xb7703ec4	-1.43197285e-05
31	0xbac16de4	-0.0014757481

exp_avg_sq f4 [32]
0	0x369b8b20	4.6355563e-06
1	0x35c1caba	1.4438622e-06
2	0x369ce049	4.6752725e-06
3	0x35f13437	1.7971096e-06
4	0x370c38ef	8.357906e-06
5	0x3608cff5	2.0386626e-06
6	0x365e059c	3.3083843e-06
7	0x364d13dc	3.055894e-06
8	0x36a0723a	4.7816693e-06
9	0x360b46ae	2.0753755e-06
10	0x36973e2a	4.5073875e-06
11	0x35b70037	1.3634625e-06
12	0x3619ad95	2.2899815e-06
13	0x363257cf	2.6575178e-06
14	0x36215b53	2.4044027e-06
15	0x35cd2e20	1.5287114e-06
16	0x360e9fb3	2.1252606e-06
17	0x3593e2a0	1.101831e-06
18	0x3604ec7d	1.9807187e-06
19	0x360b740e	2.0780167e-06
20	0x35545a30	7.9107394e-07
21	0x3645d774	2.9480698e-06
22	0x3633ab88	2.6772923e-06
23	0x3634da0e	2.6949015e-06
24	0x363298c8	2.6612997e-06
25	0x36d47055	6.3311695e-06
26	0x364b6488	3.0307874e-06
27	0x36ae6b05	5.198063e-06
28	0x3600bc19	1.9182974e-06
29	0x368fcde8	4.2857027e-06
30	0x369d9da9	4.6973187e-06
31	0x35e8a9d9	1.7334779e-06

exp_avg f4 [32, 1433]
0	0x39055d57	0.0001271864
1	0xb89d6f24	-7.507045e-05
2	0x38f67ccc	0.00011753439
3	0x385bf2c0	5.2439747e-05
4	0x389da2c5	7.5166616e-05
5	0xb85f25d9	-5.320259e-05
6	0x3899a2f7	7.325963e-05
7	0x3749ae27	1.2021082e-05
8	0x377665a2	1.4686406e-05
9	0xb85e4cab	-5.3000327e-05
10	0xb7bd4c12	-2.2565979e-05
11	0xb523ab73	-6.0971723e-07
12	0xb97916eb	-0.00023755028
13	0x3683de40	3.9299775e-06
14	0xb7ba6b47	-2.2222883e-05
15	0x381e6c15	3.7770795e-05
16	0xb861a14c	-5.37944e-05
17	0xb63935b1	-2.75984e-06
18	0xb87176b0	-5.7569414e-05
19	0xb9c45325	-0.0003744598
20	0xb1430b37	-2.838261e-09
21	0x3867adf8	5.5236713e-05
22	0xb671c1a5	-3.6024514e-06
23	0xb8908b80	-6.892439e-05
24	0xb6cdb4e6	-6.1305354e-06
25	0xb850f17d	-4.9815968e-05
26	0xb7817f4b	-1.5437274e-05
27	0xb90ebfdd	-0.0001361365
28	0x37ab7746	2.044033e-05
29	0x38101f92	3.4361678e-05
30	0xb88c3e35	-6.687307e-05
31	0xb5ae1947	-1.2971367e-06
32	0xb78a70c4	-1.6503393e-05
33	0xb5b22b09	-1.3274558e-06
34	0xb831c45b	-4.238296e-05
35	0xb8213fdc	-3.8444865e-05
36	0x372dab8c	1.0351545e-05
37	0x3685ec87	3.9912443e-06
38	0xb7663ec1	-1.3723679e-05
39	0x38f4bbd8	0.00011669815
40	0xb734b9da	-1.0772108e-05
41	0x37d85ba9	2.579189e-05
42	0xb738bae5	-1.1010769e-05
43	0xb6289867	-2.512266e-06
44	0x37a3fc25	1.9548528e-05
45	0xb8730017	-5.79358e-05
46	0x35f1391b	1.7972519e-06
47	0x39170f31	0.00014406141
48	0xb8689a95	-5.5457076e-05
49	0xb547c39b	-7.441792e-07
50	0xb72333b9	-9.7276e-06
51	0xb9120f39	-0.00013929316
52	0x387b503e	5.9917795e-05
53	0x32ef9007	2.7888758e-08
54	0xb7a2f7cc	-1.9427294e-05
55	0xb797a46e	-1.8077171e-05
56	0x3821bb7a	3.8559992e-05
57	0xb85681b8	-5.1142386e-05
58	0xb62cfe89	-2.5778156e-06
59	0x391d5cfc	0.00015007326
60	0xb10d27ba	-2.0540782e-09
61	0xb93f60f0	-0.00018251291
62	0xb86b92c7	-5.6165063e-05
63	0xb518065e	-5.663368e-07
64	0xb74aee65	-1.2095644e-05
65	0xb84d7ac9	-4.899016e-05
66	0xb7b90a04	-2.2058382e-05
67	0x3888cf1b	6.523562e-05
68	0xb818be1b	-3.6416674e-05
69	0x35494821	7.4983296e-07
70	0xb81e2353	-3.7703034e-05
71	0x36da8f80	6.513612e-06
72	0xb67d5e12	-3.7754694e-06
73	0x36c08eb9	5.738661e-06
74	0x3746dae1	1.1852681e-05
75	0x3706a519	8.025462e-06
76	0xb804a69b	-3.1626416e-05
77	0x39040797	0.00012591328
78	0xb8ea5e37	-0.000111755384
79	0x37862bca	1.5994436e-05
80	0xb80e096d	-3.3864217e-05
81	0x37f206a5	2.8851742e-05
82	0xb6b3db48	-5.3601434e-06
83	0xb83a99bb	-4.448903e-05
84	0xb6a270db	-4.8411143e-06
85	0x3816db86	3.5967234e-05
86	0x38a818e2	8.015499e-05
87	0xb7b60db2	-2.1702468e-05
88	0xb8696d78	-5.565348e-05
89	0x38fb8772	0.00011993841
90	0x374404c3	1.1683619e-05
91	0xb829d192	-4.0487917e-05
92	0xb8df4569	-0.00010646397
93	0x395c7472	0.00021024214
94	0x363f7734	2.8530603e-06
95	0xb843aa82	-4.665042e-05
96	0x3942eaf7	0.00018588813
97	0xb8b1acdf	-8.4722175e-05
98	0x390b1181	0.00013262594
99	0xb8d32ec0	-0.00010069972
100	0x351a5ede	5.750752e-07
101	0x358acde6	1.0341726e-06
102	0x37c5ff27	2.3603045e-05
103	0x37b1f31c	2.121325e-05
104	0x391b69f6	0.00014821425
105	0x36b81627	5.486206e-06
106	0xb5c1c804	-1.4437833e-06
107	0x381397a5	3.518876e-05
108	0xb89a1189	-7.3465584e-05
109	0x38ab85fe	8.1788734e-05
110	0x33c4fcaf	9.172924e-08
111	0xb472e982	-2.2622956e-07
112	0x37710e3e	1.4368035e-05
113	0x336ec745	5.5594928e-08
114	0x3781c50f	1.5469761e-05
115	0xb6cc4b1c	-6.0884176e-06
116	0xb7afd4a3	-2.0960642e-05
117	0xb7122f6d	-8.71332e-06
118	0x374cb009	1.2200334e-05
119	0x380740f8	3.2247015e-05
120	0x36b21b3e	5.307985e-06
121	0x37a17bdc	1.9250372e-05
122	0xb5d2b614	-1.5699211e-06
123	0x36a8bf05	5.0290278e-06
124	0x38b5f664	8.6766464e-05
125	0x395bec8f	0.00020973592
126	0x3763c51a	1.3576146e-05
127	0xb538b5ea	-6.881006e-07
128	0x38880e5f	6.487662e-05
129	0x3745cfd1	1.1790501e-05
130	0xb89fca69	-7.619413e-05
131	0x37d68d5d	2.5576615e-05
132	0xb759ecfb	-1.2989384e-05
133	0xb6ebb9c0	-7.02517e-06
134	0x36ca64d0	6.0318052e-06
135	0xb889a4aa	-6.56334e-05
136	0xb89734cc	-7.210075e-05
137	0x358d5c53	1.0532189e-06
138	0xb58c86c0	-1.047003e-06
139	0xb7d5f0b3	-2.5503663e-05
140	0xb68ed7da	-4.257058e-06
141	0xb814b6f1	-3.5456327e-05
142	0xb7aeb974	-2.0828775e-05
143	0x3620ef7a	2.3981252e-06
144	0x358073fd	9.5705e-07
145	0x30d6d819	1.5631968e-09
146	0x38929517	6.989593e-05
147	0x381addc9	3.6923015e-05
148	0xb8421a28	-4.6277564e-05
149	0x380147ba	3.0822797e-05
150	0xb4e924d4	-4.3426428e-07
151	0xb9483a89	-0.00019095292
152	0x37d7fd26	2.5747879e-05
153	0xb84f759c	-4.9462178e-05
154	0xb7cf32bc	-2.4699948e-05
155	0xb8d99929	-0.000103758946
156	0xb7675dbc	-1.3790497e-05
157	0x3780aa77	1.5338168e-05
158	0x38429622	4.6393026e-05
159	0x38427f0e	4.6371533e-05
160	0xb71a01ca	-9.179532e-06
161	0x382835da	4.0104474e-05
162	0xb8fd94d9	-0.00012091705
163	0xb864b126	-5.452442e-05
164	0xb83f36a4	-4.5588837e-05
165	0x361d690d	2.345597e-06
166	0xb8191e44	-3.650623e-05
167	0xb847a245	-4.7596423e-05
168	0x3986f077	0.00025737632
169	0x36da7e47	6.511607e-06
170	0x38ac1196	8.204875e-05
171	0x364330ab	2.9085593e-06
172	0x37d3d9b6	2.525454e-05
173	0xb7c409c9	-2.3369577e-05
174	0xb83a0152	-4.4347085e-05
175	0x36bb3846	5.5795854e-06
176	0x37ebc5ef	2.8106353e-05
177	0xb90ed50f	-0.00013621546
178	0xb620f458	-2.3984085e-06
179	0x38882784	6.492346e-05
180	0x35956e40	1.1133452e-06
181	0xb78a9ace	-1.6522969e-05
182	0xb94c08c7	-0.00019458226
183	0xb61a8fdd	-2.3031528e-06
184	0x360f10bc	2.1318401e-06
185	0x31598080	3.16507e-09
186	0x375ff2f8	1.3348406e-05
187	0xb81d93b2	-3.756927e-05
188	0x35e2745d	1.6872178e-06
189	0x37e64ae0	2.7453003e-05
190	0xb60ca11b	-2.0955401e-06
191	0xb846570f	-4.728796e-05
192	0xb84714f1	-4.74648e-05
193	0x36532d6b	3.1467887e-06
194	0x38ee14e0	0.00011352613
195	0x38995994	7.312294e-05
196	0xb71ba323	-9.276703e-06
197	0x36ce25dc	6.143686e-06
198	0xb94449c3	-0.00018719495
199	0xb9494255	-0.00019193564
200	0xb62afc50	-2.547884e-06
201	0xb55e7e00	-8.28848e-07
202	0xb71d81a3	-9.388113e-06
203	0xb78e86b4	-1.6990445e-05
204	0x3114163f	2.154948e-09
205	0xb93eaa13	-0.0001818317
206	0xb83103b1	-4.2203526e-05
207	0xb7fe56a6	-3.0319508e-05
208	0x37e885f8	2.771894e-05
209	0xb5d41824	-1.5802257e-06
210	0xb6c2ce2e	-5.805653e-06
211	0x38565836	5.110373e-05
212	0x393ab6de	0.00017806466
213	0xb82721c1	-3.984734e-05
214	0xb7eac66a	-2.7987368e-05
215	0x36ebcd7b	7.027467e-06
216	0xb4769883	-2.2966019e-07
217	0xb7430537	-1.162412e-05
218	0x35fff18e	1.9069282e-06
219	0x388d2745	6.7307185e-05
220	0x388e21dc	6.7773944e-05
221	0x37784752	1.47985575e-05
222	0x36ce856f	6.154812e-06
223	0x363ec083	2.8424263e-06
224	0xb74c92e9	-1.2193553e-05
225	0xb77bf87d	-1.50186215e-05
226	0xb81a2a49	-3.6755842e-05
227	0x37371026	1.091141e-05
228	0xb8f7cbd2	-0.00011815842
229	0x36891053	4.0848186e-06
230	0xb69bd2cf	-4.6439013e-06
231	0xb8710251	-5.7461035e-05
232	0x376ed7df	1.4236167e-05
233	0xb8c137cd	-9.213351e-05
234	0x37ed15bc	2.8262722e-05
235	0x379fe4f4	1.9060892e-05
236	0xb8911af5	-6.91916e-05
237	0xb92665b6	-0.00015868884
238	0x37a1aae3	1.9272271e-05
239	0x3793b0e8	1.7606144e-05
240	0x37dae2d2	2.6093247e-05
241	0x376ab4e3	1.3989603e-05
242	0xb62084d9	-2.3919185e-06
243	0x358aa0ea	1.0328633e-06
244	0xb7d3a525	-2.5230062e-05
245	0xb51ff64d	-5.959053e-07
246	0x350aa701	5.165203e-07
247	0x358ae457	1.0348257e-06
248	0x3724f184	9.831394e-06
249	0x3822f8aa	3.8855396e-05
250	0xb841afb7	-4.6178433e-05
251	0x35e5b567	1.7114625e-06
252	0xb7421d58	-1.1570133e-05
253	0xb8115e99	-3.4658795e-05
254	0x38204f6b	3.8220936e-05
255	0x3888b10a	6.5179614e-05

exp_avg_sq f4 [32, 1433]
0	0x32053165	7.75285e-09
1	0x339795a6	7.058706e-08
2	0x331902a3	3.5625487e-08
3	0x33a31431	7.593952e-08
4	0x3427a3b0	1.5612636e-07
5	0x32025f9f	7.588738e-09
6	0x3315428e	3.4752297e-08
7	0x310d8a90	2.0596964e-09
8	0x323c6ee9	1.0968258e-08
9	0x32a81777	1.9568445e-08
10	0x2fc16963	3.5181377e-10
11	0x3031d4db	6.469471e-10
12	0x33235ee9	3.8037715e-08
13	0x3304f973	3.0960518e-08
14	0x30d6c5db	1.5626783e-09
15	0x32060c3d	7.802609e-09
16	0x320d8136	8.236659e-09
17	0x30a22559	1.1797666e-09
18	0x31a79858	4.877659e-09
19	0x351652f3	5.600006e-07
20	0x2b1420a5	5.2625466e-13
21	0x31c9275e	5.8543455e-09
22	0x313ce460	2.7487417e-09
23	0x31937319	4.291348e-09
24	0x305f6cf4	8.128176e-10
25	0x339c87a0	7.288986e-08
26	0x3343639e	4.5492577e-08
27	0x32d0bcc0	2.430022e-08
28	0x3221ae53	9.41107e-09
29	0x316e50fb	3.467959e-09
30	0x31dbf292	6.401316e-09
31	0x2f6c6ef1	2.1503489e-10
32	0x309d6953	1.1453188e-09
33	0x2fa5c8c0	3.0155967e-10
34	0x326dd08a	1.3842632e-08
35	0x32c9cee5	2.3493564e-08
36	0x30d20dc5	1.5283425e-09
37	0x32e3ce3a	2.6520059e-08
38	0x33ca2230	9.412577e-08
39	0x340c8cc9	1.3089733e-07
40	0x32ba5090	2.1689885e-08
41	0x3413e04d	1.3772042e-07
42	0x32a0913b	1.8692495e-08
43	0x303deee7	6.90973e-10
44	0x31f271ad	7.0560504e-09
45	0x3366dd41	5.3752277e-08
46	0x2f355439	1.6491776e-10
47	0x32675b6e	1.3466758e-08
48	0x334849e9	4.663335e-08
49	0x2f79d9f4	2.272385e-10
50	0x324d1108	1.1936443e-08
51	0x3387602f	6.303923e-08
52	0x343f6f6b	1.7828795e-07
53	0x2de54cde	2.6068422e-11
54	0x3220d90e	9.362578e-09
55	0x31ea06bc	6.811062e-09
56	0x326cd311	1.3784999e-08
57	0x320c2d1e	8.159331e-09
58	0x328eaeca	1.661046e-08
59	0x331d50a0	3.662774e-08
60	0x293921b1	4.1107475e-14
61	0x33b628af	8.482436e-08
62	0x33497d43	4.6912884e-08
63	0x3307a824	3.158506e-08
64	0x3246fa44	1.1582021e-08
65	0x336a8c5c	5.4610027e-08
66	0x329a1d6d	1.794134e-08
67	0x33a308c3	7.591873e-08
68	0x3103035b	1.9064916e-09
69	0x311c24fc	2.272201e-09
70	0x32ce7758	2.4035828e-08
71	0x30ff8ea9	1.8594238e-09
72	0x312a0d79	2.4745914e-09
73	0x2e7ebc08	5.791992e-11
74	0x30d9bcca	1.5842485e-09
75	0x30666ed8	8.383103e-10
76	0x30daa87f	1.5909477e-09
77	0x32844ed3	1.5402668e-08
78	0x327dc005	1.4770198e-08
79	0x313b27a3	2.7234612e-09
80	0x32b08e14	2.0553706e-08
81	0x333a5d09	4.3391115e-08
82	0x31e561a5	6.675878e-09
83	0x32b2e9fd	2.0828333e-08
84	0x31cc4d26	5.945952e-09
85	0x32412176	1.1241687e-08
86	0x32bd2634	2.2019869e-08
87	0x31e46e15	6.6481882e-09
88	0x32da7595	2.543201e-08
89	0x33f6c0bc	1.1490326e-07
90	0x302cc35b	6.285085e-10
91	0x322f98ec	1.0221111e-08
92	0x329d2a7b	1.8296523e-08
93	0x346b7c75	2.1931358e-07
94	0x3106c3d7	1.9610888e-09
95	0x3135f6df	2.6479297e-09
96	0x3298ee8b	1.7803606e-08
97	0x3376168e	5.729685e-08
98	0x33745df5	5.689613e-08
99	0x34c89a8e	3.7365356e-07
100	0x322e812f	1.0157506e-08
101	0x2db3c536	2.0437523e-11
102	0x30f04095	1.7480654e-09
103	0x31a096b9	4.673748e-09
104	0x337405ec	5.6816063e-08
105	0x31c059a7	5.5981277e-09
106	0x3059bc73	7.921194e-10
107	0x32144471	8.630296e-09
108	0x32a9301f	1.9696072e-08
109	0x3389703f	6.399977e-08
110	0x2fca6e65	3.6822026e-10
111	0x303e74ac	6.92874e-10
112	0x31122a93	2.1269997e-09
113	0x2c875dcd	3.8473448e-12
114	0x30bab3ab	1.3584346e-09
115	0x301098c3	5.260398e-10
116	0x325dfd7d	1.292153e-08
117	0x311b845c	2.2630706e-09
118	0x33222913	3.775592e-08
119	0x3240d585	1.122442e-08
120	0x313a9d30	2.7155913e-09
121	0x31f6093f	7.1605935e-09
122	0x317ed9de	3.7085708e-09
123	0x31649e1f	3.3268248e-09
124	0x3276dbbf	1.4369049e-08
125	0x3366e59e	5.3759884e-08
126	0x334c5408	4.7573877e-08
127	0x3104a32a	1.9301276e-09
128	0x330d8a4a	3.2954894e-08
129	0x3147354a	2.8988603e-09
130	0x3405bb9c	1.2454842e-07
131	0x336627ce	5.358725e-08
132	0x34aaa6c0	3.1786294e-07
133	0x32eab689	2.7324193e-08
134	0x2fe4b13f	4.15989e-10
135	0x349a0f04	2.869566e-07
136	0x33277d55	3.8996706e-08
137	0x2fdb86c3	3.9931622e-10
138	0x3022d4f8	5.9237903e-10
139	0x3218f49e	8.903184e-09
140	0x341f02bc	1.4809024e-07
141	0x30fe81da	1.8517838e-09
142	0x318cdc52	4.099584e-09
143	0x30c929a5	1.4636511e-09
144	0x2eba483b	8.4711314e-11
145	0x292cb7f2	3.835122e-14
146	0x3286c089	1.5687208e-08
147	0x3256c0db	1.250029e-08
148	0x3262d257	1.3202757e-08
149	0x3382a74a	6.0840264e-08
150	0x31b53caa	5.27469e-09
151	0x344ea5e5	1.9245597e-07
152	0x312d8314	2.5249323e-09
153	0x31ea6c88	6.822635e-09
154	0x3183a4f2	3.831354e-09
155	0x332bcf10	4.0002362e-08
156	0x31ff3a9d	7.4281403e-09
157	0x3225e852	9.657088e-09
158	0x3137548a	2.667806e-09
159	0x3136bfef	2.6593587e-09
160	0x323bfca6	1.0942278e-08
161	0x317aa917	3.6475905e-09
162	0x3425b9e8	1.5434455e-07
163	0x30aeb2f8	1.2711032e-09
164	0x308c7d83	1.0222013e-09
165	0x30e988b7	1.6991838e-09
166	0x33062533	3.123314e-08
167	0x3107c58a	1.9757374e-09
168	0x33ae9969	8.1304115e-08
169	0x318d961c	4.1207056e-09
170	0x327bd894	1.4659367e-08
171	0x2fcbbd5c	3.7060033e-10
172	0x310e9832	2.0750233e-09
173	0x3304dd50	3.0934928e-08
174	0x329c5d5c	1.8203245e-08
175	0x3038b466	6.719517e-10
176	0x32cafb18	2.363008e-08
177	0x32b0346b	2.0512934e-08
178	0x318158a5	3.764472e-09
179	0x33839dc0	6.1288574e-08
180	0x2fcddc24	3.7445702e-10
181	0x3146d9f8	2.8936693e-09
182	0x32d6c920	2.500434e-08
183	0x317434d3	3.55367e-09
184	0x3081442d	9.405362e-10
185	0x2d04e3e5	7.553934e-12
186	0x33834de1	6.114329e-08
187	0x34009690	1.1975703e-07
188	0x30456c80	7.182237e-10
189	0x307a90ff	9.115552e-10
190	0x3125fae5	2.4153277e-09
191	0x33d77079	1.0032176e-07
192	0x33eb4496	1.0955516e-07
193	0x30daf7df	1.5932037e-09
194	0x3323dd94	3.815292e-08
195	0x32882cc6	1.5852844e-08
196	0x334268be	4.5264407e-08
197	0x30c8628b	1.4579923e-09
198	0x329e11c9	1.8401709e-08
199	0x329add9a	1.8028732e-08
200	0x30d30152	1.5352646e-09
201	0x2e258e04	3.764279e-11
202	0x313118bf	2.5770956e-09
203	0x344e978b	1.9240376e-07
204	0x2e8ab512	6.307678e-11
205	0x34286cb7	1.568577e-07
206	0x31aa0181	4.947822e-09
207	0x32231946	9.493595e-09
208	0x32de499d	2.5877677e-08
209	0x30a40234	1.1933197e-09
210	0x30b9e484	1.352547e-09
211	0x34093b60	1.278072e-07
212	0x33e21df7	1.0529396e-07
213	0x323ddef1	1.1051939e-08
214	0x32363027	1.0604743e-08
215	0x31502b07	3.0292442e-09
216	0x2e18d040	3.4745762e-11
217	0x32532e8e	1.2292402e-08
218	0x2fb113d9	3.2210215e-10
219	0x3224834e	9.575912e-09
220	0x327d04af	1.4727603e-08
221	0x3193de4d	4.3035357e-09
222	0x30cab047	1.4747535e-09
223	0x2e8c4336	6.378402e-11
224	0x31244b2f	2.3907878e-09
225	0x32e02b0a	2.6096604e-08
226	0x31c471a6	5.717271e-09
227	0x3247fdff	1.16410765e-08
228	0x337219ae	5.636837e-08
229	0x305c43b5	8.013175e-10
230	0x32298b46	9.868762e-09
231	0x31ea2824	6.81486e-09
232	0x3132886b	2.5979954e-09
233	0x3395f42f	6.98277e-08
234	0x335c7ca7	5.1336112e-08
235	0x31c2db35	5.671064e-09
236	0x32f2dc4e	2.827269e-08
237	0x33b045e1	8.2083496e-08
238	0x32d1e22f	2.4433659e-08
239	0x3123e269	2.384832e-09
240	0x32885203	1.5869778e-08
241	0x31056505	1.941147e-09
242	0x3130e570	2.574179e-09
243	0x307f04f3	9.2775493e-10
244	0x31427787	2.829866e-09
245	0x31a0e326	4.6824367e-09
246	0x2f6e51e0	2.1675062e-10
247	0x33502be8	4.8468706e-08
248	0x30f685b7	1.793686e-09
249	0x32e5a2ae	2.6733087e-08
250	0x342b594f	1.5958106e-07
251	0x3329be60	3.9521524e-08
252	0x314d0ff6	2.98405e-09
253	0x31d893ac	6.3032157e-09
254	0x320fe51b	8.375788e-09
255	0x3239ef93	1.082289e-08

exp_avg f4 [1, 1, 7]
0	0x3c02d478	0.007985227
1	0x3cc7f620	0.024409354
2	0xbc2b2699	-0.010446214
3	0x3a8142c4	0.0009861817
4	0xbbf664ce	-0.007519341
5	0xbc143ce5	-0.0090477215
6	0x3a44a17c	0.00075008697

exp_avg_sq f4 [1, 1, 7]
0	0x39225757	0.0001548206
1	0x392598f3	0.00015792604
2	0x398152c4	0.00024666463
3	0x398e9fa6	0.00027203298
4	0x394b9c00	0.00019417703
5	0x3a32bca7	0.00068182725
6	0x393a61b6	0.00017774742

exp_avg f4 [1, 1, 7]
0	0xbb012a63	-0.0019709102
1	0x3b717ba7	0.0036847384
2	0x3b49caa3	0.0030790947
3	0xba80e115	-0.0009832705
4	0xbbf7c9ec	-0.0075619128
5	0xba8984ce	-0.0010491849
6	0x39ead366	0.00044789462

exp_avg_sq f4 [1, 1, 7]
0	0x3738ac1b	1.1007326e-05
1	0x379aaee7	1.8439676e-05
2	0x36920354	4.3515265e-06
3	0x362daafd	2.5878537e-06
4	0x37879181	1.616101e-05
5	0x370c7cff	8.373753e-06
6	0x3714be25	8.865759e-06

exp_avg f4 [7]
0	0xb9864fda	-0.00025617966
1	0xb8cf1c97	-9.8758544e-05
2	0x3a8b1ecf	0.001061404
3	0x3a33236d	0.0006833587
4	0xb9a9531d	-0.00032296116
5	0x3a2d0774	0.0006600537
6	0xbae1f1f8	-0.001723825

exp_avg_sq f4 [7]
0	0x36ad50d3	5.165211e-06
1	0x36e07140	6.6889043e-06
2	0x3731e57d	1.0603454e-05
3	0x37524891	1.2533871e-05
4	0x3732e6ce	1.0663365e-05
5	0x366fad21	3.571455e-06
6	0x3642995d	2.8997522e-06
