Node_Classification/RGAT/checkpoints/rgat.pth (torch, 569069 bytes, 40 tensors)

conv1.q f4 [16, 1]
0	0xbe0b121c	-0.13581127
1	0x3d5693e7	0.052387144
2	0xbe0bb3f9	-0.13642873
3	0xbe238e53	-0.15972261
4	0x3e8d4fd0	0.27599955
5	0xbefc1dcb	-0.4924148
6	0x3efd5a65	0.49483028
7	0xbd53ce1f	-0.051710244
8	0xbe921902	-0.28534704
9	0xbde807e0	-0.11329627
10	0xbe4d2c5e	-0.20036456
11	0x3e2a9bd5	0.16661008
12	0x3e5d9365	0.21638258
13	0xbd94d6af	-0.0726751
14	0xbe15715c	-0.14594024
15	0xbe87719f	-0.26453874

conv1.k f4 [16, 1]
0	0x3f26a8fb	0.65101594
1	0xbe1060d2	-0.14099434
2	0xbeefe752	-0.4685617
3	0x3e966d15	0.29380098
4	0x3f33138e	0.69951713
5	0xbea5d371	-0.3238788
6	0xbd9ebe44	-0.07751134
7	0x3f4ce628	0.8003869
8	0xbea13ad9	-0.3149021
9	0x3f269d0c	0.65083385
10	0x3ee39ae7	0.4445412
11	0xbeef4d43	-0.46738634
12	0x3f46f5b9	0.77718693
13	0xbe7e6d00	-0.24846268
14	0x3eddf581	0.43351367
15	0x3e213a4b	0.15744893

conv1.bias f4 [16]
0	0x3e972446	0.29519862
1	0x3e261001	0.16217043
2	0x3c862914	0.01637701
3	0x3e9fff53	0.31249484
4	0x3ecae47d	0.39627448
5	0x3d72ce9d	0.059279073
6	0x3ee791e2	0.45228487
7	0x3eec2b4d	0.46126786
8	0x3deb5104	0.11490062
9	0x3ece8358	0.40334582
10	0x3eb0dd10	0.34543657
11	0x3e9a5252	0.3014093
12	0x3ec5ac70	0.38608122
13	0x3dc1184b	0.09428462
14	0x3e7b0873	0.24514942
15	0x3ded8710	0.11598027

conv1.weight f4 [90, 16, 16]
0	0xba926c14	-0.0011171126
1	0x397fa5e5	0.00024380496
2	0xbb10609a	-0.0022030235
3	0xbae91b19	-0.0017784565
4	0x3b37f4d9	0.0028069525
5	0xbbc10002	-0.0058898935
6	0x3b9bee99	0.0047586677
7	0x39a7c269	0.0003199757
8	0xbb6d4a53	-0.003620763
9	0xba987054	-0.0011630156
10	0xbb12847f	-0.0022356806
11	0x3a8d9d86	0.0010804392
12	0x3b50da3d	0.0031868361
13	0xba9a6ded	-0.0011782028
14	0xbad4629e	-0.0016203707
15	0xbb4fee92	-0.0031727892
16	0x39982786	0.00029021146
17	0x39c9f6c0	0.0003852155
18	0x3b82ac76	0.003987844
19	0x3acbdc9a	0.0015553415
20	0xba91e18c	-0.001112984
21	0x3bf4a4f0	0.007465951
22	0xbba88018	-0.005142223
23	0xbb3b9090	-0.0028620102
24	0x3ba495d4	0.0050227437
25	0x3b0f0998	0.0021825787
26	0x3b07fdb3	0.0020750582
27	0x39c9eca9	0.00038514033
28	0xbba6f706	-0.0050953655
29	0x3b0b5290	0.0021258928
30	0x3b21f00f	0.0024709736
31	0x3bcbd277	0.0062201577
32	0x39e91465	0.00044456418
33	0xba27d182	-0.00064017635
34	0x3a82a048	0.000996598
35	0x3a29d378	0.00064783497
36	0xbb09a82d	-0.0021004782
37	0x3b6cd4ed	0.0036137656
38	0xbb6a2344	-0.0035726586
39	0x3952319b	0.0002004564
40	0x3b0bddb4	0.0021341862
41	0xb94ea0b0	-0.00019705552
42	0x3a2fad8a	0.00067015796
43	0xbabbc7db	-0.0014326529
44	0xba8de5ba	-0.001082591
45	0x3a11bf2d	0.00055597984
46	0x3a8268a9	0.0009949404
47	0x3b3a4edc	0.0028428352
48	0x39eed3dd	0.00045552748
49	0x3aa786a3	0.0012781214
50	0x3b4b59ed	0.0031028942
51	0x3aeb956a	0.0017973606
52	0xbb0d02d8	-0.0021516588
53	0x3b5f3575	0.0034058962
54	0x3a777c06	0.0009440783
55	0xbb3136b8	-0.0027040672
56	0x3b32e356	0.0027296147
57	0x3b18f597	0.0023339742
58	0x3b16bbb8	0.0023000073
59	0x3b1e3db0	0.0024145655
60	0xbbcce099	-0.00625236
61	0x3ada8cd5	0.0016674051
62	0xba4e2dfe	-0.000786513
63	0xbb47d0e6	-0.0030489503
64	0x3b8936e7	0.004187453
65	0x386b997f	5.617132e-05
66	0xba8c1a15	-0.0010688925
67	0x3b237285	0.0024940085
68	0x3badfc2b	0.005309602
69	0xba8d92fa	-0.0010801249
70	0x3a69ca41	0.0008918383
71	0x3b1fdf14	0.002439444
72	0xba6f13e0	-0.0009120088
73	0x3bd71363	0.0065635904
74	0x3b7e0bc4	0.0038764337
75	0xba52fcfb	-0.0008048561
76	0x3a69bbf5	0.00089162524
77	0xba2254b2	-0.000619243
78	0x3b29fb7f	0.0025937257
79	0x3a513355	0.00079803664
80	0xba80fb1d	-0.0009840463
81	0xb9f10d59	-0.00045977047
82	0xbafa5d8e	-0.0019101368
83	0xbad89e4c	-0.0016526668
84	0x3b356442	0.0027678167
85	0xbb563f0d	-0.003269139
86	0x3a9881ca	0.001163536
87	0x3a8f4d2a	0.0010933031
88	0xbb15daff	-0.0022866128
89	0xbaf5af79	-0.0018744312
90	0xbb0d5b0e	-0.0021569165
91	0xba05ace6	-0.0005099311
92	0x3b996082	0.004680694
93	0xba8765c5	-0.0010330012
94	0x3a1b1917	0.00059165194
95	0x3b2d5294	0.0026446925
96	0x3b5a6f7a	0.0033330605
97	0x3a4987db	0.00076877855
98	0xb95a0559	-0.00020792092
99	0x3b06d7a1	0.0020575302
100	0x3ba7d4a7	0.0051217857
101	0xba83e0a2	-0.0010061453
102	0x3aee476a	0.0018179242
103	0x3a5c454f	0.0008402662
104	0xba1f5c75	-0.0006079146
105	0x3bd94e86	0.006631675
106	0x3b6abc86	0.0035817935
107	0x3a0db975	0.00054063584
108	0xb9fdd943	-0.00048417793
109	0xb93cc58c	-0.00018002669
110	0x3ae95aa6	0.0017803505
111	0x384c190d	4.866072e-05
112	0x3a8c9a72	0.0010727181
113	0xb9a937a1	-0.0003227564
114	0xb92acb1d	-0.00016288129
115	0x3a422020	0.00074052997
116	0xb7b8f9b1	-2.205078e-05
117	0x3a6e0d5e	0.00090809714
118	0xbab39d90	-0.0013703573
119	0x3a87f0dd	0.0010371465
120	0x39c9d60b	0.00038497182
121	0x3a85b68e	0.00102015
122	0x3a7cd2d8	0.0009644455
123	0xba82f722	-0.0009991864
124	0x39105786	0.00013765515
125	0xb9036492	-0.00012530599
126	0x3a6ca4cf	0.0009027244
127	0x3a81aa3c	0.0009892653
128	0xbb0827fe	-0.002077579
129	0x3acd6e71	0.0015673173
130	0xba606c51	-0.0008561062
131	0xbaf9256e	-0.0019008347
132	0x3b3f2060	0.0029163584
133	0xbbdd3f1c	-0.006751908
134	0x3c02bdb1	0.007979796
135	0xbb0cf50a	-0.002150836
136	0xbb6b9095	-0.0035944332
137	0xba090523	-0.00052269007
138	0xbb0dcd87	-0.0021637396
139	0x3b812fe5	0.003942477
140	0x399d80ff	0.00030041483
141	0xb9f114b3	-0.00045982524
142	0xbb512e03	-0.0031918294
143	0xbbc4682d	-0.005993864
144	0xba7f1bd1	-0.0009731623
145	0x393f9c81	0.00018273482
146	0xbaec3fac	-0.0018024347
147	0xbac80cc7	-0.0015262597
148	0x3af71b3f	0.0018852724
149	0xbb965241	-0.004587442
150	0x3b53f5c0	0.0032342523
151	0x3990afbe	0.00027596758
152	0xbb3d831c	-0.0028917259
153	0xba491575	-0.0007670739
154	0xbaee8fbe	-0.0018200797
155	0x3a37203d	0.00069857
156	0x3b2d15cc	0.0026410697
157	0xba80ca21	-0.0009825864
158	0xba9ef6ea	-0.001212803
159	0xbaf3a6e3	-0.0018589165
160	0xbb8551a0	-0.0040685683
161	0x3af339ea	0.0018556688
162	0xb9e26b0d	-0.00043185838
163	0xbb64475f	-0.003483258
164	0x3ba0aae3	0.004903184
165	0xbbfe51f0	-0.0077612326
166	0x3c20d654	0.009816725
167	0xbb88c9c7	-0.0041744444
168	0xbb817e23	-0.0039518042
169	0xbb0d5ece	-0.00215714
170	0xbb8ec746	-0.0043572513
171	0x3baea2fc	0.005329488
172	0x3a884e36	0.0010399285
173	0xb971f412	-0.00023074474
174	0xbb3f1d2e	-0.002916168
175	0xbb73164a	-0.0037092143
176	0xbaca64c7	-0.0015441411
177	0xb906ed60	-0.00012867665
178	0xbb2b3f25	-0.0026130166
179	0xbb10b127	-0.0022078247
180	0x3b0c6e91	0.0021428207
181	0xbbb9c8df	-0.0056696977
182	0x3b69a015	0.0035648395
183	0x3a57a38e	0.00082259707
184	0xbb70318a	-0.0036650621
185	0xbb333727	-0.0027346106
186	0xbb3e9c18	-0.0029084738
187	0x399471b5	0.00028313478
188	0x3b8f48eb	0.004372706
189	0xbab7dc09	-0.0014027368
190	0xbac148e7	-0.0014746458
191	0xbb239615	-0.0024961282
192	0xb99c029c	-0.00029756583
193	0xba349097	-0.00068880006
194	0xbb5dd705	-0.0033850085
195	0xbac806f1	-0.0015260858
196	0x3b040d31	0.0020149464
197	0xbbb2d678	-0.0054576956
198	0x3b271fd4	0.0025501149
199	0x3b21f03f	0.0024709848
200	0xbb7b4c2d	-0.0038344965
201	0xbaf5668d	-0.0018722579
202	0xbb042882	-0.0020165746
203	0xba8ff9e4	-0.0010984507
204	0x3bb5ac30	0.005544208
205	0xbaea2097	-0.0017862496
206	0xba60e79c	-0.00085794344
207	0xbb074dea	-0.0020645806
208	0x3aa2a470	0.0012408625
209	0x3a5584c6	0.000814509
210	0x3a841c82	0.0010079297
211	0x3a7df7c2	0.0009688103
212	0x3b5f0285	0.0034028601
213	0x39a5e743	0.00031643556
214	0x3aa786da	0.0012781278
215	0xba983aec	-0.001161424
216	0x39f5aff4	0.00046861137
217	0x3b87e432	0.004147076
218	0x3adf71b6	0.0017047438
219	0x3ab0d405	0.0013490921
220	0xbaf5f93e	-0.0018766297
221	0x3a00a9aa	0.00049080944
222	0x3a994193	0.0011692516
223	0x3a0b5417	0.00053149596
224	0xbb67815c	-0.0035324907
225	0x3a6596aa	0.00087581074
226	0x3b198eaa	0.0023430982
227	0xbaf06401	-0.001834035
228	0xbaaf833b	-0.001339055
229	0x3a9f7376	0.0012165147
230	0x3a32e34d	0.00068240316
231	0xbb8c0b98	-0.004273843
232	0x3ab46e9a	0.0013765872
233	0xbb3aae19	-0.0028485118
234	0xbb2539f4	-0.0025211545
235	0x3b320858	0.0027165618
236	0xbb38ce91	-0.0028199295
237	0x3aa3f61d	0.001250926
238	0xbaa1a7a3	-0.0012333285
239	0x3a9e2b20	0.0012067296
240	0x3b07da37	0.0020729431
241	0xba60d7c5	-0.0008577074
242	0xb9a7c7ea	-0.0003200167
243	0x3ac5b14f	0.0015082749
244	0xba745cc1	-0.0009321683
245	0x3b28bc39	0.0025746955
246	0xbb6a7892	-0.0035777432
247	0x3b16fa60	0.0023037419
248	0x3a970b85	0.0011523819
249	0x3aa79ea5	0.0012788369
250	0x3af22e8b	0.0018477006
251	0xbb226384	-0.0024778554
252	0x3a1eddc2	0.0006060266
253	0xb93a02d6	-0.00017739399
254	0x3ad308cc	0.0016100644
255	0x3b0f9a7c	0.0021912148

conv1.w f4 [16]
0	0x3f800000	1.0
1	0x3f800000	1.0
2	0x3f800000	1.0
3	0x3f800000	1.0
4	0x3f800000	1.0
5	0x3f800000	1.0
6	0x3f800000	1.0
7	0x3f800000	1.0
8	0x3f800000	1.0
9	0x3f800000	1.0
10	0x3f800000	1.0
11	0x3f800000	1.0
12	0x3f800000	1.0
13	0x3f800000	1.0
14	0x3f800000	1.0
15	0x3f800000	1.0

conv1.l1 f4 [1, 16]
0	0x3f800000	1.0
1	0x3f800000	1.0
2	0x3f800000	1.0
3	0x3f800000	1.0
4	0x3f800000	1.0
5	0x3f800000	1.0
6	0x3f800000	1.0
7	0x3f800000	1.0
8	0x3f800000	1.0
9	0x3f800000	1.0
10	0x3f800000	1.0
11	0x3f800000	1.0
12	0x3f800000	1.0
13	0x3f800000	1.0
14	0x3f800000	1.0
15	0x3f800000	1.0

conv1.b1 f4 [1, 16]
0	0x00000000	0.0
1	0x00000000	0.0
2	0x00000000	0.0
3	0x00000000	0.0
4	0x00000000	0.0
5	0x00000000	0.0
6	0x00000000	0.0
7	0x00000000	0.0
8	0x00000000	0.0
9	0x00000000	0.0
10	0x00000000	0.0
11	0x00000000	0.0
12	0x00000000	0.0
13	0x00000000	0.0
14	0x00000000	0.0
15	0x00000000	0.0

conv1.l2 f4 [16, 16]
0	0x00000000	0.0
1	0x00000000	0.0
2	0x00000000	0.0
3	0x00000000	0.0
4	0x00000000	0.0
5	0x00000000	0.0
6	0x00000000	0.0
7	0x00000000	0.0
8	0x00000000	0.0
9	0x00000000	0.0
10	0x00000000	0.0
11	0x00000000	0.0
12	0x00000000	0.0
13	0x00000000	0.0
14	0x00000000	0.0
15	0x00000000	0.0
16	0x00000000	0.0
17	0x00000000	0.0
18	0x00000000	0.0
19	0x00000000	0.0
20	0x00000000	0.0
21	0x00000000	0.0
22	0x00000000	0.0
23	0x00000000	0.0
24	0x00000000	0.0
25	0x00000000	0.0
26	0x00000000	0.0
27	0x00000000	0.0
28	0x00000000	0.0
29	0x00000000	0.0
30	0x00000000	0.0
31	0x00000000	0.0
32	0x00000000	0.0
33	0x00000000	0.0
34	0x00000000	0.0
35	0x00000000	0.0
36	0x00000000	0.0
37	0x00000000	0.0
38	0x00000000	0.0
39	0x00000000	0.0
40	0x00000000	0.0
41	0x00000000	0.0
42	0x00000000	0.0
43	0x00000000	0.0
44	0x00000000	0.0
45	0x00000000	0.0
46	0x00000000	0.0
47	0x00000000	0.0
48	0x00000000	0.0
49	0x00000000	0.0
50	0x00000000	0.0
51	0x00000000	0.0
52	0x00000000	0.0
53	0x00000000	0.0
54	0x00000000	0.0
55	0x00000000	0.0
56	0x00000000	0.0
57	0x00000000	0.0
58	0x00000000	0.0
59	0x00000000	0.0
60	0x00000000	0.0
61	0x00000000	0.0
62	0x00000000	0.0
63	0x00000000	0.0
64	0x00000000	0.0
65	0x00000000	0.0
66	0x00000000	0.0
67	0x00000000	0.0
68	0x00000000	0.0
69	0x00000000	0.0
70	0x00000000	0.0
71	0x00000000	0.0
72	0x00000000	0.0
73	0x00000000	0.0
74	0x00000000	0.0
75	0x00000000	0.0
76	0x00000000	0.0
77	0x00000000	0.0
78	0x00000000	0.0
79	0x00000000	0.0
80	0x00000000	0.0
81	0x00000000	0.0
82	0x00000000	0.0
83	0x00000000	0.0
84	0x00000000	0.0
85	0x00000000	0.0
86	0x00000000	0.0
87	0x00000000	0.0
88	0x00000000	0.0
89	0x00000000	0.0
90	0x00000000	0.0
91	0x00000000	0.0
92	0x00000000	0.0
93	0x00000000	0.0
94	0x00000000	0.0
95	0x00000000	0.0
96	0x00000000	0.0
97	0x00000000	0.0
98	0x00000000	0.0
99	0x00000000	0.0
100	0x00000000	0.0
101	0x00000000	0.0
102	0x00000000	0.0
103	0x00000000	0.0
104	0x00000000	0.0
105	0x00000000	0.0
106	0x00000000	0.0
107	0x00000000	0.0
108	0x00000000	0.0
109	0x00000000	0.0
110	0x00000000	0.0
111	0x00000000	0.0
112	0x00000000	0.0
113	0x00000000	0.0
114	0x00000000	0.0
115	0x00000000	0.0
116	0x00000000	0.0
117	0x00000000	0.0
118	0x00000000	0.0
119	0x00000000	0.0
120	0x00000000	0.0
121	0x00000000	0.0
122	0x00000000	0.0
123	0x00000000	0.0
124	0x00000000	0.0
125	0x00000000	0.0
126	0x00000000	0.0
127	0x00000000	0.0
128	0x00000000	0.0
129	0x00000000	0.0
130	0x00000000	0.0
131	0x00000000	0.0
132	0x00000000	0.0
133	0x00000000	0.0
134	0x00000000	0.0
135	0x00000000	0.0
136	0x00000000	0.0
137	0x00000000	0.0
138	0x00000000	0.0
139	0x00000000	0.0
140	0x00000000	0.0
141	0x00000000	0.0
142	0x00000000	0.0
143	0x00000000	0.0
144	0x00000000	0.0
145	0x00000000	0.0
146	0x00000000	0.0
147	0x00000000	0.0
148	0x00000000	0.0
149	0x00000000	0.0
150	0x00000000	0.0
151	0x00000000	0.0
152	0x00000000	0.0
153	0x00000000	0.0
154	0x00000000	0.0
155	0x00000000	0.0
156	0x00000000	0.0
157	0x00000000	0.0
158	0x00000000	0.0
159	0x00000000	0.0
160	0x00000000	0.0
161	0x00000000	0.0
162	0x00000000	0.0
163	0x00000000	0.0
164	0x00000000	0.0
165	0x00000000	0.0
166	0x00000000	0.0
167	0x00000000	0.0
168	0x00000000	0.0
169	0x00000000	0.0
170	0x00000000	0.0
171	0x00000000	0.0
172	0x00000000	0.0
173	0x00000000	0.0
174	0x00000000	0.0
175	0x00000000	0.0
176	0x00000000	0.0
177	0x00000000	0.0
178	0x00000000	0.0
179	0x00000000	0.0
180	0x00000000	0.0
181	0x00000000	0.0
182	0x00000000	0.0
183	0x00000000	0.0
184	0x00000000	0.0
185	0x00000000	0.0
186	0x00000000	0.0
187	0x00000000	0.0
188	0x00000000	0.0
189	0x00000000	0.0
190	0x00000000	0.0
191	0x00000000	0.0
192	0x00000000	0.0
193	0x00000000	0.0
194	0x00000000	0.0
195	0x00000000	0.0
196	0x00000000	0.0
197	0x00000000	0.0
198	0x00000000	0.0
199	0x00000000	0.0
200	0x00000000	0.0
201	0x00000000	0.0
202	0x00000000	0.0
203	0x00000000	0.0
204	0x00000000	0.0
205	0x00000000	0.0
206	0x00000000	0.0
207	0x00000000	0.0
208	0x00000000	0.0
209	0x00000000	0.0
210	0x00000000	0.0
211	0x00000000	0.0
212	0x00000000	0.0
213	0x00000000	0.0
214	0x00000000	0.0
215	0x00000000	0.0
216	0x00000000	0.0
217	0x00000000	0.0
218	0x00000000	0.0
219	0x00000000	0.0
220	0x00000000	0.0
221	0x00000000	0.0
222	0x00000000	0.0
223	0x00000000	0.0
224	0x00000000	0.0
225	0x00000000	0.0
226	0x00000000	0.0
227	0x00000000	0.0
228	0x00000000	0.0
229	0x00000000	0.0
230	0x00000000	0.0
231	0x00000000	0.0
232	0x00000000	0.0
233	0x00000000	0.0
234	0x00000000	0.0
235	0x00000000	0.0
236	0x00000000	0.0
237	0x00000000	0.0
238	0x00000000	0.0
239	0x00000000	0.0
240	0x00000000	0.0
241	0x00000000	0.0
242	0x00000000	0.0
243	0x00000000	0.0
244	0x00000000	0.0
245	0x00000000	0.0
246	0x00000000	0.0
247	0x00000000	0.0
248	0x00000000	0.0
249	0x00000000	0.0
250	0x00000000	0.0
251	0x00000000	0.0
252	0x00000000	0.0
253	0x00000000	0.0
254	0x00000000	0.0
255	0x00000000	0.0

conv1.b2 f4 [1, 16]
0	0x00000000	0.0
1	0x00000000	0.0
2	0x00000000	0.0
3	0x00000000	0.0
4	0x00000000	0.0
5	0x00000000	0.0
6	0x00000000	0.0
7	0x00000000	0.0
8	0x00000000	0.0
9	0x00000000	0.0
10	0x00000000	0.0
11	0x00000000	0.0
12	0x00000000	0.0
13	0x00000000	0.0
14	0x00000000	0.0
15	0x00000000	0.0

conv2.q f4 [16, 1]
0	0x3f0174f7	0.505691
1	0xbde082bf	-0.10962438
2	0x3dacf4ee	0.08445154
3	0xbd8fb314	-0.07016578
4	0x3ef7e532	0.4841705
5	0x3edac57c	0.42728794
6	0xbe3375a1	-0.1752534
7	0x3ecfbd6b	0.40574202
8	0x3daa43a9	0.083136864
9	0xbe835991	-0.2565427
10	0xbd8e8e61	-0.0696075
11	0xbeac4f84	-0.33654416
12	0x3ebb798e	0.36616176
13	0x3e70a263	0.23499446
14	0xbe4b4795	-0.19851525
15	0xbde8054d	-0.11329136

conv2.k f4 [16, 1]
0	0x3efb5d9f	0.49094865
1	0xbf2f9d7c	-0.6859968
2	0xbebc2712	-0.36748558
3	0xbf308124	-0.6894705
4	0xbda88cb4	-0.08229962
5	0xbf116c1b	-0.5680558
6	0xbf01dd54	-0.50728345
7	0xbda9a850	-0.08284056
8	0x3ef9d6f0	0.48796797
9	0xbd3b4159	-0.045716617
10	0x3f4f01a8	0.808619
11	0x3f131001	0.57446295
12	0xbeb0f4df	-0.34561822
13	0x3e7f1d30	0.24913478
14	0xbef1aade	-0.47200674
15	0x3f469ed6	0.77586114

conv2.bias f4 [16]
0	0x3b0dd81f	0.002164371
1	0xb20d1f8f	-8.214456e-09
2	0x3dd18f6d	0.102324344
3	0x9ee76215	-2.4498642e-20
4	0x3ea2a7cc	0.31768644
5	0x3da9da9d	0.0829365
6	0x3c58241b	0.013192202
7	0x3d56ac49	0.052410398
8	0x3d5438ec	0.051812097
9	0x3e6cbf1f	0.23119782
10	0x3ec002b4	0.37502062
11	0x3e0548bc	0.13016027
12	0x3d18daf4	0.037318185
13	0x3eeaef72	0.45885807
14	0x3c0a9d37	0.0084603345
15	0x3e074c03	0.1321259

conv2.weight f4 [90, 16, 16]
0	0x18533260	2.7296544e-24
1	0x17831159	8.470056e-25
2	0x99489ed2	-1.0371831e-23
3	0x96d387c2	-3.4174564e-25
4	0x19311822	9.155559e-24
5	0x98c9864d	-5.209289e-24
6	0x149279a7	1.4790216e-26
7	0x98143b17	-1.9158384e-24
8	0x96a5a811	-2.6763253e-25
9	0x18be8d6b	4.9256645e-24
10	0x98c8688b	-5.180435e-24
11	0x179f40c9	1.0291488e-24
12	0x98bf9977	-4.9527303e-24
13	0x18200140	2.0680146e-24
14	0x97992d76	-9.898869e-25
15	0x189f96a8	4.125266e-24
16	0x9795db63	-9.68428e-25
17	0x989c81ba	-4.0456045e-24
18	0x9699c92a	-2.4845436e-25
19	0x9968615e	-1.2013782e-23
20	0x986b8f74	-3.0445463e-24
21	0x18eabccf	6.067823e-24
22	0x180f6f64	1.8538555e-24
23	0x97e76aec	-1.4955016e-24
24	0x180d40ac	1.8256474e-24
25	0x18992265	3.9584303e-24
26	0x18a69474	4.3059894e-24
27	0x194b93ec	1.0524727e-23
28	0x179e3a03	1.0225155e-24
29	0x9851876a	-2.7080984e-24
30	0x1578faf6	5.0281174e-26
31	0x9975b1f7	-1.2702143e-23
32	0x98f887e8	-6.4243728e-24
33	0x16e30f53	3.66835e-25
34	0x9788d4c0	-8.8425e-25
35	0x994ad44c	-1.0486028e-23
36	0x9613dc12	-1.1944007e-25
37	0x18a02550	4.1396707e-24
38	0x973cbb49	-6.0982463e-25
39	0x19467eba	1.0261952e-23
40	0x17be9c13	1.2317861e-24
41	0x97c58a99	-1.2765814e-24
42	0x94b2a6aa	-1.8039144e-26
43	0x98509284	-2.6957341e-24
44	0x981de2f3	-2.0406354e-24
45	0x962f280d	-1.4149025e-25
46	0x977986ca	-8.0626367e-25
47	0x17ddad8a	1.4325598e-24
48	0x177b8a8b	8.127734e-25
49	0x16b38740	2.9004364e-25
50	0x1897be03	3.9224448e-24
51	0x1892a49d	3.7906332e-24
52	0x976b9b2e	-7.612846e-25
53	0x1819882c	1.9843536e-24
54	0x17ab6cdc	1.1078096e-24
55	0x182f59c6	2.2663544e-24
56	0x98045149	-1.7101639e-24
57	0x95cc42ab	-8.250013e-26
58	0x9822c3f1	-2.1036934e-24
59	0x9838d13b	-2.3887077e-24
60	0x9852e96a	-2.7259708e-24
61	0x98f0e6da	-6.2271646e-24
62	0x98bab6aa	-4.8264317e-24
63	0x97e2cafc	-1.4656148e-24
64	0x192a532a	8.805589e-24
65	0x95d6a229	-8.6689755e-26
66	0x993a215f	-9.622714e-24
67	0x994ffeac	-1.075308e-23
68	0x19395eb4	9.583401e-24
69	0x96b81d51	-2.9745305e-25
70	0x96879025	-2.1901394e-25
71	0x18fa89de	6.4762696e-24
72	0x97e6b760	-1.4909692e-24
73	0x17caeede	1.3114243e-24
74	0x172f4ade	5.6640045e-25
75	0x961a9a2b	-1.2488668e-25
76	0x16e63509	3.7191974e-25
77	0x98c095b3	-4.9781994e-24
78	0x185fb8e8	2.8915428e-24
79	0x976c6623	-7.6384627e-25
80	0x196a9e95	1.2129542e-23
81	0x98f9a57f	-6.45321e-24
82	0x18003d09	1.6574427e-24
83	0x166b6f54	1.9018278e-25
84	0x97c6d499	-1.2849117e-24
85	0x18ab51f9	4.4285235e-24
86	0x182824a7	2.1731996e-24
87	0x186ef156	3.0882623e-24
88	0x188e75fc	3.6825273e-24
89	0x993e22ef	-9.8298246e-24
90	0x979c8d1f	-1.0116888e-24
91	0x9939e708	-9.610932e-24
92	0x1866477a	2.976289e-24
93	0x9883215e	-3.38964e-24
94	0x186686bb	2.9794825e-24
95	0x15445ca0	3.9654953e-26
96	0x16d9220f	3.5079735e-25
97	0x1644a982	1.5886241e-25
98	0x172c31a9	5.5638877e-25
99	0x17d480ec	1.3732723e-24
100	0x18747146	3.159345e-24
101	0x18ea8281	6.0619358e-24
102	0x188ee2f5	3.6935308e-24
103	0x98221857	-2.0950298e-24
104	0x13071183	1.704803e-27
105	0x188ca910	3.635986e-24
106	0x1894c6e2	3.8457924e-24
107	0x171f8473	5.1542845e-25
108	0x975187fc	-6.770318e-25
109	0x971bcc71	-5.0341242e-25
110	0x16f8818b	4.0148314e-25
111	0x98c5862a	-5.1058778e-24
112	0x967dc6e5	-2.0499937e-25
113	0x192afb18	8.839502e-24
114	0x979ad577	-1.0005903e-24
115	0x183dc82b	2.4528736e-24
116	0x98ffba95	-6.6104355e-24
117	0x9611eaf1	-1.1787141e-25
118	0x18959f16	3.8676233e-24
119	0x17bda737	1.225605e-24
120	0x178c9100	9.083891e-25
121	0x958b21e6	-5.6195135e-26
122	0x98bd1960	-4.8880977e-24
123	0x98a6b980	-4.30973e-24
124	0x1880ada6	3.3262565e-24
125	0x98272ccd	-2.1606863e-24
126	0x1844ef07	2.5453084e-24
127	0x172c5d45	5.569392e-25
128	0x184f537a	2.6796268e-24
129	0x191afcd6	8.012673e-24
130	0x14f6cd92	2.4920735e-26
131	0x163f72c4	1.5465071e-25
132	0x18813915	3.3403357e-24
133	0x16d968ba	3.5124333e-25
134	0x182fae91	2.2706353e-24
135	0x18b664ab	4.7147546e-24
136	0x9763567b	-7.345681e-25
137	0x160a0020	1.1147591e-25
138	0x997225f2	-1.251877e-23
139	0x17085708	4.405382e-25
140	0x97bfbedc	-1.2391265e-24
141	0x976320d7	-7.3389106e-25
142	0x18b80716	4.757004e-24
143	0x96fb1c42	-4.056907e-25
144	0x18951ec4	3.8546663e-24
145	0x97d67303	-1.3858459e-24
146	0x989b3154	-4.011637e-24
147	0x98633869	-2.9367542e-24
148	0x95d360a7	-8.537471e-26
149	0x1912b4ca	7.584533e-24
150	0x97a9480f	-1.0939559e-24
151	0x98a03df3	-4.1421583e-24
152	0x188df86e	3.6698496e-24
153	0x981bb4be	-2.0124532e-24
154	0x98a0edf4	-4.15993e-24
155	0x182db6a6	2.245194e-24
156	0x9931ad98	-9.1857425e-24
157	0x1804b0c2	1.714984e-24
158	0x18cccfad	5.2942463e-24
159	0x9681a0ef	-2.0942637e-25
160	0x978579a5	-8.625631e-25
161	0x978d3007	-9.124035e-25
162	0x966bd7f5	-1.9051293e-25
163	0x1807a2e3	1.7530578e-24
164	0x18c62c21	5.122636e-24
165	0x161ee8a9	1.2836553e-25
166	0x97b5d643	-1.1750938e-24
167	0x991a1a3f	-7.966914e-24
168	0x9764000e	-7.367084e-25
169	0x98980624	-3.929728e-24
170	0x986487e6	-2.953692e-24
171	0x9793de2f	-9.555739e-25
172	0x979a5041	-9.972276e-25
173	0x9904cc2c	-6.865472e-24
174	0x972d2e0a	-5.5957424e-25
175	0x1661b644	1.8232868e-25
176	0x1911df78	7.5414535e-24
177	0x18bf96ab	4.952448e-24
178	0x988a242e	-3.5708696e-24
179	0x1907a41e	7.01248e-24
180	0x18329257	2.3079844e-24
181	0x15605723	4.530518e-26
182	0x163b5931	1.5133884e-25
183	0x16337bb5	1.449854e-25
184	0x99590fe4	-1.1221846e-23
185	0x98297d54	-2.1906013e-24
186	0x97776f8a	-7.9950787e-25
187	0x988be8b3	-3.6165624e-24
188	0x16bee10d	3.0838183e-25
189	0x992e5568	-9.012837e-24
190	0x97f77435	-1.5991336e-24
191	0x163aa22a	1.507613e-25
192	0x9800435c	-1.657762e-24
193	0x150a0898	2.7875657e-26
194	0x98d16cd0	-5.4135106e-24
195	0x98a0dc0f	-4.1581233e-24
196	0x185fef03	2.8942745e-24
197	0x18c0a68f	4.9799018e-24
198	0x97df1796	-1.4416991e-24
199	0x191616ec	7.759447e-24
200	0x9881a72f	-3.351453e-24
201	0x18b873c6	4.7679787e-24
202	0x9801ef50	-1.6793681e-24
203	0x97ed8500	-1.534934e-24
204	0x98dc65af	-5.697134e-24
205	0x18848c63	3.4262955e-24
206	0x1870ee08	3.1139448e-24
207	0x15a538fe	6.673289e-26
208	0x17a1c049	1.0452921e-24
209	0x982e4260	-2.2522484e-24
210	0x19163d73	7.767228e-24
211	0x97e36668	-1.4695382e-24
212	0x187f4b75	3.2996074e-24
213	0x9906c71f	-6.96785e-24
214	0x188888a0	3.5293132e-24
215	0x96a6b24c	-2.6931268e-25
216	0x1686f0d7	2.180086e-25
217	0x17089bb0	4.4140475e-25
218	0x996eb134	-1.23400975e-23
219	0x18427300	2.5131972e-24
220	0x986b6f59	-3.0429254e-24
221	0x96c035b8	-3.1053174e-25
222	0x96019a96	-1.0469316e-25
223	0x168f0910	2.3108615e-25
224	0x988bfbf5	-3.618507e-24
225	0x16d19f6a	3.3866376e-25
226	0x16e4b105	3.6947102e-25
227	0x1772c9da	7.844919e-25
228	0x98169dd0	-1.946672e-24
229	0x191114bd	7.500512e-24
230	0x9709213c	-4.4309035e-25
231	0x196e2eb4	1.2313743e-23
232	0x17a24b1b	1.0487964e-24
233	0x97a0370d	-1.0353654e-24
234	0x98a5afb7	-4.2828927e-24
235	0x189caad8	4.0497563e-24
236	0x18ec2323	6.104005e-24
237	0x16af6d54	2.834177e-25
238	0x18073adb	1.7478055e-24
239	0x1821d34c	2.091544e-24
240	0x98b4eb8d	-4.6766755e-24
241	0x96a5256d	-2.6680807e-25
242	0x189bb3dd	4.0248176e-24
243	0x1602888b	1.0544402e-25
244	0x98d17767	-5.41458e-24
245	0x98e7c21a	-5.9908093e-24
246	0x98e5f778	-5.9444992e-24
247	0x9704ce49	-4.291187e-25
248	0x16f2fd46	3.9257047e-25
249	0x973b7148	-6.056594e-25
250	0x16e17acd	3.6428209e-25
251	0x195a46d4	1.12846395e-23
252	0x18f50e5d	6.334552e-24
253	0x18afc624	4.543651e-24
254	0x966ae12d	-1.8973422e-25
255	0x975a7155	-7.0582644e-25

conv2.w f4 [16]
0	0x3f800000	1.0
1	0x3f800000	1.0
2	0x3f800000	1.0
3	0x3f800000	1.0
4	0x3f800000	1.0
5	0x3f800000	1.0
6	0x3f800000	1.0
7	0x3f800000	1.0
8	0x3f800000	1.0
9	0x3f800000	1.0
10	0x3f800000	1.0
11	0x3f800000	1.0
12	0x3f800000	1.0
13	0x3f800000	1.0
14	0x3f800000	1.0
15	0x3f800000	1.0

conv2.l1 f4 [1, 16]
0	0x3f800000	1.0
1	0x3f800000	1.0
2	0x3f800000	1.0
3	0x3f800000	1.0
4	0x3f800000	1.0
5	0x3f800000	1.0
6	0x3f800000	1.0
7	0x3f800000	1.0
8	0x3f800000	1.0
9	0x3f800000	1.0
10	0x3f800000	1.0
11	0x3f800000	1.0
12	0x3f800000	1.0
13	0x3f800000	1.0
14	0x3f800000	1.0
15	0x3f800000	1.0

conv2.b1 f4 [1, 16]
0	0x00000000	0.0
1	0x00000000	0.0
2	0x00000000	0.0
3	0x00000000	0.0
4	0x00000000	0.0
5	0x00000000	0.0
6	0x00000000	0.0
7	0x00000000	0.0
8	0x00000000	0.0
9	0x00000000	0.0
10	0x00000000	0.0
11	0x00000000	0.0
12	0x00000000	0.0
13	0x00000000	0.0
14	0x00000000	0.0
15	0x00000000	0.0

conv2.l2 f4 [16, 16]
0	0x00000000	0.0
1	0x00000000	0.0
2	0x00000000	0.0
3	0x00000000	0.0
4	0x00000000	0.0
5	0x00000000	0.0
6	0x00000000	0.0
7	0x00000000	0.0
8	0x00000000	0.0
9	0x00000000	0.0
10	0x00000000	0.0
11	0x00000000	0.0
12	0x00000000	0.0
13	0x00000000	0.0
14	0x00000000	0.0
15	0x00000000	0.0
16	0x00000000	0.0
17	0x00000000	0.0
18	0x00000000	0.0
19	0x00000000	0.0
20	0x00000000	0.0
21	0x00000000	0.0
22	0x00000000	0.0
23	0x00000000	0.0
24	0x00000000	0.0
25	0x00000000	0.0
26	0x00000000	0.0
27	0x00000000	0.0
28	0x00000000	0.0
29	0x00000000	0.0
30	0x00000000	0.0
31	0x00000000	0.0
32	0x00000000	0.0
33	0x00000000	0.0
34	0x00000000	0.0
35	0x00000000	0.0
36	0x00000000	0.0
37	0x00000000	0.0
38	0x00000000	0.0
39	0x00000000	0.0
40	0x00000000	0.0
41	0x00000000	0.0
42	0x00000000	0.0
43	0x00000000	0.0
44	0x00000000	0.0
45	0x00000000	0.0
46	0x00000000	0.0
47	0x00000000	0.0
48	0x00000000	0.0
49	0x00000000	0.0
50	0x00000000	0.0
51	0x00000000	0.0
52	0x00000000	0.0
53	0x00000000	0.0
54	0x00000000	0.0
55	0x00000000	0.0
56	0x00000000	0.0
57	0x00000000	0.0
58	0x00000000	0.0
59	0x00000000	0.0
60	0x00000000	0.0
61	0x00000000	0.0
62	0x00000000	0.0
63	0x00000000	0.0
64	0x00000000	0.0
65	0x00000000	0.0
66	0x00000000	0.0
67	0x00000000	0.0
68	0x00000000	0.0
69	0x00000000	0.0
70	0x00000000	0.0
71	0x00000000	0.0
72	0x00000000	0.0
73	0x00000000	0.0
74	0x00000000	0.0
75	0x00000000	0.0
76	0x00000000	0.0
77	0x00000000	0.0
78	0x00000000	0.0
79	0x00000000	0.0
80	0x00000000	0.0
81	0x00000000	0.0
82	0x00000000	0.0
83	0x00000000	0.0
84	0x00000000	0.0
85	0x00000000	0.0
86	0x00000000	0.0
87	0x00000000	0.0
88	0x00000000	0.0
89	0x00000000	0.0
90	0x00000000	0.0
91	0x00000000	0.0
92	0x00000000	0.0
93	0x00000000	0.0
94	0x00000000	0.0
95	0x00000000	0.0
96	0x00000000	0.0
97	0x00000000	0.0
98	0x00000000	0.0
99	0x00000000	0.0
100	0x00000000	0.0
101	0x00000000	0.0
102	0x00000000	0.0
103	0x00000000	0.0
104	0x00000000	0.0
105	0x00000000	0.0
106	0x00000000	0.0
107	0x00000000	0.0
108	0x00000000	0.0
109	0x00000000	0.0
110	0x00000000	0.0
111	0x00000000	0.0
112	0x00000000	0.0
113	0x00000000	0.0
114	0x00000000	0.0
115	0x00000000	0.0
116	0x00000000	0.0
117	0x00000000	0.0
118	0x00000000	0.0
119	0x00000000	0.0
120	0x00000000	0.0
121	0x00000000	0.0
122	0x00000000	0.0
123	0x00000000	0.0
124	0x00000000	0.0
125	0x00000000	0.0
126	0x00000000	0.0
127	0x00000000	0.0
128	0x00000000	0.0
129	0x00000000	0.0
130	0x00000000	0.0
131	0x00000000	0.0
132	0x00000000	0.0
133	0x00000000	0.0
134	0x00000000	0.0
135	0x00000000	0.0
136	0x00000000	0.0
137	0x00000000	0.0
138	0x00000000	0.0
139	0x00000000	0.0
140	0x00000000	0.0
141	0x00000000	0.0
142	0x00000000	0.0
143	0x00000000	0.0
144	0x00000000	0.0
145	0x00000000	0.0
146	0x00000000	0.0
147	0x00000000	0.0
148	0x00000000	0.0
149	0x00000000	0.0
150	0x00000000	0.0
151	0x00000000	0.0
152	0x00000000	0.0
153	0x00000000	0.0
154	0x00000000	0.0
155	0x00000000	0.0
156	0x00000000	0.0
157	0x00000000	0.0
158	0x00000000	0.0
159	0x00000000	0.0
160	0x00000000	0.0
161	0x00000000	0.0
162	0x00000000	0.0
163	0x00000000	0.0
164	0x00000000	0.0
165	0x00000000	0.0
166	0x00000000	0.0
167	0x00000000	0.0
168	0x00000000	0.0
169	0x00000000	0.0
170	0x00000000	0.0
171	0x00000000	0.0
172	0x00000000	0.0
173	0x00000000	0.0
174	0x00000000	0.0
175	0x00000000	0.0
176	0x00000000	0.0
177	0x00000000	0.0
178	0x00000000	0.0
179	0x00000000	0.0
180	0x00000000	0.0
181	0x00000000	0.0
182	0x00000000	0.0
183	0x00000000	0.0
184	0x00000000	0.0
185	0x00000000	0.0
186	0x00000000	0.0
187	0x00000000	0.0
188	0x00000000	0.0
189	0x00000000	0.0
190	0x00000000	0.0
191	0x00000000	0.0
192	0x00000000	0.0
193	0x00000000	0.0
194	0x00000000	0.0
195	0x00000000	0.0
196	0x00000000	0.0
197	0x00000000	0.0
198	0x00000000	0.0
199	0x00000000	0.0
200	0x00000000	0.0
201	0x00000000	0.0
202	0x00000000	0.0
203	0x00000000	0.0
204	0x00000000	0.0
205	0x00000000	0.0
206	0x00000000	0.0
207	0x00000000	0.0
208	0x00000000	0.0
209	0x00000000	0.0
210	0x00000000	0.0
211	0x00000000	0.0
212	0x00000000	0.0
213	0x00000000	0.0
214	0x00000000	0.0
215	0x00000000	0.0
216	0x00000000	0.0
217	0x00000000	0.0
218	0x00000000	0.0
219	0x00000000	0.0
220	0x00000000	0.0
221	0x00000000	0.0
222	0x00000000	0.0
223	0x00000000	0.0
224	0x00000000	0.0
225	0x00000000	0.0
226	0x00000000	0.0
227	0x00000000	0.0
228	0x00000000	0.0
229	0x00000000	0.0
230	0x00000000	0.0
231	0x00000000	0.0
232	0x00000000	0.0
233	0x00000000	0.0
234	0x00000000	0.0
235	0x00000000	0.0
236	0x00000000	0.0
237	0x00000000	0.0
238	0x00000000	0.0
239	0x00000000	0.0
240	0x00000000	0.0
241	0x00000000	0.0
242	0x00000000	0.0
243	0x00000000	0.0
244	0x00000000	0.0
245	0x00000000	0.0
246	0x00000000	0.0
247	0x00000000	0.0
248	0x00000000	0.0
249	0x00000000	0.0
250	0x00000000	0.0
251	0x00000000	0.0
252	0x00000000	0.0
253	0x00000000	0.0
254	0x00000000	0.0
255	0x00000000	0.0

conv2.b2 f4 [1, 16]
0	0x00000000	0.0
1	0x00000000	0.0
2	0x00000000	0.0
3	0x00000000	0.0
4	0x00000000	0.0
5	0x00000000	0.0
6	0x00000000	0.0
7	0x00000000	0.0
8	0x00000000	0.0
9	0x00000000	0.0
10	0x00000000	0.0
11	0x00000000	0.0
12	0x00000000	0.0
13	0x00000000	0.0
14	0x00000000	0.0
15	0x00000000	0.0

lin.weight f4 [4, 16]
0	0xbe84cfb4	-0.25939715
1	0x9ab00d8a	-7.281377e-23
2	0xbd210e6e	-0.0393204
3	0x1a296c07	3.5035645e-23
4	0xbf07024a	-0.5273787
5	0xbcfe6c42	-0.03105748
6	0xbb16da14	-0.0023018168
7	0xbda201f5	-0.079105295
8	0xbed8fe7a	-0.4238165
9	0xbe6c9212	-0.23102596
10	0xbf0c9737	-0.54918236
11	0xbd55e398	-0.052219003
12	0xbd44056e	-0.04785674
13	0xbef9df42	-0.48803145
14	0xba6c9c21	-0.00090259506
15	0x3f5a8f15	0.85374576
16	0x3e9a5f61	0.30150893
17	0x329e7714	1.8447771e-08
18	0xbd1a50af	-0.037674602
19	0x1aab6668	7.088939e-23
20	0x3e870fa5	0.26379123
21	0x3f127618	0.57211447
22	0xbad841c8	-0.0016499097
23	0x3f05a290	0.52201176
24	0x3d07f082	0.03318835
25	0xbe454951	-0.19266249
26	0xbf2f12f0	-0.6838827
27	0xbec31a97	-0.38106224
28	0x3eedb8b6	0.46429986
29	0xbed0a2a7	-0.40749094
30	0xbb172fb7	-0.0023069212
31	0xbf0992fd	-0.5373991
32	0xbe84ada8	-0.2591374
33	0x20c7a838	3.382323e-19
34	0xbd45fb69	-0.048335467
35	0x9aa41de2	-6.787709e-23
36	0xbf01b346	-0.50664175
37	0xbde3039c	-0.11084673
38	0x3c31b557	0.010846457
39	0xbe9647da	-0.29351693
40	0x3f1dc221	0.6162434
41	0x3f34c2f3	0.7060997
42	0x3ed61598	0.4181335
43	0x3f455cbd	0.7709463
44	0xbd6dbb02	-0.058039673
45	0xbf078adb	-0.5294625
46	0x3d3939ce	0.045221142
47	0xbf41591d	-0.755266
48	0x3e49dadf	0.19712399
49	0x25cb34e3	3.5250724e-16
50	0x3e049ffb	0.12951653
51	0x1abd847d	7.8382614e-23
52	0x3f362da3	0.71163386
53	0xbedfcde5	-0.43711773
54	0x31dc31d9	6.4085097e-09
55	0xbe615a66	-0.2200714
56	0xbefebf17	-0.49755165
57	0xbeb13d5b	-0.34617123
58	0x3f122583	0.5708849
59	0xbf4d04f9	-0.8008571
60	0xbea742db	-0.32668194
61	0x3fb2b4af	1.396139
62	0xb980df97	-0.0002458065
63	0xbd444e03	-0.04792596

lin.bias f4 [4]
0	0x3dcd1c86	0.10015206
1	0xbd4e4353	-0.050357174
2	0x3c97cc64	0.018530078
3	0xbd830934	-0.0639824

exp_avg f4 [16, 1]
0	0xb6a9d231	-5.061062e-06
1	0x35fe08e5	1.8927063e-06
2	0xb60962ef	-2.0472178e-06
3	0xb71746fe	-9.0168305e-06
4	0xb7aea31d	-2.0818372e-05
5	0xb76c3c7f	-1.40807815e-05
6	0xb7790701	-1.4843187e-05
7	0xb77f7d85	-1.5228409e-05
8	0xb6cdfe74	-6.1390983e-06
9	0x36f49fe9	7.2903827e-06
10	0xb757033c	-1.2815752e-05
11	0x36a6407d	4.954693e-06
12	0xb6968cbe	-4.486733e-06
13	0x350adffa	5.1734935e-07
14	0x368c6d56	4.1850535e-06
15	0xb71b63ef	-9.2619875e-06

exp_avg_sq f4 [16, 1]
0	0x3401e02e	1.2095617e-07
1	0x3403e3d6	1.2283212e-07
2	0x34635a61	2.1173902e-07
3	0x3418959e	1.4210534e-07
4	0x343b4a19	1.7442689e-07
5	0x355568b5	7.950105e-07
6	0x34746e07	2.2764299e-07
7	0x34c1853d	3.6045995e-07
8	0x3512a5e7	5.463066e-07
9	0x3411fad0	1.3595422e-07
10	0x34250e16	1.5371947e-07
11	0x3411596f	1.3536713e-07
12	0x33ffb7a0	1.1907764e-07
13	0x34ccca31	3.8145075e-07
14	0x33eae0d2	1.0937369e-07
15	0x343059be	1.6423925e-07

exp_avg f4 [16, 1]
0	0xb746bba7	-1.1845411e-05
1	0xb84396ae	-4.6631954e-05
2	0xb89eca3a	-7.571695e-05
3	0xb7968d10	-1.794708e-05
4	0xb7fc2c62	-3.0061408e-05
5	0xb845ac9b	-4.712921e-05
6	0xb86d41e2	-5.656656e-05
7	0xb797b3a4	-1.8084254e-05
8	0xb84bd8e6	-4.8600974e-05
9	0xb52d773f	-6.462105e-07
10	0xb76adea4	-1.3999324e-05
11	0xb89de3d2	-7.528778e-05
12	0xb7cbb348	-2.428297e-05
13	0xb8175666	-3.608167e-05
14	0xb7094431	-8.181713e-06
15	0xb80999d0	-3.2806594e-05

exp_avg_sq f4 [16, 1]
0	0x360c9489	2.0948085e-06
1	0x360e81cb	2.1235198e-06
2	0x362a93bf	2.5417974e-06
3	0x35ce81c8	1.5385967e-06
4	0x36d01014	6.200755e-06
5	0x34f949f6	4.6433678e-07
6	0x35a8ca03	1.2575769e-06
7	0x3646517f	2.9551736e-06
8	0x3573ec43	9.086836e-07
9	0x36a30910	4.8588336e-06
10	0x35ba793a	1.3893361e-06
11	0x36afa4b3	5.23458e-06
12	0x368b9978	4.160389e-06
13	0x356cbafe	8.818896e-07
14	0x351f09d9	5.9246446e-07
15	0x35d10c74	1.5575338e-06

exp_avg f4 [16]
0	0xb7205786	-9.557121e-06
1	0x36ca5243	6.0296456e-06
2	0x34c04161	3.5810356e-07
3	0x37b95b0e	2.209612e-05
4	0xb79762c0	-1.8046587e-05
5	0x3681dd09	3.8702315e-06
6	0x37810a20	1.5382713e-05
7	0xb765f492	-1.3706407e-05
8	0x36a4d921	4.912858e-06
9	0xb824481f	-3.9167815e-05
10	0xb80e7989	-3.3968627e-05
11	0xb44d1aae	-1.9101819e-07
12	0xb7dc8b12	-2.6290803e-05
13	0x37b4cf5e	2.1554235e-05
14	0x3766518d	1.3728056e-05
15	0x3584fc23	9.908148e-07

exp_avg_sq f4 [16]
0	0x3533b5a7	6.6947035e-07
1	0x350101ec	4.805904e-07
2	0x338ef871	6.6575815e-08
3	0x358c11c4	1.0435983e-06
4	0x365ddc21	3.3059698e-06
5	0x3420b993	1.4968673e-07
6	0x35182749	5.668158e-07
7	0x361fb52d	2.3798304e-06
8	0x343f583b	1.7820359e-07
9	0x3686f920	4.022513e-06
10	0x360df7e8	2.1154938e-06
11	0x34a44659	3.0598565e-07
12	0x361b43be	2.313623e-06
13	0x3570acb3	8.965828e-07
14	0x3596069c	1.1177794e-06
15	0x34c3bc1a	3.6458442e-07

exp_avg f4 [90, 16, 16]
0	0x32b1af9d	2.0685372e-08
1	0xb1a866d4	-4.9011337e-09
2	0x32609756	1.3072926e-08
3	0x3270bbac	1.401251e-08
4	0xb398a889	-7.108708e-08
5	0x33823dd6	6.0648446e-08
6	0xb4796363	-2.3226089e-07
7	0xb1375083	-2.667577e-09
8	0x32eaac96	2.7319668e-08
9	0x33ffa8f0	1.19050924e-07
10	0x30c0a5b6	1.4016937e-09
11	0xb2955674	-1.7385197e-08
12	0xb33fc7fa	-4.465253e-08
13	0x31a752e6	4.869764e-09
14	0x32feea95	2.9676167e-08
15	0x32b779d2	2.1359401e-08
16	0x33081751	3.1686174e-08
17	0xb1b62dcd	-5.302104e-09
18	0xb3ca310c	-9.4152796e-08
19	0xb2a9fcb9	-1.9789114e-08
20	0x346e66f0	2.2202926e-07
21	0xb46ded3e	-2.2158653e-07
22	0x348afe89	2.5889702e-07
23	0x331ed2f9	3.697912e-08
24	0xb3ec1265	-1.0992952e-07
25	0xb3830369	-6.100783e-08
26	0xb24854a2	-1.16607755e-08
27	0xb23013c3	-1.0249042e-08
28	0x341de21f	1.4704027e-07
29	0xb32374e7	-3.8057717e-08
30	0xb2ecb992	-2.7558404e-08
31	0xb3a9a62c	-7.899902e-08
32	0xb1837e24	-3.8269423e-09
33	0xb133bba7	-2.6154596e-09
34	0xb3031fae	-3.0529627e-08
35	0xb2a9e36e	-1.9777612e-08
36	0x340b9c39	1.3002217e-07
37	0xb4061aa0	-1.2489409e-07
38	0x34af074a	3.2601594e-07
39	0x32b9c4d6	2.1626345e-08
40	0xb368ecff	-5.4232256e-08
41	0xb3a7164d	-7.7806e-08
42	0xb373e07d	-5.6782017e-08
43	0x32621a02	1.3160845e-08
44	0x3408ef1a	1.2752972e-07
45	0xb2927f31	-1.7054477e-08
46	0xb2e10737	-2.6196728e-08
47	0xb393fe5b	-6.891488e-08
48	0x30b976e7	1.3494316e-09
49	0xb1bba688	-5.4613487e-09
50	0xb3219031	-3.7616875e-08
51	0xb249fa74	-1.1756686e-08
52	0x33baffa6	8.707802e-08
53	0xb39da72e	-7.341292e-08
54	0x34352f8d	1.6874237e-07
55	0x330f8f48	3.3425096e-08
56	0xb33b11ec	-4.355563e-08
57	0xb386b147	-6.272108e-08
58	0xb37e0108	-5.913992e-08
59	0xb206b1cd	-7.840254e-09
60	0x33a1c611	7.533175e-08
61	0xb270b753	-1.4011522e-08
62	0xb220939f	-9.346791e-09
63	0xb22f1400	-1.0190888e-08
64	0xb2d4e2a0	-2.4783105e-08
65	0xb2b7aa9e	-2.1381592e-08
66	0x331c233f	3.6353637e-08
67	0x322006fb	9.314813e-09
68	0xb3dee644	-1.0379566e-07
69	0x33a3a469	7.620185e-08
70	0xb4423312	-1.8086237e-07
71	0xb3a8365c	-7.8329975e-08
72	0x332bfb5c	4.004265e-08
73	0xb3aec456	-8.13822e-08
74	0xb3013d6e	-3.0091023e-08
75	0xb2cbf865	-2.3745267e-08
76	0xb417167a	-1.4071148e-07
77	0x326f134b	1.3916018e-08
78	0xb1922acf	-4.254026e-09
79	0xb23928a3	-1.0777657e-08
80	0xb35c9d98	-5.1366072e-08
81	0x31eb1e0c	6.842816e-09
82	0x33b7705c	8.5420396e-08
83	0xb280e2c3	-1.500428e-08
84	0xb43564ae	-1.6893566e-07
85	0x341a0a1b	1.4346044e-07
86	0xb3e4e4df	-1.0658709e-07
87	0xb3b3e7e4	-8.377518e-08
88	0x33a64e92	7.744269e-08
89	0xb3658cd9	-5.3446318e-08
90	0xb1683835	-3.3792393e-09
91	0x333ad7c8	4.350275e-08
92	0xb3f002e0	-1.1176394e-07
93	0x331f9956	3.715953e-08
94	0xb2364c61	-1.0611161e-08
95	0x317d0464	3.6818841e-09
96	0x33ec5e59	1.1006768e-07
97	0xb278a9b4	-1.4474086e-08
98	0xb0aec0f6	-1.2715009e-09
99	0x335dec57	5.1670522e-08
100	0xb2d2a2e6	-2.4521295e-08
101	0x339cdcb6	7.304463e-08
102	0xb4756424	-2.2853834e-07
103	0x32d5a635	2.4872046e-08
104	0x329aa5c4	1.8003341e-08
105	0x34655cb2	2.136101e-07
106	0x343449da	1.6790673e-07
107	0xb3ad4526	-8.068518e-08
108	0xb336ba5a	-4.2544663e-08
109	0xb047342a	-7.246991e-10
110	0x330fa9ec	3.3449325e-08
111	0x331e24ae	3.68206e-08
112	0xb33aea5d	-4.3519652e-08
113	0x31688f81	3.3842016e-09
114	0x306cf50c	8.620453e-10
115	0xb2885176	-1.5869528e-08
116	0x33369602	4.251161e-08
117	0xb3434a63	-4.546963e-08
118	0x338ff199	6.702903e-08
119	0xb27c078e	-1.4670048e-08
120	0xb2aeab68	-2.0334213e-08
121	0xb323535c	-3.802721e-08
122	0xb36a150d	-5.4501516e-08
123	0x327592d6	1.42942636e-08
124	0xb18ab43e	-4.0368198e-09
125	0xb0e4d57f	-1.6649863e-09
126	0xb2543427	-1.2351882e-08
127	0xb242c9b1	-1.13381455e-08
128	0x334ff898	4.8422038e-08
129	0xb28eff0a	-1.6646954e-08
130	0x339f1e95	7.409577e-08
131	0x330db6f5	3.299552e-08
132	0xb45c4c0f	-2.0516767e-07
133	0x34896bc5	2.559665e-07
134	0xb52e9ce8	-6.504838e-07
135	0x31458f27	2.8748646e-09
136	0x3410cb9d	1.3485119e-07
137	0x346707b8	2.151636e-07
138	0x33ffed63	1.1917543e-07
139	0xb3dc8fd4	-1.02707105e-07
140	0xb415b809	-1.3943658e-07
141	0x33389b29	4.2981956e-08
142	0x33522cc4	4.893515e-08
143	0x3395cdf5	6.9758165e-08
144	0x33157e8b	3.4806856e-08
145	0x3257f3fd	1.2570124e-08
146	0x336439f3	5.313809e-08
147	0x3309ba43	3.2067202e-08
148	0xb4029859	-1.2162617e-07
149	0x33dcb168	1.0276818e-07
150	0xb4a003ea	-2.980517e-07
151	0xb35d8821	-5.157938e-08
152	0x33448789	4.5758075e-08
153	0x34c41cd4	3.652882e-07
154	0x33d2b17f	9.8111734e-08
155	0x315b5b54	3.1920608e-09
156	0xb405279a	-1.2400997e-07
157	0x32ebdd7a	2.7458317e-08
158	0x33892cee	6.387732e-08
159	0x330d7804	3.2938274e-08
160	0x33634d00	5.2922587e-08
161	0xb220d722	-9.362141e-09
162	0x326b964d	1.3712975e-08
163	0x32bddd46	2.210312e-08
164	0xb42460fb	-1.5308972e-07
165	0x33f95138	1.160974e-07
166	0xb4438630	-1.8209607e-07
167	0x3292a59c	1.7071947e-08
168	0x33481617	4.658622e-08
169	0x33562671	4.986072e-08
170	0x332d8e8c	4.0409347e-08
171	0xb355ce0d	-4.978033e-08
172	0xb2cc77e8	-2.3803253e-08
173	0x3237200a	1.0659287e-08
174	0x3319bc7c	3.5794514e-08
175	0x331a4da9	3.592655e-08
176	0x336bdd71	5.49166e-08
177	0xb0294db1	-6.159225e-10
178	0x330a73ce	3.2235953e-08
179	0x33229ca3	3.7861025e-08
180	0xb3cc4b4d	-9.5131874e-08
181	0x34026868	1.2145176e-07
182	0xb483e24b	-2.45653e-07
183	0xb17a3f7f	-3.6415881e-09
184	0x33725f01	5.643142e-08
185	0x339aa14c	7.2005236e-08
186	0x3391fd3c	6.798152e-08
187	0xb308a458	-3.1814437e-08
188	0xb3d8d4fe	-1.0097027e-07
189	0x326a1a0c	1.3626515e-08
190	0x331408a3	3.446679e-08
191	0x338de1a8	6.606871e-08
192	0xb35f9e0c	-5.2064976e-08
193	0x3210fdec	8.439638e-09
194	0x336ca8c4	5.5101523e-08
195	0xb1e4a10e	-6.653983e-09
196	0xb4348d9f	-1.6815328e-07
197	0x33b52d0d	8.436664e-08
198	0xb3d94614	-1.0117597e-07
199	0xb401b9db	-1.2081675e-07
200	0x33407fc4	4.4819686e-08
201	0x325f065a	1.2981753e-08
202	0xb2b61a2d	-2.1199492e-08
203	0x335d1812	5.1477464e-08
204	0xb3a87074	-7.843565e-08
205	0x3300baaa	2.9972092e-08
206	0xafc9591b	-3.6625e-10
207	0x328cfe26	1.6413718e-08
208	0x33e1344a	1.048689e-07
209	0xb30d510b	-3.290283e-08
210	0xb3301f15	-4.1006462e-08
211	0x33867c7d	6.2625055e-08
212	0xb14de202	-2.9959897e-09
213	0x3390e300	6.7468136e-08
214	0xb40be9a1	-1.3030377e-07
215	0x33fdf32d	1.1825464e-07
216	0x323afa7f	1.0883581e-08
217	0x33fd2f75	1.1789863e-07
218	0x3386f3a9	6.284183e-08
219	0xb3fa7aae	-1.16638475e-07
220	0x334d8fa6	4.786093e-08
221	0xb2a69f35	-1.9397342e-08
222	0x3383c6a6	6.136297e-08
223	0x331f5ea3	3.7106144e-08
224	0x33a547a4	7.6964426e-08
225	0xb20c4f01	-8.167036e-09
226	0xb31196a9	-3.3897468e-08
227	0x32fb762c	2.9273984e-08
228	0x32bf7b53	2.2291408e-08
229	0x32fd88b8	2.9515249e-08
230	0xb3872032	-6.292284e-08
231	0x33ef05bb	1.1130347e-07
232	0x3126b48f	2.4258815e-09
233	0x33db8640	1.0222402e-07
234	0x33d06514	9.704141e-08
235	0xb3872a20	-6.29409e-08
236	0x334092d8	4.4837037e-08
237	0xb2475758	-1.1603184e-08
238	0x333eb98f	4.4406587e-08
239	0x3347d115	4.6523457e-08
240	0xb33e38b7	-4.4289404e-08
241	0x32456081	1.1488852e-08
242	0x31c42951	5.709048e-09
243	0xb2c13fa9	-2.2497106e-08
244	0x332f2b53	4.0784766e-08
245	0xb38738ae	-6.296737e-08
246	0x348067d1	2.3917394e-07
247	0xb34fd7d7	-4.839225e-08
248	0xb2cee4fa	-2.4085683e-08
249	0xb3a7cf7a	-7.814283e-08
250	0xb3aef418	-8.146907e-08
251	0x33754be6	5.7112537e-08
252	0xb28b69a4	-1.622977e-08
253	0xb00410ab	-4.8045007e-10
254	0xb2d8cd3b	-2.5239038e-08
255	0xb3003b79	-2.9856412e-08

exp_avg_sq f4 [90, 16, 16]
0	0x317e83d5	3.7036803e-09
1	0x30d76d4e	1.5674375e-09
2	0x31ca8128	5.893657e-09
3	0x30a2fb95	1.1858555e-09
4	0x32041471	7.688059e-09
5	0x31d99fd4	6.3337016e-09
6	0x334d9f8e	4.7875396e-08
7	0x318f1b23	4.164933e-09
8	0x3152a7f6	3.0654497e-09
9	0x331d9f4a	3.6699284e-08
10	0x32c6b10e	2.3130749e-08
11	0x31708943	3.500262e-09
12	0x31ea9d23	6.8281607e-09
13	0x313ad40e	2.7187101e-09
14	0x30c096dc	1.4012715e-09
15	0x30ecf2f7	1.7240315e-09
16	0x324e542a	1.2009915e-08
17	0x311e40d4	2.3028877e-09
18	0x318b605d	4.0563877e-09
19	0x311b0d01	2.256286e-09
20	0x32056b2a	7.765985e-09
21	0x31c346b5	5.6832854e-09
22	0x31eee0d4	6.9522716e-09
23	0x3086d559	9.81042e-10
24	0x3160e35c	3.272553e-09
25	0x323c0db4	1.0946156e-08
26	0x32379a65	1.0687107e-08
27	0x3177baa3	3.6049321e-09
28	0x3150a9ac	3.036443e-09
29	0x313138c9	2.5789169e-09
30	0x30fb0d33	1.8266405e-09
31	0x3185ebcb	3.897616e-09
32	0x31fcfe3e	7.3630693e-09
33	0x30a62c29	1.2090641e-09
34	0x30b65b94	1.3268271e-09
35	0x3124fb08	2.4007836e-09
36	0x31d1ed99	6.1097123e-09
37	0x314ceb36	2.981961e-09
38	0x333745a6	4.2671353e-08
39	0x30feca8a	1.8538497e-09
40	0x30d75099	1.5666216e-09
41	0x331ccfdd	3.651063e-08
42	0x32b6bfe2	2.1274847e-08
43	0x315c64df	3.2071552e-09
44	0x31c53a3a	5.740074e-09
45	0x30b64383	1.3261431e-09
46	0x30f8aba9	1.8093164e-09
47	0x313b76dc	2.7279645e-09
48	0x31a34eab	4.752868e-09
49	0x30d69ec1	1.561567e-09
50	0x3108263a	1.9812334e-09
51	0x3152e589	3.0689498e-09
52	0x31945b9d	4.317782e-09
53	0x311e14bb	2.300381e-09
54	0x3271da53	1.40776875e-08
55	0x310c3ed6	2.04084e-09
56	0x30e6487c	1.6755304e-09
57	0x3306b00a	3.1359413e-08
58	0x328e4e58	1.6566602e-08
59	0x311123dc	2.112066e-09
60	0x30dac490	1.5917454e-09
61	0x309f7b3a	1.1603796e-09
62	0x312ed462	2.5441058e-09
63	0x31246e4a	2.3927833e-09
64	0x3208c156	7.960201e-09
65	0x31df81b1	6.5048984e-09
66	0x322b103f	9.957204e-09
67	0x31461e58	2.883004e-09
68	0x32432bd9	1.1360464e-08
69	0x32097892	8.001864e-09
70	0x33a7d13b	7.814602e-08
71	0x325e87aa	1.2952947e-08
72	0x31c1929f	5.633708e-09
73	0x33853b36	6.2040655e-08
74	0x334d5ff5	4.7817554e-08
75	0x32830464	1.5252404e-08
76	0x32b6ccc0	2.1280698e-08
77	0x3219c9dd	8.9516705e-09
78	0x30e3367a	1.6531907e-09
79	0x31049954	1.9295685e-09
80	0x31884fff	3.9672154e-09
81	0x314dbf89	2.9940301e-09
82	0x31b3c691	5.23216e-09
83	0x30f8ebe5	1.811142e-09
84	0x31f141b6	7.0214936e-09
85	0x31edea65	6.9242554e-09
86	0x31f04513	6.992772e-09
87	0x3152e728	3.069042e-09
88	0x317bacbe	3.66235e-09
89	0x3237134c	1.06563895e-08
90	0x31c3a3c9	5.693867e-09
91	0x319d0cb7	4.570747e-09
92	0x3126972a	2.4242106e-09
93	0x316cb355	3.4444458e-09
94	0x310793a7	1.9729016e-09
95	0x3046d599	7.233552e-10
96	0x32bd0928	2.200666e-08
97	0x31775f20	3.5997303e-09
98	0x31789d0c	3.617802e-09
99	0x317eaa8f	3.7058816e-09
100	0x32c37945	2.2756135e-08
101	0x31b63d19	5.303843e-09
102	0x3333f846	4.190249e-08
103	0x31d1fa67	6.111168e-09
104	0x311c3cc0	2.273552e-09
105	0x33a499e3	7.664837e-08
106	0x3357147c	5.007722e-08
107	0x31d3488f	6.149157e-09
108	0x3229c7eb	9.882551e-09
109	0x31be441a	5.53747e-09
110	0x310bc0cd	2.0336757e-09
111	0x308cc266	1.0241592e-09
112	0x3203f92a	7.681857e-09
113	0x30613a44	8.1937324e-10
114	0x312d0b97	2.5181401e-09
115	0x312b762f	2.4950955e-09
116	0x31d9b44a	6.3360277e-09
117	0x319bac19	4.530659e-09
118	0x31b756cf	5.33587e-09
119	0x30a97030	1.2328254e-09
120	0x313c15b0	2.7369929e-09
121	0x32e8e37f	2.7111808e-08
122	0x32884279	1.5862712e-08
123	0x308040c3	9.331632e-10
124	0x316af5f0	3.419128e-09
125	0x310aa536	2.0175555e-09
126	0x30b86e09	1.3419036e-09
127	0x31172791	2.1995883e-09
128	0x31d89fe1	6.3046035e-09
129	0x3200426d	7.465684e-09
130	0x3264317b	1.3282597e-08
131	0x3143299c	2.8399887e-09
132	0x323f8b27	1.1149303e-08
133	0x3222cce2	9.476226e-09
134	0x336ced5b	5.5163905e-08
135	0x3225c32f	9.648644e-09
136	0x3203ee26	7.679352e-09
137	0x3341b3ae	4.5099732e-08
138	0x33177b92	3.5269814e-08
139	0x3249e833	1.1752536e-08
140	0x32acfa29	2.0137195e-08
141	0x321ac91a	9.009705e-09
142	0x31093faf	1.9972324e-09
143	0x311a8ac3	2.2488826e-09
144	0x32d7b1c9	2.5110142e-08
145	0x31bea65d	5.548641e-09
146	0x320cce4f	8.195982e-09
147	0x31f039e9	6.991503e-09
148	0x3304066c	3.0739486e-08
149	0x31f8250d	7.221962e-09
150	0x339f9ac7	7.432168e-08
151	0x3244a661	1.1446532e-08
152	0x3187d020	3.952678e-09
153	0x33ed5c64	1.1052978e-07
154	0x339e407a	7.3691766e-08
155	0x321442c9	8.629919e-09
156	0x3240932b	1.1209333e-08
157	0x320c342e	8.160937e-09
158	0x322dd1b0	1.0117603e-08
159	0x310cb531	2.0475677e-09
160	0x315ad06a	3.1841645e-09
161	0x30354ee8	6.595955e-10
162	0x30820a42	9.46166e-10
163	0x30d267bd	1.5308995e-09
164	0x3173cf43	3.5478969e-09
165	0x310aecb4	2.0216193e-09
166	0x313076d8	2.5678926e-09
167	0x30acd0d0	1.2573995e-09
168	0x308bf9bb	1.0184559e-09
169	0x316c281b	3.4365317e-09
170	0x312e64fe	2.537774e-09
171	0x30b36a4d	1.3054177e-09
172	0x2fe5aa7c	4.1775994e-10
173	0x305e49ee	8.086819e-10
174	0x30919925	1.0593665e-09
175	0x30cb2130	1.4779626e-09
176	0x3214fb1d	8.67183e-09
177	0x30a0d164	1.1701045e-09
178	0x313450fc	2.6239482e-09
179	0x318f7a14	4.1757264e-09
180	0x3194cc0d	4.330565e-09
181	0x315d4164	3.2196903e-09
182	0x32251e90	9.611213e-09
183	0x31affdbe	5.1220175e-09
184	0x3109f2fe	2.007425e-09
185	0x3168a43e	3.3853804e-09
186	0x31af00d5	5.093265e-09
187	0x318c626c	4.0857255e-09
188	0x31c04118	5.5953358e-09
189	0x31028d60	1.8997852e-09
190	0x3071c29f	8.795186e-10
191	0x31835437	3.822176e-09
192	0x32170a8e	8.791757e-09
193	0x310d36f0	2.0549429e-09
194	0x311fb5d2	2.3240898e-09
195	0x318885c9	3.9733306e-09
196	0x322fce65	1.0233269e-08
197	0x313f9e6c	2.788421e-09
198	0x31a6f18a	4.8586957e-09
199	0x3214e7a9	8.667407e-09
200	0x30b366e5	1.3053209e-09
201	0x331a8b58	3.598265e-08
202	0x3290d459	1.686037e-08
203	0x31d1ad92	6.1024332e-09
204	0x308ceea9	1.0254172e-09
205	0x3147ec41	2.9092606e-09
206	0x31f2a59d	7.061955e-09
207	0x30fde7fc	1.8474107e-09
208	0x315ef2d1	3.2443277e-09
209	0x312ab82b	2.4842943e-09
210	0x31822008	3.7871395e-09
211	0x3110d1bb	2.1073976e-09
212	0x31d76ed0	6.2699215e-09
213	0x3191c71d	4.242692e-09
214	0x31894bfe	3.995864e-09
215	0x318b3115	4.0510124e-09
216	0x311edaea	2.3116464e-09
217	0x322269c6	9.453691e-09
218	0x31254308	2.4048763e-09
219	0x3161f324	3.2880019e-09
220	0x311d4c9d	2.2890057e-09
221	0x314cbd0e	2.9793372e-09
222	0x3115ac82	2.1780413e-09
223	0x308193c8	9.427987e-10
224	0x313f5a4f	2.7845493e-09
225	0x3099b627	1.1183986e-09
226	0x31755921	3.5702856e-09
227	0x30e847e3	1.6900653e-09
228	0x3115989c	2.1769102e-09
229	0x31671d48	3.3631569e-09
230	0x31debd9a	6.4826056e-09
231	0x3189e7b4	4.0135664e-09
232	0x3122fe16	2.3718534e-09
233	0x327170ab	1.4053664e-08
234	0x31bb67e7	5.4542286e-09
235	0x31246482	2.3922273e-09
236	0x30a094de	1.1683843e-09
237	0x312096c7	2.3368771e-09
238	0x31070858	1.9649828e-09
239	0x3129ae9b	2.4691988e-09
240	0x31334b0f	2.6090594e-09
241	0x30d50c9d	1.5501375e-09
242	0x31835473	3.8222026e-09
243	0x30d8bb8c	1.5769372e-09
244	0x313a5040	2.711218e-09
245	0x3147f3a7	2.9096812e-09
246	0x32a837c8	1.958314e-08
247	0x314cb438	2.978835e-09
248	0x31069148	1.958215e-09
249	0x327d3055	1.4737528e-08
250	0x32990fa7	1.7818662e-08
251	0x3155db71	3.1120317e-09
252	0x321a5833	8.984034e-09
253	0x30f08518	1.7500126e-09
254	0x308353b0	9.55529e-10
255	0x3115d404	2.180287e-09

exp_avg f4 [16, 1]
0	0x3823ea38	3.908036e-05
1	0xb6cb50e1	-6.059287e-06
2	0x37c8b339	2.3925315e-05
3	0xb686d2eb	-4.0180653e-06
4	0x3831000b	4.220013e-05
5	0xb7f26dec	-2.8899834e-05
6	0xb7b28aaa	-2.1283824e-05
7	0xb78f9c72	-1.7119779e-05
8	0x3745daba	1.1793041e-05
9	0xb700976a	-7.664648e-06
10	0x3846f405	4.743414e-05
11	0x3787757b	1.614796e-05
12	0xb772b439	-1.4466285e-05
13	0x38986ad4	7.267823e-05
14	0xb801f2d3	-3.0982144e-05
15	0x37817f3c	1.5437246e-05

exp_avg_sq f4 [16, 1]
0	0x35bc29d9	1.4019271e-06
1	0x33cdae56	9.577768e-08
2	0x350156a4	4.8182324e-07
3	0x345d9b32	2.0638689e-07
4	0x357b28d8	9.356422e-07
5	0x35941cd5	1.103525e-06
6	0x34f5958f	4.5743624e-07
7	0x35ff422f	1.9018242e-06
8	0x34e86f3a	4.3294295e-07
9	0x348db295	2.6393232e-07
10	0x35105932	5.3773977e-07
11	0x35615116	8.393703e-07
12	0x359ddb05	1.1761155e-06
13	0x35a0240b	1.1931419e-06
14	0x3579154b	9.2790714e-07
15	0x3464e4dd	2.1317415e-07

exp_avg f4 [16, 1]
0	0x381b85aa	3.7079364e-05
1	0xb804076d	-3.147817e-05
2	0xb82fa4dd	-4.1876792e-05
3	0xb8010eb5	-3.0769694e-05
4	0xb959ea1a	-0.00020781942
5	0xb8aa9bf5	-8.135281e-05
6	0xb79f9a86	-1.9026233e-05
7	0xb6e2461e	-6.7434876e-06
8	0x373bad0e	1.1186361e-05
9	0xb8c1987d	-9.23136e-05
10	0xb8ceb550	-9.8566175e-05
11	0xb80907a4	-3.267046e-05
12	0xb858fccc	-5.173385e-05
13	0xb93ffc33	-0.00018309131
14	0xb7d50bf6	-2.5397148e-05
15	0xb8217410	-3.8493483e-05

exp_avg_sq f4 [16, 1]
0	0x379601d3	1.7882243e-05
1	0x3618d0b8	2.2771255e-06
2	0x37481c7e	1.1927563e-05
3	0x35c4d563	1.4665242e-06
4	0x38826b5e	6.218882e-05
5	0x3797d039	1.8097564e-05
6	0x36e21019	6.737199e-06
7	0x38213774	3.8437036e-05
8	0x37036530	7.831768e-06
9	0x36402806	2.8633526e-06
10	0x36cee0e9	6.1654614e-06
11	0x36cb7c3b	6.064334e-06
12	0x37b71e58	2.182943e-05
13	0x36b050c6	5.254612e-06
14	0x3650e4df	3.1127636e-06
15	0x36006af8	1.913575e-06

exp_avg f4 [16]
0	0x3621f2c4	2.4132178e-06
1	0xacceeb6d	-5.8810097e-12
2	0x38243145	3.9146533e-05
3	0x9b038cab	-1.0881518e-22
4	0x3657470f	3.2078858e-06
5	0x36b356b1	5.344708e-06
6	0x36f372f9	7.255349e-06
7	0x38317915	4.2312855e-05
8	0xb6ce6d95	-6.1520354e-06
9	0x36fa29e1	7.455456e-06
10	0x358e71c7	1.0612938e-06
11	0x371cfaff	9.356764e-06
12	0x367f8ba7	3.807925e-06
13	0x377bc676	1.5006974e-05
14	0x36990c6f	4.561203e-06
15	0x38a1926f	7.7043536e-05
