Node_Classification/GCN/checkpoints/gcn.pth (torch, 280321 bytes, 12 tensors)

conv1.bias f4 [16]
0	0x3e482fc7	0.19549476
1	0x3dafa1a7	0.085757546
2	0x3e8f1fc6	0.2795393
3	0x3e9e158f	0.30875823
4	0x3e0f006f	0.13965009
5	0x3e90b4d3	0.28262958
6	0x3ef6457d	0.4809989
7	0x3e98de31	0.2985702
8	0x3ee3f36f	0.44521663
9	0x3e66b937	0.22531591
10	0x3ee1bd24	0.44089615
11	0x3e511f8f	0.20422195
12	0x3e29d6c3	0.16585831
13	0x3df81700	0.12113762
14	0x3e862a74	0.26204264
15	0x3ea58efe	0.32335657

conv1.lin.weight f4 [16, 1433]
0	0x3d0cf8fa	0.03441713
1	0x3cfc7951	0.030819567
2	0x3d2cde81	0.042204384
3	0x3e2946ee	0.16530964
4	0xbe85d931	-0.26142266
5	0xbc0d797c	-0.008634921
6	0xbc8a41d6	-0.016877096
7	0x3d127bb0	0.03576249
8	0xbcb51a45	-0.022107253
9	0xbb0df068	-0.0021658186
10	0x3baa5683	0.0051983013
11	0xbd009bc2	-0.031398542
12	0xbdbc88f2	-0.09205808
13	0x3db4ec69	0.08834154
14	0xbd2663c6	-0.040622495
15	0xbd31eeea	-0.043440737
16	0x3c16d03c	0.00920492
17	0xbd9eef68	-0.07760507
18	0xbd3beb39	-0.045878623
19	0x3e965ec2	0.2936917
20	0x2a8615c2	2.381828e-13
21	0x3db9952d	0.09061656
22	0x3b5688cb	0.0032735344
23	0x3b0e4cbf	0.0021713225
24	0x3b99668e	0.004681415
25	0x3cb9a3e9	0.022661166
26	0x3d1665f6	0.03671833
27	0xbddc9e66	-0.107723996
28	0xbd36b711	-0.04460818
29	0x3ce4cd65	0.027929971
30	0xbd0ca78e	-0.03433948
31	0xbc3014a2	-0.010747107
32	0x3d034836	0.032051288
33	0x3ab1f9bd	0.0013578456
34	0xbd77b42f	-0.06047457
35	0xbdd2c584	-0.10291579
36	0xbd99a637	-0.07502406
37	0x3c9dfa2d	0.019284332
38	0x3d1b738c	0.03795199
39	0xbd020420	-0.031742215
40	0x3b304bc4	0.0026900629
41	0x3e17b541	0.14815237
42	0xbb9d1285	-0.0047934675
43	0xbd2e03d7	-0.04248413
44	0xbd6ccf0e	-0.05781465
45	0xbdd3635e	-0.10321687
46	0x3a618a69	0.00086036936
47	0xbd8a6810	-0.067581296
48	0xbd18f961	-0.0373472
49	0x3c3bccd8	0.011462413
50	0xbc889124	-0.016670771
51	0xbe5a558f	-0.213217
52	0x3ddcd1fa	0.10782237
53	0x3c503066	0.012706852
54	0xbd9a0a38	-0.0752148
55	0x3b7a2daa	0.003817419
56	0x3daf7107	0.0856648
57	0x3d8c09c3	0.068377994
58	0xbd1bba93	-0.038019728
59	0x3cf1ad62	0.02950162
60	0xa942c1a4	-4.324461e-14
61	0xbe3c7ce8	-0.18407023
62	0x3d5e8921	0.054329995
63	0x3d1c735b	0.03819595
64	0xbb3de66f	-0.002897646
65	0x3dc4badf	0.09605955
66	0xbb83d0a3	-0.004022674
67	0xbd17d9fd	-0.037073124
68	0xbbe3c16d	-0.0069505484
69	0xbd1a8e5d	-0.037733424
70	0xbd701fe4	-0.058624163
71	0x3cc6bae7	0.024259044
72	0x3c95e428	0.01829727
73	0x3c8cf0a5	0.017204592
74	0xbcb7b5fc	-0.022425644
75	0x3d5bdaf3	0.053675603
76	0xbb884ec2	-0.0041597793
77	0xbe36b669	-0.17843021
78	0xbd924961	-0.07142902
79	0x3d43681e	0.047706716
80	0x3d74f705	0.05980589
81	0x3da69f7c	0.08135888
82	0xbcf68e25	-0.030097077
83	0xbc215861	-0.009847731
84	0xbd187047	-0.03721645
85	0x3dfde34a	0.123968676
86	0xbd8dcdac	-0.069239944
87	0x3c691142	0.014225306
88	0xbdb82d02	-0.089929596
89	0xbc69fe38	-0.014281802
90	0x3d11f9fd	0.035638798
91	0xbdaf5a6c	-0.085621685
92	0xbe173142	-0.14764884
93	0xbd4ffb4f	-0.050776776
94	0x3cd8c11a	0.026459266
95	0xbd0a89ef	-0.03382295
96	0x3d4c8930	0.04993552
97	0x3daf5d91	0.08562768
98	0xbc903444	-0.017603047
99	0xbe173f21	-0.14770176
100	0xbd3062b4	-0.04306288
101	0x3ccaef5d	0.02477234
102	0xbdeec0fe	-0.11657904
103	0x3de6531a	0.11246319
104	0xbdfbdd0e	-0.12298022
105	0xbbb6757b	-0.005568204
106	0xbd186853	-0.037208866
107	0x3d87ee78	0.06637281
108	0xbdf5942e	-0.11991154
109	0x3c57ed54	0.013179142
110	0xbb55d3c3	-0.003262744
111	0x39be59a5	0.00036306414
112	0xbc95dbec	-0.018293343
113	0xbb0545e4	-0.0020335848
114	0xbcbe7e70	-0.02325365
115	0xbc0b54a5	-0.008504068
116	0xbda55549	-0.080729075
117	0x3af1b426	0.0018440529
118	0xbe1d7cb9	-0.15379609
119	0xbb1e6cf6	-0.0024173832
120	0x3d81b45a	0.063332275
121	0x3cdd4d81	0.027014496
122	0x3d72c542	0.05927015
123	0x3d9091e6	0.07059078
124	0x3d8a46bb	0.06751772
125	0xbcb52bb5	-0.022115568
126	0x3c98da54	0.018658794
127	0x3d23f4f1	0.040028516
128	0xbe4dc5c8	-0.20094979
129	0x3d752a8a	0.05985502
130	0x3e197f32	0.14989927
131	0xbdea6d8f	-0.11446678
132	0x3ef1d521	0.47232917
133	0x3db3b0d7	0.08773964
134	0x3be84782	0.0070886025
135	0xbdf6c21f	-0.120487444
136	0x3d861fed	0.06549058
137	0xbd20c939	-0.0392544
138	0xbdb2b278	-0.087254465
139	0xbbbfbae2	-0.0058511356
140	0xbe223262	-0.15839532
141	0xbd93e2fb	-0.072210275
142	0xbbb8c560	-0.0056387633
143	0x3da30f7b	0.07961937
144	0xbaa21309	-0.0012365292
145	0xa94c90e8	-4.5422786e-14
146	0xbd0e31b3	-0.034715366
147	0xbd2cf6c9	-0.04222754
148	0xbda2976e	-0.07939039
149	0xb9e888c9	-0.000443524
150	0x3d4c5492	0.04988534
151	0xbe9a81c5	-0.3017713
152	0x3b1a2c7a	0.0023525045
153	0xbdb3fb79	-0.08788199
154	0xbb855da8	-0.0040700026
155	0x3d82d1ff	0.0638771
156	0xbc5b2ad8	-0.013376914
157	0xbca55a24	-0.020184584
158	0xbc846ac1	-0.016164185
159	0xbce6dfe5	-0.028182933
160	0x3dab40eb	0.083619915
161	0x3d98c878	0.074601114
162	0xbe1197ed	-0.14218111
163	0xbc2040fa	-0.009781117
164	0xbbb1457e	-0.0054098954
165	0x3bcd43c3	0.0062641813
166	0x3cd77749	0.026301997
167	0xbc46503d	-0.012104091
168	0x3db14c3c	0.08657119
169	0xbd863fe5	-0.06555156
170	0xbd45da11	-0.048303667
171	0xbbe1aa94	-0.0068867896
172	0xbda8d36e	-0.08243452
173	0x3db3992a	0.08769448
174	0xbdfa83ad	-0.122321464
175	0x3c190dac	0.009341639
176	0x3c312dc5	0.010814135
177	0xbd2e8531	-0.04260749
178	0xbb3ab4c8	-0.0028489102
179	0xbd9ff92e	-0.07811199
180	0xbca42c4d	-0.020040656
181	0xbd341607	-0.04396632
182	0x3ca207bd	0.01977908
183	0xbabc91f2	-0.0014386757
184	0xbd1ed394	-0.038775995
185	0xbb233f61	-0.0024909603
186	0x3d41ecbf	0.04734492
187	0xbcacbacc	-0.021085165
188	0xbdbfe1d3	-0.093692444
189	0xbcc708fd	-0.024296278
190	0xbc69d996	-0.014273068
191	0xbcf08c19	-0.029363679
192	0xbc89bb32	-0.016812894
193	0xbb201124	-0.002442428
194	0x3d0d290f	0.034462985
195	0x3cad0802	0.021121982
196	0x3e0d0895	0.13772805
197	0xbc06df06	-0.008231884
198	0x3c6b291f	0.014353066
199	0x3c9e4361	0.019319238
200	0xbc32f814	-0.010923404
201	0x3c65867f	0.014009117
202	0x3c054a5b	0.0081354035
203	0xbdff200b	-0.124572836
204	0xbb7eb88c	-0.0038867323
205	0xbe234db9	-0.15947618
206	0xbd272e59	-0.040815685
207	0x3c075f6b	0.0082624955
208	0x3dbd5cde	0.09246229
209	0x3b541c59	0.003236553
210	0xbcd2978f	-0.025707034
211	0x3c860d17	0.016363664
212	0x3d048647	0.03235462
213	0xbd00e071	-0.031464044
214	0x3c70460f	0.014665141
215	0x3c1a2b72	0.009409772
216	0x3d137603	0.036001217
217	0x3df2ef47	0.11862045
218	0xbc411153	-0.011783916
219	0x3cdcd3c0	0.026956439
220	0x3caa47f8	0.02078627
221	0x3c21587b	0.009847756
222	0x3be23cc7	0.006904218
223	0x3b46f973	0.0030361086
224	0xbdbd0fdf	-0.09231543
225	0x3cef7eeb	0.029235324
226	0xbd46b615	-0.04851349
227	0x3aa15683	0.0012309108
228	0x3e27244d	0.16322441
229	0xbba421dc	-0.005008919
230	0x3d25f167	0.040513422
231	0xbc3b0671	-0.01141511
232	0xba9c2755	-0.0011913577
233	0x3d3f33eb	0.046680372
234	0xbe0a4c81	-0.13505746
235	0x3d283198	0.04106292
236	0xbd0ab0e4	-0.033860102
237	0x3dfe8817	0.12428301
238	0xbc9f7c95	-0.019468585
239	0x3d0a10a3	0.033707272
240	0x3d6ef19d	0.05833589
241	0x3c36af8d	0.011150253
242	0xbd578475	-0.052616555
243	0xbc9be45a	-0.019029785
244	0xbd2cc286	-0.0421777
245	0x3d86a3e7	0.06574231
246	0x3bdad4d1	0.0066782017
247	0x3ca1ef25	0.019767353
248	0xbd0ccf44	-0.03437735
249	0xbd9414d8	-0.07230538
250	0x3d3840a7	0.044983532
251	0x3d3516b3	0.0442111
252	0x3cf3bc50	0.02975288
253	0x3beea8db	0.0072833127
254	0x3d256ce8	0.040387064
255	0x3cb3a913	0.021931207

conv2.bias f4 [7]
0	0xbf0e1941	-0.55507284
1	0x3da36161	0.07977558
2	0xbc755657	-0.014974198
3	0xbe48ac1d	-0.19596906
4	0x3eeef724	0.46672928
5	0x3f1ab9ce	0.60439765
6	0xbee4f3f1	-0.44717363

conv2.lin.weight f4 [7, 16]
0	0x3f82c9b6	1.0217807
1	0xbf519a6d	-0.8187626
2	0x3ef95a7f	0.48701856
3	0x3e5046cc	0.20339507
4	0x3f59731c	0.8494127
5	0xbf8a28bb	-1.079368
6	0xbfb2ddaa	-1.3973897
7	0x3f3b4c6d	0.7316349
8	0x3e45edf2	0.1932905
9	0x3f710db0	0.9416151
10	0xbec80e4a	-0.39073402
11	0xbf472d51	-0.7780352
12	0x3f8f00de	1.117214
13	0x3f91d269	1.1392337
14	0x3f032719	0.51231533
15	0xbf7dd466	-0.9915222
16	0x3f76bfbe	0.96386325
17	0x3f94c1dc	1.1621661
18	0x3f25aac1	0.64713675
19	0xbe5d4ec2	-0.21612075
20	0x3f0a4d68	0.5402436
21	0x3f549f93	0.8305599
22	0xbf8e8c07	-1.1136483
23	0xbf744789	-0.95421654
24	0x3f6b69f8	0.9195857
25	0xbf8045bc	-1.0021281
26	0xbf503ff3	-0.8134758
27	0xbf3b7a02	-0.73233044
28	0xbf3bc808	-0.733521
29	0xbf5f1dba	-0.87154734
30	0xbeea6b9b	-0.4578522
31	0x3f6dfae5	0.9296096
32	0xbf3e2a77	-0.74283546
33	0x3f9852e9	1.1900302
34	0xbf875a00	-1.0574341
35	0xbf922902	-1.1418765
36	0x3e920f33	0.2852722
37	0x3f5c75e3	0.8611738
38	0x3f0c5031	0.5480986
39	0xbf80ffda	-1.007808
40	0x3e312dc4	0.17302614
41	0x3f6a5be9	0.91546494
42	0x3f530615	0.82431155
43	0x3f660273	0.8984749
44	0x3f709f03	0.9399263
45	0xbdf87be1	-0.12133003
46	0xbf84e0f0	-1.0381145
47	0xbf733d61	-0.9501553
48	0x3f8858bb	1.0652078
49	0xbf1e0053	-0.61719245
50	0xbf92de3e	-1.1474073
51	0x3f53baa6	0.8270668
52	0xbf9a2efc	-1.2045588
53	0x3f42b458	0.7605643
54	0x3f38bcaa	0.7216288
55	0x3f4ee020	0.8081074
56	0xbf7b1ce2	-0.98090947
57	0x3ed1f523	0.41007337
58	0x3f27b9a8	0.65517664
59	0xbf053e75	-0.52048427
60	0xbf6cb5cb	-0.92464894
61	0x3f858d07	1.0433663
62	0xbf9c5c61	-1.2215692
63	0x3f749bd8	0.955503
64	0xbf86a5ca	-1.0519345
65	0xbf2cc726	-0.67491376
66	0x3f202754	0.6256001
67	0xbf90a7e8	-1.1301241
68	0xbf916b24	-1.1360822
69	0xbf58becd	-0.8466614
70	0x3f69b2ee	0.9128865
71	0x3f9a2550	1.2042637
72	0x3f806cd3	1.003321
73	0xbf9ec56d	-1.2404
74	0x3f803ba3	1.00182
75	0xbf20f154	-0.6286824
76	0xbf445bd5	-0.76702625
77	0xbf44fd71	-0.7694922
78	0x3f08546d	0.53253824
79	0xbf3c2a86	-0.73502386
80	0xbf50baf4	-0.8153527
81	0xbe60a32b	-0.21937244
82	0x3f6d9cf5	0.9281762
83	0x3f80552e	1.0025995
84	0x3f63acc4	0.88935494
85	0xbf3fb38b	-0.74883336
86	0x3f3501bb	0.70705765
87	0xbf8e3a43	-1.111153
88	0xbfac0907	-1.3440255
89	0xbfa26f09	-1.2690135
90	0xbf803a08	-1.001771
91	0x3f8afb21	1.0857888
92	0xbf83a875	-1.0285784
93	0xbee47afd	-0.44625083
94	0x3f31fd7c	0.6952741
95	0xbf87d4f7	-1.0611867
96	0xbf391edf	-0.7231273
97	0xbf4b9c89	-0.7953573
98	0xbf5efa57	-0.8710074
99	0x3f54daa3	0.83146113
100	0xbfaddef0	-1.358366
101	0xbf739f85	-0.9516528
102	0x3e4cabcd	0.19987412
103	0xbf743685	-0.9539569
104	0x3f7bbbd9	0.9833351
105	0x3f826640	1.0187454
106	0xbf69432b	-0.91118115
107	0x3f82e3ae	1.0225732
108	0x3f885e41	1.0653764
109	0xbf7dca07	-0.99136394
110	0x3f22dee9	0.63621384
111	0x3f88e9a9	1.0696307

exp_avg f4 [16]
0	0x39fb224d	0.00047900007
1	0x387ead47	6.0719696e-05
2	0xb815a7a0	-3.568048e-05
3	0xb9973688	-0.00028841593
4	0xb9f2dbc0	-0.00046321563
5	0xb99fed73	-0.00030503757
6	0x389ee067	7.575825e-05
7	0xba2147ad	-0.0006152343
8	0xb9bcd9bf	-0.00036020388
9	0xb8c8c641	-9.573671e-05
10	0xb998e5c7	-0.00029162897
11	0xb8e3c0d8	-0.000108601234
12	0xba09b0f4	-0.00052525033
13	0xb9cccf71	-0.00039064468
14	0xb92d8c3a	-0.00016550804
15	0xba43eabb	-0.0007473637

exp_avg_sq f4 [16]
0	0x37249886	9.810674e-06
1	0x37a3ec73	1.954122e-05
2	0x37259275	9.868866e-06
3	0x373f8fa4	1.1417931e-05
4	0x37841d9b	1.5749412e-05
5	0x36d81b07	6.440448e-06
6	0x378e1621	1.6938024e-05
7	0x373a8b44	1.1118889e-05
8	0x37314698	1.05664585e-05
9	0x3769d01b	1.3936336e-05
10	0x3717dc95	9.05166e-06
11	0x371575e5	8.9085415e-06
12	0x372b5a7e	1.0213464e-05
13	0x372868a0	1.003794e-05
14	0x3707e716	8.100431e-06
15	0x37193c0f	9.133494e-06

exp_avg f4 [16, 1433]
0	0x36132470	2.1925916e-06
1	0x36c566cb	5.883024e-06
2	0xb7905935	-1.7207678e-05
3	0x383496d4	4.3055814e-05
4	0xb754f922	-1.269419e-05
5	0xb6d124b6	-6.232959e-06
6	0xb6aaa82d	-5.085973e-06
7	0x36bfa0dd	5.7109705e-06
8	0xb724fc9f	-9.83398e-06
9	0xb65b998a	-3.2722915e-06
10	0xb57af2ae	-9.3485403e-07
11	0xb7099e60	-8.202711e-06
12	0xb74bfb9b	-1.2158324e-05
13	0x37cea38b	2.463327e-05
14	0x3727caba	1.0001177e-05
15	0xb7a7d298	-2.0006017e-05
16	0x36ca1c0e	6.023335e-06
17	0x382ac93c	4.0718573e-05
18	0xb6b3b230	-5.3553595e-06
19	0xb90af04e	-0.00013250226
20	0xa3318df8	-9.625252e-18
21	0x3782f5de	1.5611698e-05
22	0x36830487	3.9046313e-06
23	0x36c2b3ec	5.802596e-06
24	0xb2f9e7ee	-2.9092885e-08
25	0xb746c818	-1.1848308e-05
26	0x379bcfac	1.8574145e-05
27	0x37215b2e	9.617577e-06
28	0xb62c212d	-2.5649308e-06
29	0xb61c1a48	-2.326111e-06
30	0xb76f0861	-1.4247461e-05
31	0x366fca77	3.5731625e-06
32	0x36f23011	7.2177577e-06
33	0x34a2365d	3.0214406e-07
34	0x37c419b8	2.3376997e-05
35	0xb79e4a1d	-1.886958e-05
36	0xb7ed1baf	-2.8265493e-05
37	0x35c51669	1.4684166e-06
38	0x375d9bbf	1.3208889e-05
39	0xb7244bc0	-9.792799e-06
40	0x35711e51	8.982361e-07
41	0x3806c1ef	3.2128704e-05
42	0x36234c4e	2.4333308e-06
43	0xb6b4af35	-5.384815e-06
44	0xb6d09873	-6.2166305e-06
45	0x38c093d1	9.1828064e-05
46	0xb5bef055	-1.4226049e-06
47	0xb755bab6	-1.2739261e-05
48	0x381d004c	3.7431993e-05
49	0xb60ddc4a	-2.1138862e-06
50	0x36c1d263	5.7763405e-06
51	0xb42c2d65	-1.6035263e-07
52	0xb7b6b799	-2.1781585e-05
53	0xb5f90527	-1.8553445e-06
54	0xb723c5bc	-9.761596e-06
55	0xb57d5975	-9.438002e-07
56	0x382021a7	3.8178314e-05
57	0xb7c66e52	-2.3654811e-05
58	0x36955f3a	4.451632e-06
59	0x382f6392	4.1815983e-05
60	0x2210dead	1.9633523e-18
61	0x37bcb4fc	2.2495624e-05
62	0x37e6974b	2.7488588e-05
63	0x383ac87d	4.4532575e-05
64	0x37314cb2	1.0567879e-05
65	0x35b53815	1.3501873e-06
66	0xb7c37cc2	-2.3303906e-05
67	0x38475327	4.752274e-05
68	0xb754db8e	-1.2687304e-05
69	0x36e1b01a	6.7260235e-06
70	0xb6af13e6	-5.217723e-06
71	0x35871f9a	1.0067481e-06
72	0xb641c118	-2.8871636e-06
73	0xb6a9c657	-5.0596823e-06
74	0x356d3937	8.837264e-07
75	0x3680695b	3.8269623e-06
76	0xb62e7621	-2.599678e-06
77	0xb7e3554a	-2.7100225e-05
78	0xb7d2f7e6	-2.5149388e-05
79	0x364abeb2	3.0211345e-06
80	0x37eacb80	2.7989736e-05
81	0x386d65cc	5.660001e-05
82	0xb714f961	-8.8795505e-06
83	0xb63fb89c	-2.8568675e-06
84	0xb7974851	-1.8034278e-05
85	0xb7746498	-1.4566955e-05
86	0x37a0210e	1.9088879e-05
87	0x3770b466	1.4347117e-05
88	0xb853064d	-5.031219e-05
89	0x3894fc8b	7.10423e-05
90	0x3703cfdd	7.856605e-06
91	0xb75a35c3	-1.300633e-05
92	0xb80014e0	-3.053702e-05
93	0x37fd129e	3.016862e-05
94	0x37d3c576	2.524511e-05
95	0xb6bf80df	-5.707246e-06
96	0x37852f48	1.5876853e-05
97	0x367d0b47	3.7706502e-06
98	0x3854b518	5.0713395e-05
99	0x37825a11	1.5539148e-05
100	0x372e2005	1.0378663e-05
101	0x36e17235	6.718818e-06
102	0xb7546d66	-1.2661656e-05
103	0x3717d149	9.049029e-06
104	0xb825fcbf	-3.9574454e-05
105	0x358d6ad2	1.0536407e-06
106	0x36d44a74	6.32676e-06
107	0xb77e3a08	-1.5153091e-05
108	0xb85d5e5e	-5.2778392e-05
109	0xb747f4f7	-1.191836e-05
110	0xb632d2ef	-2.6646846e-06
111	0xb600ea52	-1.9209879e-06
112	0x371e659a	9.44119e-06
113	0xb503412a	-4.889613e-07
114	0xb716dc8a	-8.992045e-06
115	0xb6819836	-3.8622193e-06
116	0xb7943cf2	-1.7671355e-05
117	0x35029585	4.8646353e-07
118	0x370c47cd	8.361368e-06
119	0x379a443d	1.8390007e-05
120	0x37f2c0b4	2.8938382e-05
121	0xb810f161	-3.4557077e-05
122	0x36a3596a	4.8681877e-06
123	0x37aac353	2.0356534e-05
124	0x380ebb4d	3.4029876e-05
125	0x38096d5e	3.27652e-05
126	0x37ce46f8	2.4590161e-05
127	0x37af711e	2.09143e-05
128	0xb8c7a09c	-9.518975e-05
129	0x3848349a	4.7732705e-05
130	0x3807995e	3.2329343e-05
131	0xb800a040	-3.0666823e-05
132	0x3856542f	5.1099978e-05
133	0xb5ade2d2	-1.2955518e-06
134	0xb5688f66	-8.6635407e-07
135	0x38a462c8	7.838529e-05
136	0xb7d67095	-2.5563213e-05
137	0xb5e9b6af	-1.7413021e-06
138	0xb7f3e2d8	-2.907349e-05
139	0x34c8fb8b	3.7435925e-07
140	0xb7a132b3	-1.9216304e-05
141	0xb701eb72	-7.743818e-06
142	0xb7a39e67	-1.9504876e-05
143	0xb779c4a9	-1.4887345e-05
144	0xb57dcf07	-9.455111e-07
145	0x2180c25d	8.725065e-19
146	0x372a5927	1.0153547e-05
147	0x3772880b	1.4455999e-05
148	0x37f37700	2.9023271e-05
149	0xb715304c	-8.892337e-06
150	0x35925b67	1.0904449e-06
151	0xb773b0a4	-1.4525056e-05
152	0x36338b7a	2.6754265e-06
153	0xb793a059	-1.7598433e-05
154	0x37554f0e	1.2714196e-05
155	0xb587f879	-1.0130599e-06
156	0xb79fe3a3	-1.9060279e-05
157	0xb7bac467	-2.2264385e-05
158	0x35e77345	1.7244389e-06
159	0xb5a1524b	-1.2019385e-06
160	0x356ef752	8.902181e-07
161	0x372b6fed	1.0218454e-05
162	0x3827e9f7	4.00338e-05
163	0xb5bf4268	-1.4249936e-06
164	0xb5a73a1b	-1.245938e-06
165	0x34e217c3	4.211307e-07
166	0x33a3fbc0	7.636072e-08
167	0xb56a3a24	-8.72564e-07
168	0x38679578	5.5213895e-05
169	0xb797ff5d	-1.8119516e-05
170	0xb77e8116	-1.5169635e-05
171	0xb495dbd4	-2.791336e-07
172	0xb7bcf21e	-2.2524091e-05
173	0xb7910c5c	-1.7291102e-05
174	0x37d0f1cf	2.4908133e-05
175	0x36b7691f	5.4660627e-06
176	0xb89e54a1	-7.5497905e-05
177	0x360b580e	2.0763869e-06
178	0x343f78d7	1.7832222e-07
179	0x3836a4c9	4.354565e-05
180	0xb66800c1	-3.4571133e-06
181	0xb7c6728d	-2.3656781e-05
182	0x371dcd7d	9.405773e-06
183	0xb593baf2	-1.1006762e-06
184	0x35d67954	1.5979554e-06
185	0xb4e0ba57	-4.1858831e-07
186	0x371f21c9	9.485005e-06
187	0x373d95ec	1.1300184e-05
188	0x382823ab	4.008754e-05
189	0xb69f5b1d	-4.7491762e-06
190	0x37de06fe	2.6467718e-05
191	0xb6d02071	-6.2026597e-06
192	0xb7f32b4a	-2.8988015e-05
193	0x358c745c	1.0464678e-06
194	0x372a685f	1.015709e-05
195	0x37ae5dc1	2.0786074e-05
196	0x3801848e	3.0879448e-05
197	0x38230c8c	3.8873914e-05
198	0x35b92cc1	1.3796599e-06
199	0x353b9bbf	6.988957e-07
200	0xb6d8bbea	-6.4591777e-06
201	0xb6433004	-2.9085213e-06
202	0xb5dc2393	-1.6401631e-06
203	0x3841a3d0	4.6167348e-05
204	0x34fa8a43	4.6666727e-07
205	0xb6ba4663	-5.551426e-06
206	0x362e926f	2.6013256e-06
207	0x368b7d23	4.1570906e-06
208	0x37c0af3f	2.2969789e-05
209	0x3517dfc7	5.657752e-07
210	0x36833fc2	3.9115266e-06
211	0x37bbf897	2.2407896e-05
212	0x372e3002	1.0382386e-05
213	0xb62a040e	-2.5334334e-06
214	0xb65d4de3	-3.2976902e-06
215	0xb7405765	-1.146444e-05
216	0x36b5f19b	5.422347e-06
217	0xb636067e	-2.7123892e-06
218	0xb7a70e62	-1.9914649e-05
219	0x36760b2c	3.666336e-06
220	0x3639f072	2.7707106e-06
221	0xb717f90a	-9.058285e-06
222	0xb70f2d6f	-8.5340425e-06
223	0x35feb050	1.8975788e-06
224	0xb72b06af	-1.019395e-05
225	0xb6515e6f	-3.1198394e-06
226	0xb7c307df	-2.3249477e-05
227	0x35c2ac66	1.4504301e-06
228	0x3829cb2f	4.048197e-05
229	0xb69f8d64	-4.7550293e-06
230	0xb61dbffa	-2.3506568e-06
231	0x36654dd9	3.4168972e-06
232	0x363d550d	2.82127e-06
233	0x3530fa25	6.592912e-07
234	0xb3c48882	-9.151792e-08
235	0x37622ad3	1.34806205e-05
236	0xb78edc4b	-1.7030301e-05
237	0x36d41780	6.320828e-06
238	0xb73c6d62	-1.1231141e-05
239	0xb6564ffb	-3.193504e-06
240	0x36bd30f1	5.6383365e-06
241	0xb70c6e52	-8.370336e-06
242	0xb781e4a1	-1.5484462e-05
243	0xb727c670	-1.0000178e-05
244	0xb6ec5df8	-7.0442875e-06
245	0xb7299658	-1.010819e-05
246	0xb6b029f9	-5.250095e-06
247	0x37414e5f	1.1521944e-05
248	0x36b79ef5	5.47233e-06
249	0xb74ae75c	-1.2094006e-05
250	0x382707ed	3.9823284e-05
251	0xb72a8cb4	-1.016555e-05
252	0xb37c0123	-5.8674356e-08
253	0x35f6c579	1.83859e-06
254	0x372d6201	1.0334422e-05
255	0x36d99421	6.4843484e-06

exp_avg_sq f4 [16, 1433]
0	0x312bc563	2.4995976e-09
1	0x322c337f	1.00234265e-08
2	0x3286bdc8	1.5685956e-08
3	0x32d5b576	2.4878982e-08
4	0x3491aa38	2.7132205e-07
5	0x31a8e81f	4.9158326e-09
6	0x3227c8ef	9.766366e-09
7	0x3120cfde	2.3401223e-09
8	0x318f4241	4.16938e-09
9	0x2f3c2a5f	1.7113554e-10
10	0x2f0f7d78	1.305035e-10
11	0x309c97da	1.1393653e-09
12	0x331c436b	3.6382897e-08
13	0x31c51190	5.7354512e-09
14	0x30ef8054	1.7426012e-09
15	0x31c8cb37	5.843869e-09
16	0x3174bd18	3.561416e-09
17	0x3248ac35	1.16806875e-08
18	0x316be32f	3.432614e-09
19	0x358879d4	1.0168246e-06
20	0x2c17c052	2.156515e-12
21	0x3214b067	8.654843e-09
22	0x30e340b4	1.6534814e-09
23	0x326e3b52	1.3866911e-08
24	0x2f6cdd0c	2.1542607e-10
25	0x339af61e	7.215952e-08
26	0x32c7a0a5	2.3239702e-08
27	0x331a922e	3.598887e-08
28	0x32ac40cf	2.0052907e-08
29	0x31373b8f	2.666386e-09
30	0x324b70f9	1.1841842e-08
31	0x3008d904	4.978491e-10
32	0x30a9452c	1.2316028e-09
33	0x2f55f3e0	1.9458879e-10
34	0x31e7904f	6.739391e-09
35	0x3267cc59	1.3492433e-08
36	0x319e0881	4.599372e-09
37	0x3062e81e	8.254818e-10
38	0x331b6322	3.617891e-08
39	0x336c8a04	5.5073556e-08
40	0x3228198f	9.784698e-09
41	0x33aa2fad	7.924914e-08
42	0x3054981c	7.734131e-10
43	0x30d07292	1.5166555e-09
44	0x31a86f78	4.902116e-09
45	0x3335fbc3	4.2371322e-08
46	0x2ecf07dd	9.414667e-11
47	0x31d5df4f	6.224503e-09
48	0x33cc6160	9.517203e-08
49	0x2f3f8b3e	1.7420818e-10
50	0x31d631d3	6.233884e-09
51	0x33bebc88	8.881858e-08
52	0x3484cde5	2.4736724e-07
53	0x2e9cdfd2	7.133817e-11
54	0x32552469	1.24065105e-08
55	0x30c02782	1.3981067e-09
56	0x32f54677	2.8553798e-08
57	0x32271047	9.72438e-09
58	0x325d368f	1.2876298e-08
59	0x3302202d	3.0297247e-08
60	0x29966cbc	6.6802006e-14
61	0x33a4320e	7.64595e-08
62	0x3383d3b4	6.1386714e-08
63	0x33683ecd	5.4073826e-08
64	0x32c4271f	2.2835193e-08
65	0x323d5aff	1.1021938e-08
66	0x31ea4c49	6.818969e-09
67	0x33c767c1	9.285532e-08
68	0x3091f6bc	1.0620265e-09
69	0x3075ab1e	8.9373653e-10
70	0x3222ff90	9.487749e-09
71	0x309f324a	1.1583066e-09
72	0x309cc953	1.1407714e-09
73	0x30a8d1af	1.2283204e-09
74	0x3082a7f1	9.506477e-10
75	0x3281e5de	1.5122108e-08
76	0x32d1cf00	2.4424935e-08
77	0x33314af2	4.1279186e-08
78	0x32870d9c	1.5722257e-08
79	0x3092c3e5	1.0678575e-09
80	0x321a86bc	8.994615e-09
81	0x335089f1	4.855423e-08
82	0x315c0fa2	3.20231e-09
83	0x31a03799	4.6629336e-09
84	0x30f23ab4	1.7624502e-09
85	0x330f3d86	3.3350737e-08
86	0x32a138bd	1.8768668e-08
87	0x31db6ae8	6.3858927e-09
88	0x33182584	3.5424378e-08
89	0x33582582	5.0325532e-08
90	0x300a6445	5.03466e-10
91	0x3239c8e3	1.0814094e-08
92	0x32f0f5f5	2.8051526e-08
93	0x3447f957	1.8624029e-07
94	0x320ebd30	8.308504e-09
95	0x30e0685d	1.6327807e-09
96	0x32884198	1.5862312e-08
97	0x3294b37a	1.7311084e-08
98	0x330e102e	3.3076667e-08
99	0x342e901e	1.6257442e-07
100	0x318aa03a	4.0345443e-09
101	0x302222e9	5.8984867e-10
102	0x32b11e36	2.061925e-08
103	0x32ce7486	2.4034545e-08
104	0x32c9b2e5	2.3480832e-08
105	0x3050bc63	7.5937673e-10
106	0x31156be0	2.1743674e-09
107	0x31cc8a8f	5.9529337e-09
108	0x333a4c97	4.3376158e-08
109	0x3203fb6b	7.682369e-09
110	0x300a9a1a	5.04231e-10
111	0x2fab1e5c	3.112629e-10
112	0x30863e2d	9.767455e-10
113	0x2c9aabe7	4.3960282e-12
114	0x3181253d	3.7586276e-09
115	0x2ff2bf10	4.4155302e-10
116	0x32a7c0e6	1.9529079e-08
117	0x300f3f71	5.211325e-10
118	0x33374f01	4.267986e-08
119	0x32f2e5d9	2.827703e-08
120	0x3216620a	8.753441e-09
121	0x324dc20c	1.1976692e-08
122	0x31ccd906	5.961854e-09
123	0x31c9fed1	5.878839e-09
124	0x322b6579	9.976582e-09
125	0x33b46a5e	8.401251e-08
126	0x32cc64d7	2.3794582e-08
127	0x321ca88c	9.118718e-09
128	0x3398a6c4	7.108386e-08
129	0x31d60b4c	6.229504e-09
130	0x332535d2	3.8466005e-08
131	0x333cc291	4.3949118e-08
132	0x34e7e45e	4.3193262e-07
133	0x31a94258	4.9260898e-09
134	0x31312159	2.5775846e-09
135	0x34af6ad6	3.2674023e-07
136	0x336c7575	5.505486e-08
137	0x30b59ff8	1.3214949e-09
138	0x312caecf	2.5128661e-09
139	0x30391374	6.733025e-10
140	0x33317082	4.131335e-08
141	0x316e1af1	3.4648873e-09
142	0x312ab9c6	2.4843856e-09
143	0x32078cc2	7.890039e-09
144	0x2ebc66eb	8.567532e-11
145	0x29688bf5	5.1635742e-14
146	0x32c41132	2.2825223e-08
147	0x30aaf9ac	1.2440089e-09
148	0x31d8adee	6.306201e-09
149	0x32810a57	1.5022279e-08
150	0x31b96a14	5.3962683e-09
151	0x33ae761f	8.1239925e-08
152	0x2fe5d6cf	4.1807488e-10
153	0x321b113b	9.026105e-09
154	0x3110bd82	2.106248e-09
155	0x32d4fbb3	2.4794508e-08
156	0x32279617	9.754806e-09
157	0x3202fcae	7.624449e-09
158	0x30bf36aa	1.3912616e-09
159	0x30c42271	1.4270666e-09
160	0x32e8c191	2.7096378e-08
161	0x31d5fc0c	6.2277703e-09
162	0x33584e4a	5.0362623e-08
163	0x3074bff8	8.9039487e-10
164	0x2fd6d7b4	3.907964e-10
165	0x304681f9	7.221668e-10
166	0x310955d4	1.9984912e-09
167	0x2fd84568	3.9339487e-10
168	0x3352fee5	4.912626e-08
169	0x31550eb3	3.1003935e-09
170	0x3187694e	3.940989e-09
171	0x2e3c57fe	4.2824404e-11
172	0x31ae41f0	5.0715627e-09
173	0x3309dc06	3.209791e-08
174	0x32c95171	2.3436515e-08
175	0x308f66fa	1.0433887e-09
176	0x3358acf4	5.044872e-08
177	0x315fc5d4	3.2563223e-09
178	0x304b74cc	7.401695e-10
179	0x34013c14	1.2035918e-07
180	0x2f039fe1	1.1971181e-10
181	0x3140dcf1	2.8065268e-09
182	0x319177cc	4.2336747e-09
183	0x31a42640	4.7773767e-09
184	0x30bd613d	1.3779197e-09
185	0x2ce68721	6.5519955e-12
186	0x31ed1d97	6.900972e-09
187	0x3308e309	3.1871455e-08
188	0x326ca9f7	1.37756535e-08
189	0x3297beda	1.7665503e-08
190	0x323095ab	1.0278579e-08
191	0x31c14db2	5.625872e-09
192	0x326334d6	1.32251525e-08
193	0x2f00b2e7	1.1705091e-10
194	0x329ce18c	1.8263357e-08
195	0x326673be	1.3414079e-08
196	0x324521b7	1.1474575e-08
197	0x32180c1a	8.850316e-09
198	0x2f87041e	2.4559282e-10
199	0x2f3e90b7	1.7331812e-10
200	0x312eeed6	2.5456095e-09
201	0x301cd38d	5.70531e-10
202	0x31002f0f	1.8653201e-09
203	0x33c4d935	9.166471e-08
204	0x2f6b0b50	2.1377144e-10
205	0x34158ad0	1.3927206e-07
206	0x30828477	9.496394e-10
207	0x31e4956a	6.6526598e-09
208	0x32b346db	2.0870564e-08
209	0x2ec98a85	9.165028e-11
210	0x3049e3dd	7.3447187e-10
211	0x33c0afac	8.972651e-08
212	0x323e7cb2	1.1087808e-08
213	0x321ba117	9.058815e-09
214	0x31f7ce6f	7.212115e-09
215	0x30577527	7.838303e-10
216	0x3047cc59	7.2686174e-10
217	0x332550f9	3.84907e-08
218	0x319ef80d	4.6266053e-09
219	0x30c0c268	1.4025092e-09
220	0x30af4dbb	1.2755018e-09
221	0x30aa4f31	1.2391635e-09
222	0x3186566a	3.9097374e-09
223	0x3000fc98	4.6925086e-10
224	0x31f8ca9f	7.2407853e-09
225	0x328e3a61	1.6557523e-08
226	0x31dc3aa8	6.409511e-09
227	0x304d06d1	7.458825e-10
228	0x334eed1d	4.8178766e-08
229	0x30afaec7	1.27826e-09
230	0x315dc49f	3.2271499e-09
231	0x31f9d1d5	7.270709e-09
232	0x31bb4c4d	5.4510907e-09
233	0x3296ae5d	1.754159e-08
234	0x33068666	3.132154e-08
235	0x3159878f	3.1654712e-09
236	0x31b97ab1	5.398157e-09
237	0x3365582b	5.3398406e-08
238	0x331db648	3.6720195e-08
239	0x31394966	2.6962765e-09
240	0x317f0965	3.7112724e-09
241	0x310afd2c	2.0225555e-09
242	0x30b66e5e	1.3273611e-09
243	0x2fa31ee6	2.9671482e-10
244	0x31a1afc3	4.7056985e-09
245	0x318473db	3.854877e-09
246	0x2f9cd817	2.8529776e-10
247	0x322c4f92	1.002981e-08
248	0x319caf75	4.5601447e-09
249	0x32aeee46	2.036462e-08
250	0x33b0a2d9	8.2252605e-08
251	0x319f999a	4.6449715e-09
252	0x315bd4a4	3.1989567e-09
253	0x30f2857f	1.7645759e-09
254	0x30fd3012	1.8421835e-09
255	0x310ab2ee	2.0183353e-09

exp_avg f4 [7]
0	0x39329c65	0.00017033664
1	0xb8f26ed2	-0.00011560101
2	0xb86eebe2	-5.6963305e-05
3	0xb9007d20	-0.00012253644
4	0x3a06eb82	0.0005146788
5	0xba3ac41a	-0.00071245583
6	0x3998ea48	0.00029166252

exp_avg_sq f4 [7]
0	0x3772d2b3	1.4473381e-05
1	0x3613bff2	2.2016434e-06
2	0x36353fe0	2.7008282e-06
3	0x36737147	3.6275758e-06
4	0x37371e3c	1.09146895e-05
5	0x3708a0da	8.143683e-06
6	0x36b469f8	5.3767544e-06

exp_avg f4 [7, 16]
0	0xb95ccb17	-0.00021056492
1	0xb8300101	-4.1962605e-05
2	0x38a6f193	7.9604935e-05
3	0x391fcade	0.00015238996
4	0x37adc217	2.0713587e-05
5	0xb8d2829b	-0.000100379075
6	0x39b4db75	0.00034495784
7	0x38bfa441	9.1381844e-05
8	0x39467584	0.0001892653
9	0xb95e3114	-0.00021189853
10	0x38b2e98d	8.531204e-05
11	0x38fa71fa	0.00011942159
12	0x398429bb	0.00025208094
13	0xb986b203	-0.000256911
14	0x38f3aece	0.00011619703
15	0x39222556	0.00015463433
16	0xb8eade64	-0.00011199413
17	0xb9afc226	-0.00033523253
18	0xb87e2806	-6.0595594e-05
19	0x3984fa37	0.00025363427
20	0xb9a94c4c	-0.00032291037
21	0xba8085ff	-0.0009805559
22	0x38c304de	9.299231e-05
23	0xb8adc60a	-8.2861705e-05
24	0xb9994146	-0.00029231067
25	0xb7961b4f	-1.789411e-05
26	0x371adbb5	9.23027e-06
27	0x36f673ab	7.344837e-06
28	0xb78c53e1	-1.672836e-05
29	0xb8a30400	-7.773191e-05
30	0x39d2e876	0.00040227518
31	0x36e4a91d	6.814617e-06
32	0x38dfd417	0.000106729734
33	0x37c8c7f7	2.3934974e-05
34	0x392c1065	0.00016409306
35	0x379996b4	1.8309198e-05
36	0xb933235d	-0.00017083944
37	0x390a0d07	0.00013165559
38	0xba353c0b	-0.0006913549
39	0xb90c85d3	-0.00013401294
40	0x3993a4e3	0.00028160875
41	0xb7d09ef1	-2.4869545e-05
42	0x38a4599f	7.8368226e-05
43	0xb9bf272e	-0.0003645955
44	0xb9bb0520	-0.00035671238
45	0xb8363911	-4.344533e-05
46	0x3940e657	0.00018396355
47	0x3907b85c	0.00012943282
48	0x397600c7	0.00023460678
49	0x38e32166	0.000108304244
50	0x3833e6e5	4.2891963e-05
51	0xb9a1d220	-0.00030864868
52	0x385277e1	5.0179548e-05
53	0x3980c3f4	0.0002456006
54	0xb907458c	-0.00012900512
55	0xb9579aab	-0.00020561616
56	0x3992a26e	0.0002796831
57	0x3928252e	0.00016035579
58	0xba1b1626	-0.0005916081
59	0x3888485e	6.498465e-05
60	0xb7acaf5d	-2.0585658e-05
61	0xb9621d03	-0.00021563847
62	0xb82986c8	-4.0418265e-05
63	0xb9bf07e7	-0.00036436247
64	0xb8867a05	-6.412346e-05
65	0xb8d5be8b	-0.00010192123
66	0x38cf85e8	9.895471e-05
67	0x39237e17	0.00015591863
68	0xb8e86285	-0.00011080973
69	0x38da0859	0.00010396605
70	0x3a156b4c	0.00056998874
71	0xb9a7e96b	-0.00032026632
72	0x380f96b1	3.42342e-05
73	0xb83ad7aa	-4.454671e-05
74	0xb94b4a8f	-0.00019387364
75	0x3998aa63	0.00029118647
76	0x380f4e99	3.4167057e-05
77	0x395bbb05	0.00020955138
78	0x39b5ec9e	0.00034699304
79	0x38a8b0b4	8.043778e-05
80	0xb784a4de	-1.5812398e-05
81	0xb6e7e1cc	-6.9106227e-06
82	0xba44ea10	-0.00075116847
83	0xb9dcbbfa	-0.00042101723
84	0xb8c48fe7	-9.372812e-05
85	0x38262914	3.961574e-05
86	0xba54e235	-0.00081208657
87	0x38af3805	8.355085e-05
88	0x3954681b	0.00020256678
89	0xb85fc9de	-5.3355347e-05
90	0x393410b8	0.00017172366
91	0xba11c7ca	-0.0005561082
92	0xb6441f38	-2.9224448e-06
93	0xb906bcb3	-0.00012849532
94	0xbaac5c09	-0.0013149987
95	0xb922783d	-0.00015494316
96	0xb8af5406	-8.360301e-05
97	0xb81950cc	-3.655329e-05
98	0x3975747e	0.00023408417
99	0x39b39c9b	0.0003425822
100	0x384c6287	4.872915e-05
101	0xb7fcad11	-3.0121331e-05
102	0x3a6f81bc	0.00091364584
103	0xb8b2afc9	-8.520444e-05
104	0xb96114ec	-0.00021465466
105	0x38a1049b	7.677936e-05
106	0x38ffd221	0.00012198487
107	0x3a21882d	0.00061619544
108	0xb871605e	-5.7548627e-05
109	0xb63c4495	-2.8054103e-06
110	0x3913a15f	0.00014079128
111	0xb982ac2f	-0.0002492382

exp_avg_sq f4 [7, 16]
0	0x36f55ff6	7.3127403e-06
1	0x36c15b36	5.7624666e-06
2	0x3741d4c1	1.1553232e-05
3	0x371f767c	9.504725e-06
4	0x36ff385d	7.6061538e-06
5	0x371f76b4	9.504776e-06
6	0x374f295c	1.2347791e-05
7	0x37193652	9.132158e-06
8	0x36f57891	7.3156048e-06
9	0x368ab754	4.1340627e-06
10	0x368b0e39	4.1441785e-06
11	0x36e29cb1	6.753566e-06
12	0x36f7ac82	7.381256e-06
13	0x36aef53b	5.2141527e-06
14	0x3761d0ba	1.3459643e-05
15	0x36e4f06c	6.8229183e-06
16	0x372212b3	9.660306e-06
17	0x37a8d1e8	2.0124906e-05
18	0x36bb8747	5.5887826e-06
19	0x362ab98e	2.543998e-06
20	0x371120f3	8.650345e-06
21	0x37601617	1.3356584e-05
22	0x370227b4	7.757848e-06
23	0x35c82260	1.4911166e-06
24	0x37181a9d	9.066102e-06
25	0x3607bb4b	2.0225586e-06
26	0x36199541	2.2885654e-06
27	0x36a57a28	4.931604e-06
28	0x36526398	3.135041e-06
29	0x36a4e707	4.914476e-06
30	0x361962b9	2.285624e-06
31	0x376dc974	1.4173205e-05
32	0x36bfbf85	5.7145394e-06
33	0x366c0e3e	3.517503e-06
34	0x3733c8c5	1.0715977e-05
35	0x37036943	7.832717e-06
36	0x3600459e	1.911401e-06
37	0x36e6b373	6.875425e-06
38	0x369dc0e1	4.7014187e-06
39	0x35defe77	1.6614348e-06
40	0x3681b287	3.865283e-06
41	0x370c973b	8.379861e-06
42	0x36e295b9	6.752755e-06
43	0x36f9294e	7.425587e-06
44	0x3665e3c1	3.425623e-06
45	0x35965b08	1.1202364e-06
46	0x371149ce	8.6598575e-06
47	0x369de309	4.705395e-06
48	0x371e046f	9.418566e-06
49	0x35f613f9	1.8334241e-06
50	0x368f1f9b	4.2654115e-06
51	0x36a7de16	5.002842e-06
52	0x36b2df77	5.330828e-06
53	0x36e629ca	6.859399e-06
54	0x36b70b4b	5.4551397e-06
55	0x36a7395f	4.9836667e-06
56	0x378611d4	1.5982347e-05
57	0x36a4d1ee	4.91202e-06
58	0x36c37e06	5.826124e-06
59	0x367ce7b5	3.7685797e-06
60	0x3643b821	2.9164441e-06
61	0x37841030	1.5743164e-05
62	0x36e2fd59	6.7648184e-06
63	0x36dc0afa	6.5577888e-06
64	0x355c325c	8.202967e-07
65	0x3585c748	9.967271e-07
66	0x37617318	1.3437842e-05
67	0x36928088	4.366102e-06
68	0x35e69e26	1.7182363e-06
69	0x35778603	9.2209683e-07
70	0x3797eb66	1.8110219e-05
71	0x372c1e3e	1.025904e-05
72	0x374d2cbf	1.222937e-05
73	0x36170362	2.2502722e-06
74	0x382cb9ce	4.118104e-05
75	0x36956a7e	4.4529434e-06
76	0x363c0419	2.8016568e-06
77	0x358ff353	1.0725147e-06
78	0x376bfb98	1.406567e-05
79	0x35d50278	1.5870455e-06
80	0x35e02c16	1.6702131e-06
81	0x3504587b	4.930259e-07
82	0x373d8a7d	1.1297522e-05
83	0x37822c12	1.551773e-05
84	0x379426bc	1.7661012e-05
85	0x35341408	6.7084375e-07
86	0x3707e8c5	8.100823e-06
87	0x35c29970	1.4498783e-06
88	0x37168d4d	8.973596e-06
89	0x35eed3e0	1.7794046e-06
90	0x368dc674	4.2252304e-06
91	0x37a83239	2.0050547e-05
92	0x36817c21	3.85895e-06
93	0x357a8e7b	9.3339594e-07
94	0x37a4306b	1.957287e-05
95	0x364aacf3	3.0201015e-06
96	0x369841f8	4.537633e-06
97	0x3601cd4d	1.9341999e-06
98	0x365c6d0c	3.2846028e-06
99	0x373f1d6f	1.139134e-05
100	0x36ca6be2	6.0326283e-06
101	0x36cb782c	6.0638613e-06
102	0x37086606	8.129986e-06
103	0x35adff29	1.2963766e-06
104	0x373172e2	1.057677e-05
105	0x3677e041	3.69364e-06
106	0x378ca7f9	1.6767519e-05
107	0x37abeac6	2.0494113e-05
108	0x378055b8	1.5298705e-05
109	0x36728708	3.6139409e-06
110	0x373084e3	1.0521358e-05
111	0x3701d7dc	7.739258e-06
