Cross_Domain/GDN/checkpoints/graph_deviation_network.pth (torch, 68407 bytes, 40 tensors)

embedding.weight f4 [51, 64]
000000 4a 80 4c bd 9a e9 64 bc 51 65 84 bd 2e 96 12 3e
       -0.049927033 -0.013971711 -0.06464637 0.14315102
000010 4c 33 39 bd db 0b 51 bd 4b aa 20 be f5 7e c9 3d
       -0.045214936 -0.051036697 -0.15689962 0.09838668
000020 cb c6 c7 3d 27 9e 90 3d ec d5 07 3e c3 c3 74 be
       0.097547136 0.07061415 0.13265198 -0.23902802
000030 bd 58 c3 3d f6 b6 4e bd f8 61 6e bd a3 05 15 3d
       0.0953841 -0.050467454 -0.0581989 0.03638233
000040 d2 eb 5f 3d 39 e7 45 3d 58 57 12 3e 54 be cc 3d
       0.054668255 0.048316214 0.14291131 0.0999724
000050 9b fe f1 3d 78 00 20 3e 2a 46 30 bd 54 d8 13 3e
       0.1181614 0.15625179 -0.043035664 0.14437991
000060 ca 5e 97 3d 0d ec 8c 3d 30 74 89 bd e7 91 89 3d
       0.073911265 0.068809606 -0.06711614 0.06717282
000070 cc 31 1a 3e 46 4a 19 be a9 38 dc 3d d0 40 b6 3d
       0.15058059 -0.1496974 0.107529946 0.08899081
000080 b3 fd b0 bd 82 42 f9 3d e5 1d 33 3d 03 6f e0 bd
       -0.08642139 0.121708885 0.04372968 -0.10958674
000090 17 a9 bc 3d b7 4e c8 3d 79 66 3a bd 1c 08 e9 bd
       0.09211939 0.09780639 -0.04550788 -0.113785
0000a0 b0 e7 22 bd 11 af a6 3d bc 4c 92 bd bd 82 dc bd
       -0.039771736 0.0813886 -0.07143542 -0.10767124
0000b0 48 44 8e 3d 7b ec 53 bd aa 80 21 be f9 14 77 bd
       0.06946617 -0.051739197 -0.15771738 -0.060322735
0000c0 50 5c f8 3d 55 19 69 bd dc ba ec 3d b1 cf 85 bd
       0.12126982 -0.056908924 0.11559078 -0.065337546
0000d0 78 3d b6 bd 75 b7 3a bd 9e c1 6e 3d 34 15 93 3d
       -0.08898443 -0.045585115 0.058290116 0.071817786
0000e0 ca 7b 7d ba 06 c8 c5 bc 47 ec 77 bd 35 59 63 3d
       -0.000966963 -0.02414323 -0.060528066 0.055504996
0000f0 a1 20 a9 3d ba ac 6b 3d d9 d1 ad bd 52 76 2e be
       0.082581766 0.05753777 -0.08487291 -0.17037323
000100 87 0a 52 3d 4c 4c 9a 3d 7a 60 29 bd 72 e7 13 3c
       0.05127957 0.07534084 -0.041351773 0.009027349
000110 4d 1a c7 bc 85 09 c1 bd 8c a4 ca bd d9 f2 cc 3c
       -0.024304533 -0.09425644 -0.09894666 0.025018143
000120 c3 16 b3 bc 1b be 7c be 64 85 d0 bd 48 22 80 be
       -0.02186144 -0.24681894 -0.10181692 -0.25026155
000130 32 28 50 bd be 40 7e bc e0 01 00 bc 18 38 d0 bd
       -0.050819583 -0.015518365 -0.007812947 -0.10166949
000140 23 27 ff bc 8f e6 d9 bb e3 71 fc bd f9 cc 39 bd
       -0.031146592 -0.006649799 -0.1232641 -0.045361493
000150 20 74 32 bd 56 ff 9f be 77 49 22 3d 4f cd 50 be
       -0.043567777 -0.31249493 0.039620843 -0.20390819
000160 f9 ce 44 bc c2 a6 1f bd 54 b0 49 bc 28 8e eb bb
       -0.012012237 -0.038977392 -0.012310106 -0.007188577
000170 d6 90 6f bd 86 b8 1f bd 2d 7d 82 bd 40 cc b5 bd
       -0.058487736 -0.038994335 -0.06371532 -0.08876848
000180 ea 24 be bd 46 90 7a be ef 6c 45 be 9e c3 6b be
       -0.092843845 -0.24469098 -0.19279836 -0.23023841
000190 d3 45 8f be fa ed c3 bd 22 50 82 be dd 54 de bd
       -0.2798296 -0.09566875 -0.2545176 -0.1085603
0001a0 d6 0c 86 3c cc b3 04 bc 9a fe e2 bc fc 93 a6 bc
       0.016363543 -0.008099508 -0.027709294 -0.020334236
0001b0 09 ac 30 bd 83 aa 40 3d 9f c4 07 be 35 a2 67 3c
       -0.043132816 0.047037613 -0.13258599 0.014137794
0001c0 39 df 26 3d 83 47 ab bd 2d 14 ca 3d 59 64 ea bc
       0.040740225 -0.08363249 0.098671295 -0.028612303
0001d0 fa ca 99 bd db 96 0f bb 08 62 55 be 34 84 c4 bd
       -0.07509418 -0.0021909985 -0.20838177 -0.09595528
0001e0 ca ab 37 3b e2 80 bf bd 5a bd 6d 3d f1 e0 e1 bd
       0.0028025978 -0.09350754 0.058041908 -0.11029232
0001f0 ed 7a 94 bc 05 a7 4a be d6 42 af bd 49 6b a3 bb
       -0.018125022 -0.19790275 -0.0855767 -0.0049871546
000200 bd b5 3d 3e fa 7e 50 bb e8 09 b4 bd 11 5e 8e 3d
       0.18526359 -0.0031813965 -0.08790952 0.069515355
000210 b0 17 c3 3d 52 b3 b1 be 2f c6 33 bd f0 db da 3a
       0.095260024 -0.34707123 -0.043890174 0.0016697627
000220 de 24 5a 3c 28 45 a8 3d be 8f 97 3c 4b 41 bf 3d
       0.013314454 0.082163155 0.018501159 0.093386255
000230 1a 71 d9 3d 6c e5 cf be 67 88 92 bd 10 9d 08 3d
       0.106172755 -0.40604722 -0.07154923 0.03335291
000240 29 d2 64 3d 40 a1 94 bd f9 51 4d 3e c7 0d a5 bb
       0.055864487 -0.072573185 0.20050801 -0.005037043
000250 e5 65 22 3e 84 2d 80 3d 5e 67 13 be f0 11 2e 3e
       0.15859182 0.062586814 -0.143949 0.1699903
000260 03 ea 1e bd e2 7e a5 3d 4c 62 c1 bd 4d 38 2e be
       -0.03879739 0.080808416 -0.09442577 -0.17013665
000270 25 52 04 3d 51 c0 0e 3e ca ce d0 be b3 2f d6 3d
       0.0323049 0.1394055 -0.40782768 0.10458317
000280 6d d8 0a bf 43 67 10 3e 53 fe 45 bb 75 9c c6 be
       -0.5423649 0.14101891 -0.0030211404 -0.38791242
000290 32 37 d6 3d ac aa 7b 3c 11 b9 24 bd b2 c0 83 be
       0.104597464 0.015360516 -0.040215556 -0.25732952
0002a0 72 66 a9 bd 16 1b e7 3c f5 8e 8f be 2f 2a d2 bd
       -0.08271493 0.028211158 -0.28038755 -0.10261952
0002b0 4e dd 94 3d a0 40 e8 be d3 9c 91 3e 48 31 3f be
       0.07268773 -0.45361805 0.2843996 -0.18671143
0002c0 9e 55 d7 3c ac 3b 20 3d 2f a0 9f bd 1c 78 fd bd
       0.026285943 0.039119408 -0.077942245 -0.12376425
0002d0 9f 9b 94 bc 19 45 37 3d 9f 54 01 bd b8 65 9d bd
       -0.018140612 0.04474363 -0.03157484 -0.07685417
0002e0 22 2e 18 3a f9 5e 77 3d da 92 b9 bd ae 60 21 3c
       0.0005805214 0.060393307 -0.09061213 0.00984971
0002f0 3a b6 08 be 6d 5d 89 3d 9c bc 03 3e e4 37 13 bf
       -0.13350764 0.06707273 0.12864918 -0.5750716
000300 d1 7e 19 3c 75 b7 cd 3d b4 5f 4e bd c2 e1 2f bc
       0.009368614 0.10044757 -0.05038424 -0.010734977
000310 f7 2d 0b 3e a0 2c 61 bd 97 eb 40 3e 03 ad ed bd
       0.13591753 -0.0549742 0.1883987 -0.11605265
000320 2b 8b 1b 3e 28 89 5e 3e f6 99 8b bb 47 f0 2b bc
       0.15189807 0.21732008 -0.004260297 -0.010494298
000330 39 51 f0 bd 65 c0 45 3e c9 95 0c 3e d5 ff 3b bd
       -0.11734242 0.19311674 0.13729014 -0.045898277
000340 cb 03 31 be f8 25 09 bd b9 e6 09 be 6a a5 2b 3e
       -0.17286603 -0.033483475 -0.1346692 0.16762319
000350 b7 33 90 bd 70 13 6d bc f2 f8 5d bd a1 a0 ea bd
       -0.07041114 -0.014469966 -0.05419249 -0.11456419
000360 e8 80 f4 bc bc b9 4d 3e 97 6a 9c bd 06 26 39 3e
       -0.029846624 0.20090383 -0.07637518 0.18080911
000370 86 fc 65 3e 22 1b 86 bd 0d d1 97 3d e4 ca 66 3d
       0.22459611 -0.06548144 0.0741292 0.056345835
000380 6c 3c 0a be 11 a6 c8 3d 85 9e b2 3c fb ce dc bd
       -0.13499612 0.097973 0.021804104 -0.10781666
000390 08 1e 91 3e cd 2c 1c 3e 8f 76 b5 bd c0 f8 b4 3c
       0.28343225 0.15251465 -0.08860504 0.02209127
0003a0 0f 49 2c bd 52 cd fb 3c cf c3 d8 bd 5d c1 dc bd
       -0.04206186 0.030737553 -0.105842225 -0.107790686
0003b0 b3 e9 94 3d 26 a0 85 bd 9e e6 12 be da 57 9b bd
       0.07271137 -0.065246865 -0.14345786 -0.07585116
0003c0 6d 43 25 3e b1 1f fb 3d 70 43 dc bd 0c a3 55 bd
       0.16139002 0.12261904 -0.1075505 -0.052157447
0003d0 30 a3 15 3e 60 d7 f8 3d 3b cc 9c bd 10 ac e8 3d
       0.14613032 0.121504545 -0.07656141 0.11360943
0003e0 de bf 71 bd c0 9f 39 bd 2a a9 75 bd da 48 0e 3e
       -0.05902087 -0.045318365 -0.05997578 0.13894978
0003f0 20 8f 9c bd a9 51 1f 3e e7 30 84 bd 8f dd ae 3d
       -0.076444864 0.15558495 -0.0645464 0.08538353

bn_outlayer_in.weight f4 [64]
000000 fc a1 74 3f f9 5e 66 3f cf c5 72 3f 39 89 75 3f
       0.9555967 0.89988667 0.9483308 0.9591251
000010 2e 68 71 3f 71 88 73 3f c8 74 77 3f c7 30 73 3f
       0.9429959 0.9513007 0.9666257 0.94996303
000020 f8 15 6f 3f 06 f9 76 3f d7 99 75 3f df 2a 82 3f
       0.93392897 0.9647373 0.95937866 1.0169333
000030 b1 44 76 3f 10 b5 75 3f 86 7d 70 3f 44 73 79 3f
       0.96198565 0.95979404 0.93941534 0.97441506
000040 82 d0 74 3f 20 ba 70 3f e2 c3 74 3f 22 bc 74 3f
       0.9563066 0.94034004 0.95611393 0.9559957
000050 c8 24 7d 3f f4 41 81 3f 87 92 76 3f 2b 14 77 3f
       0.9888425 1.0098252 0.96317333 0.9651515
000060 f3 1d 74 3f 56 e1 77 3f 9a fa 74 3f 5e 4b 75 3f
       0.953582 0.9682821 0.9569489 0.95818126
000070 c5 70 77 3f 3b 7b 75 3f e9 74 71 3f 9e 76 74 3f
       0.9665645 0.9589116 0.94319016 0.95493495
000080 9d e3 80 3f 49 4f 73 3f a0 ae 60 3f 2d e4 6e 3f
       1.0069462 0.95042855 0.87766457 0.9331692
000090 a9 4e 79 3f 40 6b 74 3f f1 ca 74 3f b5 a8 77 3f
       0.9738565 0.9547615 0.95622164 0.967418
0000a0 32 4f 73 3f da 3e 6e 3f 84 f6 86 3f 1a 3f 74 3f
       0.9504272 0.93064654 1.0543981 0.95408785
0000b0 4a fb 78 3f 62 1f 7e 3f 7e f9 82 3f 66 5e 74 3f
       0.97258437 0.99266636 1.0232389 0.9545654
0000c0 1b 90 70 3f cb bc 7e 3f 4d 6e 75 3f 89 a8 70 3f
       0.9396989 0.99506825 0.9587143 0.94007164
0000d0 61 0e 70 3f 2e 3e 6e 3f 57 c9 6e 3f 43 4c 76 3f
       0.9377194 0.9306363 0.9327597 0.96210116
0000e0 bf de 6b 3f 2b 6e 72 3f ba 53 7f 3f 57 ae 73 3f
       0.9213676 0.9469935 0.9973713 0.95187896
0000f0 9f a7 70 3f cb 88 76 3f f4 35 83 3f 7a 93 6f 3f
       0.9400577 0.9630248 1.025084 0.93584406

bn_outlayer_in.bias f4 [64]
000000 a1 9c 2a bd 11 b6 3d bd 6a 60 32 bd ce 50 5e bd
       -0.04165328 -0.04631621 -0.04354898 -0.05427628
000010 42 cb 53 bd eb 37 4f bd 9a b1 0e 3d c5 b4 c3 bd
       -0.051707514 -0.050590437 0.034837343 -0.095559634
000020 dd 99 a4 bd 54 d7 db 3d 3e ff 25 bd a6 ad 59 bd
       -0.080371596 0.1073443 -0.04052662 -0.05314412
000030 37 70 9e bc d7 25 6a bd 96 88 aa bc 2e 79 37 bd
       -0.019340618 -0.057164993 -0.020817082 -0.0447933
000040 f4 0e 18 bc 08 cc 47 bd b9 55 25 bc 91 1a ad bd
       -0.009280909 -0.048778564 -0.010091239 -0.08452333
000050 44 84 0a bd 58 2a 16 be e0 28 6f bd 14 18 f2 bd
       -0.033817545 -0.1466459 -0.05838859 -0.11820999
000060 21 ea 3e bd 51 cc 13 3c aa fd 84 bd 87 9c 34 bd
       -0.04661 0.009020881 -0.06493695 -0.04409459
000070 cd 3f 3c bd 6b 64 bb bd c3 77 a6 bd f1 b5 87 bb
       -0.045959283 -0.091500126 -0.081283115 -0.004141562
000080 cd 24 8f bd 02 2f bd bc cc fa 1b be 22 a3 22 be
       -0.06989441 -0.023093704 -0.1523239 -0.15882543
000090 c4 a5 e7 3d bb 94 c2 bd 23 28 dc bd 1d a3 24 be
       0.11310914 -0.09501024 -0.10749843 -0.16077848
0000a0 90 bf 4b bd a8 cc 1a be 5f e6 02 be 3a 26 77 bd
       -0.049743235 -0.15117133 -0.12783192 -0.06033919
0000b0 0b b1 f1 bc 65 e6 f2 bc 57 c2 b8 bd 8f fb 22 bd
       -0.029503366 -0.029650876 -0.090214424 -0.039790686
0000c0 1a f7 fa bd 95 6f 89 3b 6c 10 ac bd d6 24 81 bc
       -0.12254162 0.00419421 -0.0840157 -0.015764635
0000d0 35 43 07 bd 50 c1 10 bd 00 2f ee bd 5a 96 1a bd
       -0.033023078 -0.035340607 -0.11630058 -0.037741043
0000e0 2c 87 39 be d0 5f ac 3c 1b ae 3c bc 18 d2 db bd
       -0.1811797 0.02104178 -0.011516119 -0.107334316
0000f0 1e be 49 bd 75 be 16 bc d9 61 48 bd ff 6d 6b bd
       -0.049253576 -0.009200682 -0.04892144 -0.057477947

bn_outlayer_in.running_mean f4 [64]
000000 f2 67 05 3d e6 44 1c 3a 3b 11 27 bd 19 2f 0d 3b
       0.032569833 0.00059611944 -0.040787917 0.0021542965
000010 30 99 fa bb a7 29 05 bc 28 9e 49 bb 2f ab 8a 3a
       -0.007647656 -0.0081276065 -0.0030764434 0.0010579581
000020 53 cf f0 39 50 e5 02 3c 8c c2 4f 3c ed ba cb bc
       0.00045930836 0.007989243 0.012680661 -0.024869407
000030 de 24 4f bc d2 14 9b ba 54 52 19 36 67 97 53 ba
       -0.012643067 -0.0011831766 2.2846698e-06 -0.0008071572
000040 23 fa 8d 39 d3 1f 77 39 20 fa 60 bc 10 b7 a8 3a
       0.00027079982 0.00023567611 -0.013731509 0.001287194
000050 a3 f0 78 bc 71 d7 94 3a e2 54 f2 bb cc 22 8f bb
       -0.015194091 0.001135571 -0.0073953727 -0.004368162
000060 9c 05 b1 ba 87 8c e2 3a e5 fc 06 bc d3 85 a9 ba
       -0.00135057 0.0017284312 -0.008239006 -0.001293356
000070 14 4a d7 3b 94 77 42 bc c2 7c 45 bc 24 63 fc bb
       0.00657011 -0.01186933 -0.01205367 -0.007702248
000080 3b 15 38 bc 92 c8 1f bc fe 17 c4 b8 53 88 f6 bc
       -0.0112355305 -0.0097524095 -9.350477e-05 -0.030094301
000090 0e c1 3f 3c e4 01 d1 39 f4 26 40 bc 87 b5 a8 bc
       0.011703743 0.00039864995 -0.011728037 -0.020594371
0000a0 1f e0 d0 bc d0 f9 34 3a bc c4 c1 bc 00 ff 44 bc
       -0.025497494 0.000690368 -0.02365338 -0.012023687
0000b0 10 5d 3c bc eb 83 1b bc a7 51 cb bb cd 92 57 bc
       -0.011496797 -0.009491901 -0.006204802 -0.013157559
0000c0 67 d2 80 3a 32 82 44 bb c6 9a 10 3b d3 3a 17 bd
       0.000982833 -0.002998483 0.0022064908 -0.036921334
0000d0 e5 49 a5 ba 39 c4 8f ba 56 52 5f bb 70 a7 d7 bb
       -0.0012610523 -0.0010968513 -0.0034076176 -0.0065812394
0000e0 f6 6d 11 bb 26 da 22 3b b0 4d 2e bd ce 85 20 38
       -0.0022190786 0.0024849265 -0.042554557 3.8271588e-05
0000f0 2a a6 d9 ba c3 2f 1c 3a c7 86 c4 ba 26 27 37 bd
       -0.0016605307 0.0005958045 -0.001499378 -0.04471507

bn_outlayer_in.running_var f4 [64]
000000 9f 3c 83 3b 6f 78 f9 3a 97 96 a5 3b 9b 56 4d 39
       0.0040050293 0.0019033084 0.005053352 0.00019582587
000010 08 0a 9f 3a ec bd 6e 39 53 f3 a6 39 0e 0c 00 38
       0.0012133727 0.000227682 0.00031843278 3.0528805e-05
000020 3d c1 78 37 94 1d 46 3b f7 c1 3d 3b b4 87 43 3b
       1.4826944e-05 0.0030230032 0.0028954723 0.0029835524
000030 f3 3f 87 3a 82 4b 55 3a 84 56 19 3a 1a 3a 4e 3a
       0.0010318741 0.0008136557 0.00058493786 0.0007866934
000040 64 da ed 3a da cc ff 39 6a 22 3a 3b fc 35 dc 37
       0.001814675 0.00048790016 0.002840186 2.6251182e-05
000050 9d e3 51 3b 57 0a 87 38 2d 09 71 39 21 5a 0b 3c
       0.0032026537 6.4392276e-05 0.00022986969 0.008505375
000060 d1 2a cd 38 50 4a 62 3b a7 02 70 39 f9 bb 71 3a
       9.783137e-05 0.0034529157 0.00022889172 0.00092214305
000070 ed 0e ab 39 2b f2 ea 3a 5f db 6f 3a dc f7 44 3a
       0.00032626782 0.0017924955 0.00091498153 0.00075137406
000080 44 5e e3 39 ce 13 59 3a 7a 5e 9a 38 cc 06 af 3b
       0.00043367047 0.0008280844 7.36089e-05 0.0053413864
000090 e5 ed c1 3b 90 93 24 38 30 3f bd 39 8b 70 28 3b
       0.005918252 3.9238075e-05 0.00036095968 0.0025701846
0000a0 06 64 28 3b 58 a1 5c 3a 3b de b6 3a 1a a7 1c 3a
       0.0025694384 0.0008416376 0.0013951728 0.0005975828
0000b0 c2 8d 3c 3a 45 f9 8d 39 05 1f 10 39 b0 7c 0a 3a
       0.00071927544 0.00027079336 0.00013744466 0.0005282862
0000c0 a4 64 35 38 df 58 49 3b c3 eb d3 37 ed fb 78 3b
       4.324749e-05 0.0030723137 2.5262945e-05 0.0037991956
0000d0 ee 53 68 3a d0 69 9f 3a c9 68 49 3a 65 a5 07 3a
       0.0008862604 0.0012162272 0.00076831557 0.0005174487
0000e0 58 d5 9a 3b 65 7c 51 3a 76 67 bd 3b fa f3 cd 37
       0.0047251396 0.00079912535 0.005780156 2.4551515e-05
0000f0 96 34 ee 39 03 7f 0b 3b 62 2b 0f 37 19 cf 94 3c
       0.00045434077 0.0021285422 8.533565e-06 0.018165158

gnn_layer.gnn.att_i f4 [1, 1, 64]
000000 2e 80 8b be 3b 67 ed bc 57 e1 3d 3f e0 9b 23 bf
       -0.2724623 -0.028979888 0.74171966 -0.6390972
000010 30 08 82 3e e2 f5 01 3f be 75 9d bf 87 fb 8d 3f
       0.25396872 0.5076581 -1.2301557 1.1092385
000020 3b a5 fb 3e 3a 83 ad be ba d1 b1 3e cb 22 0c be
       0.49149498 -0.3388918 0.3473032 -0.13685147
000030 21 c4 ea bd e4 2c 84 be 54 3b 76 bf c7 9f 8c bf
       -0.1146319 -0.258155 -0.9618428 -1.098626
000040 44 ae 0b 3c 28 36 35 bf 7f ce b1 be 08 ef 7e 3e
       0.008525435 -0.7078576 -0.34727857 0.2489587
000050 89 31 3c 3e 1c 79 3d 3e 4c 65 22 3f 61 c2 88 3e
       0.18378271 0.18503231 0.63435817 0.267108
000060 a0 82 0f 3f 4d 25 6f 3f 92 28 d8 3f ff 2b 1c 3e
       0.5605869 0.9341629 1.6887381 0.15251158
000070 b1 7f af 3d ce a0 34 3f fe d7 c6 be 23 2a 00 bf
       0.08569277 0.7055787 -0.38836664 -0.50064296
000080 f9 fc 12 bf 32 72 05 be 4f bd ab bf a8 d1 1d bf
       -0.57417256 -0.13031843 -1.3417147 -0.61648035
000090 8c af 8d bf 9a d2 83 3e 61 83 5d be c0 1c 93 bf
       -1.1069198 0.25746614 -0.21632148 -1.1493149
0000a0 83 d9 e9 3d 30 5e 8b be 7c 8a 7a 3f d3 c8 6e 3f
       0.1141844 -0.27220297 0.9786756 0.93275183
0000b0 d4 f0 31 bf 39 3f 86 3e 98 8e 1b 3f 96 3c 61 be
       -0.695081 0.2622011 0.60764456 -0.21995768
0000c0 57 d4 1c bd e5 33 8a be 21 2f ef 3e 85 0d 1d bf
       -0.03828844 -0.26992717 0.46715644 -0.61348754
0000d0 09 26 a7 3d f2 de 44 be bc bc 0f bf 89 52 f0 be
       0.081615515 -0.19225672 -0.5614736 -0.4693797
0000e0 81 6a 01 bf ed f8 f6 bc 55 c3 9e 3e 34 c7 ed 3e
       -0.5055314 -0.030147994 0.31008402 0.46441042
0000f0 2b b7 4b bf 76 c3 3e 3f 83 02 f1 3e 1e 48 1a bf
       -0.7957637 0.74517 0.4707223 -0.6026629

gnn_layer.gnn.att_j f4 [1, 1, 64]
000000 bb 6d b4 bc 65 70 97 3d f3 a2 08 3e 12 5c db 3b
       -0.02202498 0.073944844 0.1334341 0.0066943252
000010 dc bc 8f be 38 15 29 be 4f 60 7b 3e c1 06 08 be
       -0.28073776 -0.16512 0.24548458 -0.13283826
000020 75 eb 87 3e 11 52 40 be 59 7f 9d 3d 74 59 77 be
       0.26546827 -0.18781306 0.07690305 -0.24155217
000030 64 5f ac be 92 e4 2f 3e fb 9d 9c be 1d 33 d9 3d
       -0.33666527 0.17177036 -0.3058928 0.10605452
000040 39 15 c5 be 79 62 16 bd c6 fc a1 be ac dc 5c be
       -0.38492754 -0.036715005 -0.31638163 -0.21568555
000050 bf 04 9d be 03 c7 b3 bd 9e 0f eb 3d e5 9d 34 be
       -0.30667683 -0.08778193 0.11477588 -0.17638357
000060 fe 59 3b 3d 27 26 0e 3e 4c d4 5b 3d 52 2f 80 3e
       0.04574012 0.13881741 0.05366926 0.25036103
000070 10 f5 98 3e 9b b4 f5 bd 8c 24 eb bd 38 21 72 3e
       0.29874468 -0.119973384 -0.1148158 0.23645484
000080 27 d1 8f 3e 67 65 e0 bd 09 fe 77 3e 32 76 a9 be
       0.28089258 -0.10956841 0.24218 -0.33097988
000090 bf 5a 3c 3e 01 9f 6b 3e 93 11 ab be f7 f8 92 be
       0.18393992 0.23009874 -0.33411846 -0.2870557
0000a0 27 cd a6 3e 8b ec 7b 3e 42 84 aa 3e 82 03 30 be
       0.32578394 0.24601953 0.3330403 -0.17188838
0000b0 a8 17 bb 3d 5e 1b 42 3e 41 50 7a bc 67 e9 e7 3e
       0.091353714 0.18955752 -0.015277923 0.4529526
0000c0 2c 46 7c 3e a0 bf 6a 3d 93 36 7a 3e d3 50 7b be
       0.24636143 0.057311654 0.24434881 -0.2454255
0000d0 d7 d4 59 be 73 4d 8f 3a 0c 38 c0 3c 5c a6 2e be
       -0.21272598 0.0010933116 0.023464225 -0.17055649
0000e0 1c c0 83 3d dc dc 70 3d 10 57 6b 3d de 73 56 3e
       0.06433126 0.058804378 0.057456076 0.20942637
0000f0 79 93 e1 bd 98 23 8f be d2 2d ac 3d f2 e2 0a be
       -0.11014456 -0.27956843 0.08407177 -0.13563135

gnn_layer.gnn.att_em_i f4 [1, 1, 64]
000000 aa 1b 2c 3e dd 1d 63 be 90 3b 82 be 1a 80 01 3f
       0.16807428 -0.2217936 -0.25436068 0.5058609
000010 0d aa 8f be c0 0d 69 bf 9a f9 88 3d be 26 07 be
       -0.28059426 -0.91036606 0.06688233 -0.13198373
000020 71 de 87 3e 2c 45 2e 3f ce cf 01 3f 26 93 7c be
       0.26536897 0.680743 0.5070771 -0.24665508
000030 1d 14 8f be e0 7d c8 be 4d 88 4f be bf a4 01 3f
       -0.27945033 -0.39158535 -0.20266838 0.5064201
000040 9b b3 fc bc 50 4a ac be bc bc 2f 3f 11 34 24 bd
       -0.030847361 -0.33650446 0.6864736 -0.040088717
000050 b1 3b 0f 3f 26 6c 13 3f 11 5a 19 bf 45 e5 d8 3e
       0.55950457 0.57586896 -0.59903055 0.4236242
000060 5b 10 9c bc f7 a7 b4 be ba 77 c6 be 3c 0c ef be
       -0.019050768 -0.35284397 -0.3876322 -0.46689022
000070 1c bf 0a 3f 1c b2 9d 3e 5d 28 97 be 49 d2 0a 3e
       0.5419786 0.3079995 -0.29522982 0.1355678
000080 ac 07 b6 be 31 e1 9c 3e e4 f5 cf 3e 93 cd 36 bf
       -0.35552728 0.30640557 0.40617287 -0.7140743
000090 7b db 54 3f 9f 45 59 3e cb 9e be bd fd a6 2d bc
       0.831474 0.21217965 -0.09307631 -0.010598895
0000a0 90 e9 8a be fc 7b bb 3e 20 cb 2f bf c4 a2 64 bf
       -0.2713132 0.3661803 -0.6866932 -0.8931086
0000b0 a7 6e c3 bd 1c c4 1b bf 79 1d af be cf be cc be
       -0.0954259 -0.60846114 -0.34202173 -0.39989325
0000c0 0c aa 22 3f 10 2b 19 be 37 6d 1b 3c bb 94 97 be
       0.6354072 -0.14957833 0.009486488 -0.2960566
0000d0 1e 10 b3 bd 61 72 9c 3c 4d fd 55 be 3d 9b 54 be
       -0.087433085 0.019097509 -0.20897408 -0.20762344
0000e0 19 ff f5 3d 7f c3 dd 3e ad 17 a8 be 0b 32 00 be
       0.12011547 0.43313214 -0.32830563 -0.1251909
0000f0 ed 79 0c bf 8a 76 fc 3e 72 98 11 bf 8b 99 1b bf
       -0.54873544 0.49309188 -0.5687324 -0.6078116

gnn_layer.gnn.att_em_j f4 [1, 1, 64]
000000 3e f0 e9 3e 84 e7 a7 3e fe 4e d8 be aa 53 5e be
       0.45691103 0.3279382 -0.42247766 -0.21711603
000010 c9 f5 e2 be ca 93 03 bf 4d 8c 6b 3f 09 ae 87 3e
       -0.44328144 -0.51397383 0.92010957 0.26499966
000020 f6 52 8d 3e 38 2b 31 3f 6e a8 77 3e c4 32 87 be
       0.27602357 0.6920657 0.24185345 -0.2640592
000030 b4 d0 0c bf 64 d9 de be d8 49 31 3d d2 ad 7b be
       -0.55005956 -0.4352523 0.043283314 -0.24578026
000040 25 62 12 3f ed e2 e6 3e c8 5d 12 bf 04 9c c0 3e
       0.57181007 0.45095006 -0.5717435 0.3761903
000050 6a 22 b9 be fa 10 4f bf f2 0e f5 be f5 2c 3b bf
       -0.36159068 -0.8088528 -0.47862965 -0.73115474
000060 48 42 d7 3e 0e d9 16 3f 2c 09 2c 3e ab 36 c8 be
       0.42042756 0.5892495 0.16800374 -0.39104208
000070 c0 16 d6 3e e8 b7 f4 be 75 5a f6 be e1 29 a5 be
       0.41814232 -0.4779656 -0.48115888 -0.32258514
000080 e9 17 4f bf e3 b4 f5 be de 71 26 3f 56 46 ea 3e
       -0.8089586 -0.47989568 0.650175 0.45756787
000090 45 be 23 3f 7d f1 9f 3d 8f 41 85 be 6a e5 22 bf
       0.63962203 0.07809732 -0.2602658 -0.6363131
0000a0 1f e9 7f be c1 5c 60 be 83 09 23 bf 05 46 f6 3e
       -0.24991272 -0.21910383 -0.6368639 0.48100296
0000b0 75 af d4 be 82 c6 fa be f5 4f 80 bf 86 4c d9 be
       -0.41540113 -0.48979574 -1.0024401 -0.42441195
0000c0 7a eb cb bd fe 7d 3a 3f b0 d9 16 3f d6 62 dc be
       -0.09957023 0.728485 0.58925915 -0.43044156
0000d0 d9 b7 7f be b3 d2 d8 bd 7a 0e d7 be 4b 55 eb be
       -0.24972476 -0.10587063 -0.42003232 -0.4596351
0000e0 c0 37 ac be 88 48 a7 3e aa f4 02 bf 35 36 6d be
       -0.33636284 0.32672524 -0.5115458 -0.2316521
0000f0 37 bc 9c be 72 9d de 3e 56 26 18 bf 0f 56 f5 3e
       -0.30612347 0.43479496 -0.59433496 0.4791722

gnn_layer.gnn.bias f4 [64]
000000 8e 07 8c b8 48 b3 2d 3c 15 a1 18 bc 74 fe 33 3c
       -6.6771274e-05 0.010601826 -0.009315749 0.010985959
000010 6c 10 fe bb cf 0c 79 b8 82 0b 30 3a 23 bc cf 3c
       -0.0077534225 -5.9378155e-05 0.0006715582 0.025358265
000020 5e d3 7f 3c 8c ae c9 bc 09 7a 9b b8 8b 26 0a 3c
       0.015614359 -0.024619363 -7.413707e-05 0.008432041
000030 86 1c 00 bd f3 df 0c 3b bd 99 14 bd 96 36 97 bc
       -0.031277202 0.0021495789 -0.03627943 -0.018458646
000040 d5 64 58 ba 47 b7 fc b9 f4 9e b9 bc 7c b3 9a 3c
       -0.0008254771 -0.00048201738 -0.022658803 0.018884413
000050 49 b1 95 bc db 2e 91 3c 6b cb a7 ba fb 50 aa 39
       -0.018273013 0.017722538 -0.0012801712 0.00032485262
000060 af 44 98 3b 6e ce a8 bb 38 d3 50 bc 49 5d 54 bc
       0.0046468596 -0.0051515615 -0.012745671 -0.012961694
000070 78 ae 04 3c 04 c6 86 bc cb 8f 6d bc 56 62 f0 bc
       0.008098237 -0.016451843 -0.014499615 -0.029343765
000080 6f f5 e3 3b dd 0d b9 bc 79 2c c1 3b 3a 81 34 bb
       0.006956748 -0.022589618 0.005895194 -0.0027542845
000090 3b 66 80 bb cd de 0f 3c d6 44 ec 39 64 36 a2 bc
       -0.003918437 0.008781147 0.00045064715 -0.019801326
0000a0 7b 17 c3 bb b3 f7 92 ba 2b a7 0a bc 05 70 de 3b
       -0.005953727 -0.0011212736 -0.0084627075 0.006788256
0000b0 c2 af 7d bc 04 6f 9a 3b a6 d8 8f 3b 1e 87 25 bb
       -0.015483798 0.004712941 0.00438984 -0.0025257538
0000c0 c5 30 a2 3b e4 60 04 bd d5 1c 1d 3b 3c 92 1d 3a
       0.0049496614 -0.032318965 0.0023973484 0.00060108653
0000d0 41 0c 42 bc 83 ce 3c bd 1d c1 d2 bc a6 9b 26 bc
       -0.011843742 -0.046095382 -0.02572685 -0.010168945
0000e0 c4 1d a8 3b e7 ab fd 3a a7 97 1a bc 08 5d 1e 3d
       0.0051305015 0.0019353599 -0.009435571 0.03866294
0000f0 0d 75 87 bc 2e f1 23 bc e8 1b aa 3b f2 0e 9e 3b
       -0.016535306 -0.010006232 0.005191315 0.004823559

gnn_layer.gnn.lin.weight f4 [64, 5]
000000 cb 10 85 be 53 59 74 be fd 51 10 3e 90 36 42 be
       -0.25989375 -0.238622 0.14093776 -0.18966126
000010 49 99 88 3e 15 2f 87 bd 03 9f c7 3d 37 5c 82 bd
       0.26679447 -0.06600777 0.09747126 -0.06365245
000020 b9 c6 d1 3d a5 95 0e 3d 87 28 29 3d b7 fc b6 bd
       0.102429815 0.03481068 0.041298416 -0.0893492
000030 e1 cc 54 be 90 97 e5 3a c9 7a 3a bf 62 8a 85 be
       -0.2078128 0.0017516483 -0.72843605 -0.2608214
000040 58 cc cd be 85 c2 cd bd 69 fc 4e be 32 95 e7 3e
       -0.40194964 -0.10046867 -0.20213474 0.45231014
000050 e8 1a 8d 3e 39 28 05 3e d4 8f 92 3e 26 b0 59 3e
       0.2755959 0.13003625 0.28625357 0.21258602
000060 8a d1 8f be da 9a e2 3c d8 e7 59 3b 3e 23 55 bd
       -0.28089553 0.02766173 0.0033249762 -0.052035563
000070 cb f1 1f 3e 85 ec 6b be e8 3f 1f be 77 96 cb bc
       0.1561958 -0.23039444 -0.15551722 -0.02485202
000080 61 15 75 be 8c a0 3e 3e 10 be 87 3e 3c db 4e 3e
       -0.23933937 0.18615931 0.26512194 0.20200819
000090 5b 1e ab bd e8 63 a0 3d 0a 1f ec bc e3 7e a7 be
       -0.08355399 0.078315556 -0.028823394 -0.32713994
0000a0 6d 35 07 3e 5f 62 5d be be 5e f2 bd 79 b9 1b be
       0.13203974 -0.21619557 -0.11834477 -0.15207471
0000b0 e3 bc 01 bf 8e fc b6 3d 12 0a ac 3d b0 38 c4 3b
       -0.50678843 0.0893489 0.08400358 0.005988203
0000c0 04 8a 83 3e 33 38 9e 3e c3 c3 ad bd 31 d8 10 be
       0.25691235 0.30902252 -0.08484604 -0.1414497
0000d0 65 88 1c be 78 08 f5 bd b4 51 6a bf cc 4d 20 be
       -0.15286405 -0.11964506 -0.9153092 -0.15654677
0000e0 f8 70 fd bc f0 41 78 bd 49 7c 3f be 34 34 e0 3d
       -0.030937657 -0.060609758 -0.18699755 0.10947457
0000f0 2f 5c 90 3e d0 ad 2f be fc d2 1d 3e 24 80 d7 bd
       0.2819533 -0.17156148 0.15412515 -0.10522488
000100 ce a4 6f 3b bc d6 77 3e e1 9c 43 3c 2d d7 8c be
       0.0036566737 0.24203008 0.011939258 -0.27507916
000110 f8 2e 7d 3e 2a f8 6e 3d 47 84 0e be 49 4d 30 be
       0.24724948 0.058342136 -0.13917647 -0.17216982
000120 fb 9f 74 3e 34 33 73 3b cd 95 b9 3e 04 40 27 3e
       0.23889153 0.0037109377 0.362471 0.16333014
000130 78 53 a0 bd 0b f9 d7 bd 24 ff 79 be 4a ee 9e 3e
       -0.078284204 -0.10545548 -0.24413735 0.31041175
000140 ae 10 7e bc 19 65 8f 3e a8 19 0f 3e 41 c6 8e 3e
       -0.015506906 0.2800682 0.13974631 0.2788563
000150 37 0d ac bd 8b 7b ee bb 9c c3 be 3d d5 42 15 bd
       -0.08400958 -0.007277911 0.09314653 -0.03644069
000160 9f 33 73 bc 9f ba 39 3f 1b f2 10 be cd fa b5 bc
       -0.01484385 0.72550386 -0.14154856 -0.022214318
000170 3b f1 1e 3e 81 97 36 3e 17 d3 c3 3e e8 c2 21 3c
       0.1552171 0.17831232 0.38246986 0.009873129
000180 25 f7 c4 3d 02 6c 00 3c 3e 64 f6 3b 6b ad 5b be
       0.096174516 0.007838251 0.007519274 -0.21452872
000190 63 2c 98 3e ee e0 78 3d 4c 77 1a 3e 5d f9 54 3e
       0.29721364 0.060761385 0.1508457 0.2079825
0001a0 cf 27 9a 3c 80 bf 28 3d 63 fd db ba ee 3e 19 be
       0.01881781 0.041198254 -0.0016783889 -0.14965412
0001b0 b5 d5 1e 3e aa 3d 52 be e7 ef 7b be 73 ac 9e 3e
       0.1551121 -0.20531335 -0.24603234 0.30990943
0001c0 ca 8c a7 3c a2 de e6 bd a8 64 5b bf cf 45 e2 bd
       0.020452876 -0.112729326 -0.85700464 -0.11048471
0001d0 82 b0 64 3e 21 74 90 bd fb 3f b2 bd 71 16 70 be
       0.22332957 -0.070534 -0.087036096 -0.2344606
0001e0 24 6c 99 3d 81 80 fe bd 57 f7 7c 3e 26 28 76 3e
       0.07491329 -0.12426854 0.24703728 0.24038753
0001f0 8c 18 c6 be 5e 4b 80 3e 5c dc 02 3d 6b ec b4 3e
       -0.38690603 0.250575 0.031948432 0.35336623
000200 36 73 80 3e b9 91 e7 be 5b b5 54 3d 21 3e de 3d
       0.250879 -0.45228365 0.051930767 0.10851694
000210 90 b4 c6 bd 93 a4 6f 3e 35 63 7e be b5 6c 94 be
       -0.09702408 0.23402624 -0.24842532 -0.28989187
000220 ef 42 33 3e 65 c0 81 3e 0d bc f4 3d c9 33 1b be
       0.17506002 0.25342098 0.1194993 -0.15156473
000230 c5 ee b8 be 6e f5 82 be 60 57 51 bd 3f 63 27 3e
       -0.36119667 -0.25577873 -0.051108718 0.16346453
000240 dc ce 04 3e a1 9f 51 3d 7e fc bf 3e 64 7f 90 3e
       0.12969536 0.051177625 0.37497324 0.2822219
000250 08 cf 48 bd 2e 86 99 be b7 5f 18 3e 4c 8a e8 3d
       -0.049025565 -0.29985183 0.14880262 0.11354503
000260 c2 45 4f 3c 74 1c 11 3e 07 bb 37 3f bf 8f 01 be
       0.012650909 0.1417101 0.71769756 -0.12652491
000270 30 b2 a9 3d b7 72 bd ba 50 d5 69 3d 44 bb 5b 3e
       0.0828594 -0.0014453743 0.057088196 0.21458155
000280 ff 2b 65 be 54 35 86 be ce 8e 85 3d 8a 8b 8d be
       -0.22380064 -0.2621256 0.065213785 -0.27645522
000290 c9 8c 79 3e 85 6a 0b be 69 21 6a 3e a5 02 de 3d
       0.24370112 -0.13614853 0.22864307 0.10840348
0002a0 fd 52 79 bd 48 e2 63 3e 78 3c 3a be 09 05 f8 3b
       -0.06087016 0.22254288 -0.1818713 0.0075689596
0002b0 57 32 1e 3e c5 43 89 3b b7 ce 32 3e 80 1e b3 3d
       0.1544889 0.004188987 0.17461668 0.08746052
0002c0 bb c9 71 bd c7 22 3a 3e db 67 1d 3e fd 26 aa 3e
       -0.059030276 0.18177329 0.15371649 0.3323287
0002d0 15 4c 48 3e ff 0a 1e be 80 bf 82 bd 39 f4 22 bd
       0.19560273 -0.15433882 -0.06384182 -0.03978369
0002e0 9a 7b f1 3e 97 c5 9d be 24 51 4c be 5a 42 c7 bd
       0.47164613 -0.30814812 -0.19952828 -0.097294524
0002f0 00 1e 96 be 26 57 d4 be f4 db 80 3e 31 f3 83 3d
       -0.29319763 -0.4147274 0.2516781 0.064428695
000300 db 25 37 be fd 45 28 3c 97 6b 54 3d 87 09 59 bd
       -0.17885534 0.010270593 0.05186042 -0.0529876
000310 9a 72 63 be 04 13 35 3e c3 83 a8 bc 64 00 df 3e
       -0.22211686 0.17683035 -0.020570641 0.43554986
000320 4f b9 a0 be 17 8f 59 be 2a ed 8c bd 88 50 8d be
       -0.3139138 -0.2124599 -0.06881173 -0.27600503
000330 bb be 95 3d 77 b1 27 3e df ba 5b 3e 2b c3 5a be
       0.073117696 0.16376291 0.21458004 -0.21363513
000340 1e fa 25 3e e5 fc 72 3e 64 6b 0e be cc 2d ee 3b
       0.16208693 0.23729284 -0.13908154 0.007268643
000350 62 b7 e9 3d 9f 83 3f 3e 36 ed b4 be 52 6c ac 3e
       0.114119306 0.18702553 -0.35337228 0.33676392
000360 d3 fe d1 bc 27 c0 30 3e 57 13 01 be 3e d0 40 be
       -0.025634205 0.172608 -0.12605034 -0.18829438
000370 80 cd 32 be 72 46 3b 3e 04 80 00 be 21 51 2f 3e
       -0.17461205 0.18288592 -0.12548834 0.17120792
000380 d9 9a 8c 3e 9d 51 5e 3d d4 ad bb bd d7 49 c2 bd
       0.2746189 0.05427705 -0.091640145 -0.0948674
000390 0e 1e 1c be 34 42 ac be f9 c2 62 3e 6b 40 15 bd
       -0.1524584 -0.3364426 0.22144689 -0.036438387
0003a0 e8 e1 f5 bd 05 67 94 be 27 63 80 be ba 56 ba be
       -0.12005979 -0.28984848 -0.25075647 -0.36394292
0003b0 66 75 50 bd d0 8c 1c 3e ec bc 4f be bd ec 02 3e
       -0.05089321 0.1528809 -0.20286912 0.12785621
0003c0 21 29 1e be 46 44 93 be 3a 2f b0 be c1 33 ba 3d
       -0.15445377 -0.28763026 -0.3441103 0.090919025
0003d0 40 06 43 be 10 63 7b bb 61 1f 85 3d 77 01 10 bb
       -0.19045353 -0.0038358606 0.06500126 -0.002197353
0003e0 c5 4e 84 be 65 30 8e 3e 6d 51 bc be 03 d7 7d be
       -0.25841346 0.27771297 -0.36780873 -0.24789052
0003f0 e0 22 1a 3e a0 3b 27 bd 97 d7 ee be cf 83 3a bd
       0.15052366 -0.040828347 -0.46648857 -0.04553586

gnn_layer.bn.weight f4 [64]
000000 e5 ce 6f 3f 65 9f 5b 3f e3 fd 78 3f 01 35 c9 3e
       0.9367507 0.8579009 0.972624 0.3929825
000010 50 21 45 3e 90 c5 cc 3e 18 c4 86 3e 46 2f b2 3e
       0.19250989 0.39994478 0.26321483 0.34801692
000020 9f 79 c0 3e d4 af b6 3e 14 33 68 3f 4a 50 4a 3e
       0.3759279 0.3568102 0.9070294 0.1975719
000030 9f 06 e6 3c bd 55 43 3e c0 45 7e 3e 4d 09 d1 3e
       0.028079329 0.19075675 0.24831295 0.40827408
000040 cc 7f 92 3e 71 bd 57 3e 0b ab e6 3c a1 01 c7 3e
       0.28613126 0.2106836 0.028157732 0.3886843
000050 d6 ba d4 bd 23 18 0b 3f 4a 94 ca 3e c3 07 52 3f
       -0.103871986 0.54333705 0.3956626 0.82043093
000060 c2 68 68 3e f0 ef ba 3e f3 e0 a2 3e ae 38 87 3e
       0.22696212 0.36511183 0.31812248 0.2641043
000070 02 48 fb 3e 0a 6c b3 bd 6a 44 50 bc df 2b a6 3b
       0.49078375 -0.08760841 -0.012711624 0.005071148
000080 4c 11 db 3e d6 e0 fe 3c b8 77 44 3e e6 49 e7 3e
       0.42786634 0.03111307 0.19186294 0.45173568
000090 45 b4 c7 3e fc 11 ca 3e 5f bc 82 3e 59 45 8a bd
       0.39004722 0.39466846 0.2553434 -0.06751508
0000a0 66 d6 4a 3f 94 4f ba 3e 5f e0 1b 3f 14 2e 75 3e
       0.79233396 0.36388838 0.6088924 0.23943359
0000b0 0e c2 97 3d 91 9a e1 3e 59 a4 c4 3e 7d 21 ea 3e
       0.0741006 0.44063237 0.38406637 0.45728675
0000c0 85 f5 a8 3e b1 01 ea 3e f0 1f c4 3e 84 e9 6e 3f
       0.32999817 0.45704415 0.38305616 0.93325067
0000d0 91 0d 63 3e 1b b3 b4 3e 5b 89 6c 3e 43 2e 06 3e
       0.22173144 0.35292897 0.23099272 0.13103585
0000e0 62 b3 33 3f ce 01 4c 3e 94 7e 2d 3f 62 93 c6 3e
       0.7019559 0.19922563 0.6777127 0.3878432
0000f0 fc a1 25 3e e2 a6 aa 3e e5 eb e0 3e c4 df 78 3f
       0.16175073 0.33330446 0.43929973 0.9721644

gnn_layer.bn.bias f4 [64]
000000 32 3f 5d 3d 2b 27 2d bd 62 17 d9 bc fc 29 41 be
       0.054015346 -0.04227368 -0.026500408 -0.18863672
000010 62 45 94 3e 39 07 45 be 5d 1e 95 be b6 f6 5b be
       0.28959185 -0.19241036 -0.29124728 -0.21480832
000020 39 8b 86 be 05 5b a2 3e e1 c5 8e 3d 2a c1 d7 3e
       -0.26278093 0.31710067 0.06971336 0.4213956
000030 30 77 73 3e 1d 7f 37 3e 75 84 77 3e c2 02 a0 3e
       0.23775935 0.17919584 0.24171622 0.31252104
000040 79 55 81 3e e7 72 46 3e 11 d4 7d 3e 84 80 76 be
       0.25260523 0.1937977 0.24787928 -0.24072462
000050 3c 59 a8 3e de 96 ce be eb da 46 be e9 70 66 3d
       0.3288058 -0.40349478 -0.19419448 0.056260023
000060 16 f2 13 be 1c 04 a6 3e 42 c1 17 3e 19 96 68 3e
       -0.14447817 0.3242501 0.14819816 0.22713508
000070 46 3d 34 be 8d 64 7c 3e fa 4b 3e 3e dc 24 8c 3e
       -0.17601499 0.24647732 0.1858367 0.2737187
000080 c0 5e 86 be b3 1b 40 3e 31 c4 08 bd be 15 51 3e
       -0.26244164 0.18760566 -0.033390228 0.2041845
000090 0e 53 b3 3e 2b 19 86 be e6 f2 73 3e bc fe 68 3e
       0.35024303 -0.26191077 0.23823127 0.22753423
0000a0 8f a4 d9 bd b0 d0 c4 bd c7 c8 85 be a2 9c 1d 3e
       -0.1062709 -0.096101165 -0.26129743 0.15391782
0000b0 ac 44 78 3e 79 d7 53 be 4f 11 8c be cc 95 45 be
       0.24244946 -0.20687665 -0.27356955 -0.19295424
0000c0 73 be 52 be 98 8c c3 3e d9 d1 79 be 05 e2 69 bd
       -0.20580463 0.38193202 -0.24396457 -0.057100315
0000d0 f3 8b 92 3e 89 b3 a1 3e e5 9b 52 3e a0 b3 6f 3e
       0.28622398 0.31582287 0.20567282 0.23408365
0000e0 92 46 47 bd 7d 30 3f 3e 24 0b d9 3d 35 74 92 be
       -0.048651285 0.1867084 0.10597828 -0.28604284
0000f0 8e 46 2d 3e c4 ad 97 3e 7b 24 b5 be db 72 79 3c
       0.16921446 0.2962476 -0.35379395 0.015225138

gnn_layer.bn.running_mean f4 [64]
000000 c4 91 8b bd 30 4b 10 3d 59 73 77 be 7a 9b e2 bd
       -0.06814912 0.035227954 -0.24165095 -0.11064811
000010 19 cf 0e 3e 24 88 b7 bc 3a ad 22 3c a5 f6 44 bc
       0.13946189 -0.022403784 0.009928996 -0.012021695
000020 26 fa 40 be a7 ef 1b 3e 82 18 ab be 5d 5f 89 bd
       -0.18845424 0.15228139 -0.33417135 -0.06707642
000030 b9 2c f2 3b 99 ff 8c 3d 6e ff 0a 3d 94 d0 05 bc
       0.0073905853 0.06884689 0.033935003 -0.008167405
000040 ac d4 10 3e 6f 72 37 3e 90 23 de 3d c6 c8 ab bb
       0.14143628 0.17914747 0.10846627 -0.00524244
000050 8e 41 1f 3e 31 7f 9c bc 85 ea 57 be b2 1e 88 bd
       0.15552351 -0.019103618 -0.21085556 -0.0664648
000060 61 22 99 3c 80 b3 c4 3d 0e b7 6f ba 2c 95 2c 3c
       0.018693151 0.096045494 -0.0009144404 0.010533612
000070 f9 b6 aa bd d0 eb 89 3d 2d f2 81 3e 95 ab c2 3c
       -0.083356805 0.06734431 0.25380078 0.023763457
000080 0b a2 cd bd 2a e1 82 3d 3b c7 32 3d 8e 4b 26 3e
       -0.10040673 0.06390603 0.043647032 0.1623976
000090 90 2c be 3d 30 67 9a be 39 1e 42 3d 4b bb 62 3d
       0.09285843 -0.3015685 0.047392104 0.055354398
0000a0 c6 63 47 be 6f 72 06 3e 57 44 56 bd 96 90 3d 3d
       -0.19471654 0.1312959 -0.052311268 0.046280466
0000b0 c7 23 7e 3d 37 60 12 be 8f a7 dc bd 5c 87 a8 bd
       0.06204584 -0.14294516 -0.10774147 -0.08228943
0000c0 35 3a 51 be 33 74 85 bc f2 60 69 be 23 f2 07 be
       -0.2043236 -0.01629076 -0.22790888 -0.13275962
0000d0 e2 cf f1 3d 57 04 50 3d 5f c7 ec 3d 02 e5 83 3d
       0.118072286 0.05078539 0.115614645 0.06440164
0000e0 4c a2 62 3e 3e 32 01 3e 32 56 9b bd 19 b4 a9 b9
       0.22132224 0.12616822 -0.075848 -0.00032368375
0000f0 d1 54 82 3e 1e 1a 8d 3d 39 8e 41 be c2 66 9b 3e
       0.25455335 0.06889747 -0.1890191 0.30351835

gnn_layer.bn.running_var f4 [64]
000000 22 a9 b8 3b f6 bd 40 3a f5 8e 85 3d 3a 11 93 3c
       0.0056353966 0.0007352525 0.065214075 0.01795255
000010 5e d5 d6 3c 28 13 1e 3a b7 69 0f 39 8a 0c e0 3a
       0.026224788 0.0006030076 0.00013676925 0.0017093581
000020 7d 08 4e 3d 39 c1 1a 3d 24 06 0a 3e b0 cd e1 3b
       0.050301064 0.037781928 0.13478905 0.006890975
000030 96 56 ed 3a 56 d4 af 3b 34 65 c4 3b b5 f6 1b 39
       0.001810747 0.0053658886 0.0059935097 0.00014873857
000040 53 71 c8 3c 04 a8 1f 3d 6c 79 aa 3c aa 1c 38 3a
       0.0244681 0.03897859 0.020809852 0.0007023314
000050 7a 68 15 3d 59 c8 da 3a ba 4b 59 3d c5 a8 b0 3b
       0.03647659 0.0016691788 0.053050734 0.0053912126
000060 55 2d 8b 39 15 97 4b 3c 44 a1 39 39 1e 5c 37 3a
       0.0002654592 0.0124261575 0.00017703051 0.00069946225
000070 73 35 26 3c 4d 0c 0c 3c b4 fa b1 3d e4 05 60 3b
       0.010144579 0.008547855 0.08690396 0.0034183199
000080 e7 79 64 3c 81 3d 14 3c 90 ce e3 3a ce e9 06 3d
       0.013945079 0.009047867 0.0017380286 0.032937817
000090 66 01 39 3c 32 0e ee 3d ec 50 2f 3b 90 9d e0 3b
       0.011291837 0.11623801 0.0026751114 0.0068547204
0000a0 eb 45 30 3d 79 55 ad 3c fe a8 18 3b c9 d2 fa 3a
       0.04303543 0.02115892 0.0023294087 0.0019136305
0000b0 72 96 ee 3b a1 c6 d7 3c b3 6c 79 3c ff f9 fb 3b
       0.007281118 0.02633983 0.01522367 0.007689714
0000c0 45 b6 58 3d 0f e8 9e 39 61 19 83 3d fc 66 b0 3c
       0.0529082 0.00030309006 0.06401325 0.021533482
0000d0 c1 f6 a6 3c 02 d8 39 3c 23 73 c5 3c 44 0f dc 3b
       0.020381333 0.011343004 0.024102753 0.006715687
0000e0 f4 21 67 3d 93 ce 98 3c 15 77 ae 3b 6f da ef 3a
       0.056428865 0.01865319 0.0053242543 0.0018299351
0000f0 00 ea b5 3d 58 77 f6 3b 9a 86 3a 3d d7 b8 dc 3d
       0.088825226 0.007521551 0.045538522 0.10777443

out_layer.mlp.0.weight f4 [1, 64]
000000 eb ec b9 bc 44 8c 29 bb 01 ab 12 3d 41 21 f4 bc
       -0.02269598 -0.0025870958 0.035807613 -0.029801013
000010 8b 88 a2 3c 84 49 24 3d 52 a3 38 3c 29 25 e6 bc
       0.0198405 0.040109172 0.011269407 -0.028093891
000020 97 79 10 bd cd b0 a6 3c 6c b8 a1 bc 01 cb 01 3d
       -0.035272207 0.020347977 -0.01974126 0.03168774
000030 2d 60 b6 3c a5 6c b2 3c 04 97 ca 3c e7 41 b5 3c
       0.022262657 0.021780321 0.024730213 0.022126151
000040 67 e9 b6 3c 1f da 9a 3c d3 5d cc 3c ed 64 f1 bc
       0.022328092 0.018902836 0.024947083 -0.02946707
000050 3b b7 02 3d fa 4c 0f bd f8 dc 3a 3d 45 84 0c bd
       0.031913023 -0.03498552 0.04562089 -0.03430583
000060 f4 45 fd bb e4 89 b1 3c af fc 12 bd 1e 06 ad 3c
       -0.0077292863 0.021672197 -0.03588551 0.021121081
000070 9a 9b bf bc b2 65 18 3d 83 39 cc 3c 8a ce b4 3c
       -0.023389626 0.03720636 0.024929767 0.022071142
000080 61 1b 09 3d c9 02 a7 3c e1 d7 a1 bc 6f 6f 6b bd
       0.033473376 0.02038707 -0.01975626 -0.05747932
000090 15 83 b2 3c 5a 14 21 bd 79 92 5a bd 33 2e 18 3d
       0.02179102 -0.03932605 -0.053362343 0.037153434
0000a0 ba 8d 2d 3d fe d1 cd bc 78 6a 09 3d 1c 61 37 bd
       0.04237149 -0.025124546 0.033548802 -0.044770345
0000b0 1c 3f a5 3c b2 4c 0b 3d 99 af 16 3d 4c 71 10 3d
       0.020171694 0.03400869 0.036788557 0.0352643
0000c0 e9 b0 0f bd 34 7b e8 3c 64 ff e5 bc 32 fc ff 3c
       -0.035080824 0.02837906 -0.028075881 0.031248186
0000d0 1c 09 ad 3c da 2f f7 3c dc 30 dc 3c e8 e9 9e 3c
       0.021122508 0.030174185 0.026878767 0.019398645
0000e0 1d 75 bd bc 76 13 b0 3c eb 64 00 3d da 5e 74 bd
       -0.023127133 0.021493655 0.031346243 -0.05966077
0000f0 b2 cf 8a 3c 69 0f ce 3c ad 16 68 3d 3c ae 99 bc
       0.01694474 0.025153833 0.05666225 -0.01875984

exp_avg f4 [51, 64]
000000 9a 66 10 b4 c6 ab d4 b5 97 95 28 b7 a7 e8 0b 38
       -1.3448371e-07 -1.5845224e-06 -1.0048409e-05 3.3356857e-05
000010 84 ce 97 b6 98 36 af b6 68 3c ce b2 58 e0 e5 37
       -4.5241923e-06 -5.221762e-06 -2.4009026e-08 2.7403396e-05
000020 53 b4 b6 37 1c 58 18 b8 52 91 e5 37 9f 44 af b6
       2.178006e-05 -3.6321682e-05 2.7366597e-05 -5.223395e-06
000030 91 fc 41 b8 64 ef 53 b6 a4 56 a6 b6 a7 9c 2a b8
       -4.6250007e-05 -3.1580794e-06 -4.957272e-06 -4.0677052e-05
000040 5d 22 23 b8 3d fc 6f b8 d9 3c cb b7 e0 00 ec 37
       -3.889423e-05 -5.7216956e-05 -2.422782e-05 2.81338e-05
000050 e1 48 30 b8 bd 3a e7 37 07 1c 61 b6 a2 0d ff 37
       -4.2029544e-05 2.7564698e-05 -3.3543927e-06 3.0404717e-05
000060 5b 3f 47 37 e8 64 a1 b7 40 e3 1e 36 c5 78 7a b8
       1.1876075e-05 -1.9239684e-05 2.3676112e-06 -5.971712e-05
000070 a1 f1 0f 38 49 8b 0f 34 4e 54 82 b8 3c 69 89 b8
       3.431889e-05 1.3368584e-07 -6.214586e-05 -6.5522705e-05
000080 a0 ed b4 b6 66 bc 68 b8 50 7d 0f 38 f7 d8 57 36
       -5.392081e-06 -5.548857e-05 3.4210563e-05 3.2163787e-06
000090 0c d3 a8 b7 70 c6 0e 38 74 7e b1 37 19 3d 8d b6
       -2.0125437e-05 3.4040248e-05 2.1158929e-05 -4.20924e-06
0000a0 c6 fa 2b b6 2f 9f d5 37 6f 57 4d b6 e1 4d d0 37
       -2.5626955e-06 2.5465704e-05 -3.0598273e-06 2.4831797e-05
0000b0 a2 79 9c b8 81 7e 03 b7 75 77 3d b6 ed 0b c3 b6
       -7.4613155e-05 -7.837662e-06 -2.8232728e-06 -5.812841e-06
0000c0 08 04 dd 37 5b 59 c4 b7 6d 3c ce 37 4c dd ac b6
       2.634713e-05 -2.340663e-05 2.4585252e-05 -5.151762e-06
0000d0 7b cc 0c 34 e0 d3 00 b7 74 db 66 b8 f1 6b 86 b8
       1.3112906e-07 -7.6787255e-06 -5.5040655e-05 -6.4097236e-05
0000e0 82 b6 07 36 f1 5a 90 35 e7 5b c0 b7 25 01 39 36
       2.0222801e-06 1.0755303e-06 -2.2930979e-05 2.7567814e-06
0000f0 07 8f 10 b8 6b c3 25 b8 6e c3 de b6 55 c0 49 36
       -3.446548e-05 -3.9521063e-05 -6.6388666e-06 3.0063286e-06
000100 61 cc fd b5 68 9e 96 37 9e d5 1b 36 1b 0d 26 b6
       -1.8909451e-06 1.7955157e-05 2.3221141e-06 -2.4743556e-06
000110 1a e1 be b6 99 b6 d2 36 67 8b 1c b6 ae f7 6a 34
       -5.6886465e-06 6.279745e-06 -2.3326954e-06 2.1883054e-07
000120 55 53 0b b6 ba b8 ad b5 50 0b 65 b6 67 cd 82 b6
       -2.076112e-06 -1.2943267e-06 -3.4130244e-06 -3.898214e-06
000130 5f 00 8e 35 57 14 f5 b4 e1 ca 46 b7 b7 4f 6d b6
       1.0579932e-06 -4.5649605e-07 -1.1848956e-05 -3.5362152e-06
000140 2e 6e 98 b3 6b bc 0a b4 0a 61 93 b6 b3 e4 11 b5
       -7.098093e-08 -1.2920798e-07 -4.392238e-06 -5.434951e-07
000150 70 6c e0 b8 4b c1 e1 b5 b1 22 94 36 27 2e 80 b5
       -0.000107013504 -1.6820062e-06 4.4147823e-06 -9.550175e-07
000160 66 2f ea 33 ca 46 22 35 51 e0 15 3a a5 3f bb b6
       1.0905096e-07 6.0452714e-07 0.00057173247 -5.5804435e-06
000170 59 39 85 b6 88 b8 fa b8 70 00 b8 b5 21 af 2d b6
       -3.970385e-06 -0.000119553006 -1.3709196e-06 -2.5880947e-06
000180 a7 63 77 36 41 a0 04 34 2a 38 98 37 16 3d d9 35
       3.6863873e-06 1.2351758e-07 1.8145965e-05 1.6185538e-06
000190 7c f6 9a b6 fd 24 ba b5 ab 69 96 b8 94 92 14 b6
       -4.618252e-06 -1.3868845e-06 -7.1722396e-05 -2.2139038e-06
0001a0 a3 f4 0a 36 d5 49 27 b6 ac c7 af 36 2d 59 82 39
       2.0706e-06 -2.4927915e-06 5.2386513e-06 0.00024861973
0001b0 be 3e 88 b6 4e f2 96 36 d3 99 86 36 3d 24 54 36
       -4.06042e-06 4.4985563e-06 4.0114187e-06 3.1611555e-06
0001c0 4e c4 67 b6 b7 03 08 b8 ca 31 a7 b5 29 43 2d 36
       -3.4535947e-06 -3.2428386e-05 -1.245696e-06 2.5818101e-06
0001d0 e3 fc 0d b6 24 b3 98 b7 59 5b 35 37 7b 10 23 b6
       -2.1157837e-06 -1.820323e-05 1.0809709e-05 -2.4298486e-06
0001e0 ab f4 01 36 06 81 34 b6 f4 82 97 36 dd 54 9e 35
       1.9364913e-06 -2.6897192e-06 4.5153956e-06 1.1796616e-06
0001f0 c4 1f 7d 35 52 5f 31 36 c3 8b 96 36 6c 13 85 38
       9.429607e-07 2.643054e-06 4.4866188e-06 6.345552e-05
000200 e5 7c ce b7 c1 19 cc 34 48 a9 43 b6 78 03 a3 b7
       -2.4615272e-05 3.80167e-07 -2.91558e-06 -1.943273e-05
000210 35 52 ec b7 e3 24 c9 34 af 6d ad 35 93 96 86 35
       -2.8171673e-05 3.7466006e-07 1.2921427e-06 1.0027601e-06
000220 a1 87 6a b4 0c 7f e8 b7 9f 15 99 36 f6 d2 29 37
       -2.184229e-07 -2.7715716e-05 4.5622724e-06 1.0122303e-05
000230 ff de a5 b6 a8 b9 49 37 b1 87 48 b6 8d 17 a4 b8
       -4.9433434e-06 1.202376e-05 -2.9881305e-06 -7.824516e-05
000240 34 e8 de b7 a3 26 5d b6 e4 37 0d b6 cb f9 91 35
       -2.657259e-05 -3.2954056e-06 -2.104317e-06 1.0876041e-06
000250 6e e9 02 37 ac cc 37 b5 f9 75 6d b5 4c 51 90 b7
       7.802953e-06 -6.847065e-07 -8.8461053e-07 -1.7203995e-05
000260 81 c3 1d 36 ae 78 2b b7 82 b9 3a b6 95 bb 88 36
       2.3508621e-06 -1.0220492e-05 -2.782414e-06 4.0749533e-06
000270 44 f9 d2 36 8e 03 de 33 ae 15 77 b4 31 8e d8 b5
       6.287506e-06 1.0338327e-07 -2.3011555e-07 -1.6134637e-06
000280 af 55 12 b5 87 86 8f b7 aa 27 9e 35 ec 92 0e b7
       -5.4513924e-07 -1.7109573e-05 1.1783461e-06 -8.4980675e-06
000290 a9 bc c7 b7 f9 6a a7 36 00 36 b1 37 44 6e 7d b6
       -2.38105e-05 4.989441e-06 2.112519e-05 -3.776412e-06
0002a0 25 08 df b5 3b af c3 b7 9c 2a 0c b5 f2 d7 e8 37
       -1.6617165e-06 -2.332741e-05 -5.221607e-07 2.7757113e-05
0002b0 ce 46 cf b7 0f f9 91 b0 3d 14 65 b6 d6 14 d4 b5
       -2.4709294e-05 -1.0620925e-09 -3.413544e-06 -1.5801295e-06
0002c0 82 52 26 36 21 08 62 b8 4c 81 ea 35 97 ee a7 b5
       2.4783953e-06 -5.389017e-05 1.7471989e-06 -1.2511908e-06
0002d0 ec 1d b5 b6 ac 6d 38 b8 00 99 bb b6 4b 8f 3e b6
       -5.3977037e-06 -4.397116e-05 -5.590846e-06 -2.8395614e-06
0002e0 e7 4c 08 35 15 ed 15 b8 fc 6d 41 b7 de a8 e9 b4
       5.0775856e-07 -3.5745168e-05 -1.1529304e-05 -4.35225e-07
0002f0 93 53 39 b6 fc 1a ad b7 23 1b 79 b6 74 08 48 b6
       -2.7615795e-06 -2.0635773e-05 -3.7119687e-06 -2.9807243e-06
000300 c0 2c 03 37 f6 87 83 36 7d 29 54 b7 e6 38 f3 b5
       7.818628e-06 3.919932e-06 -1.2645844e-05 -1.812147e-06
000310 de e3 93 38 4b 56 1e b7 19 6b 54 37 67 ec 59 36
       7.05195e-05 -9.4376255e-06 1.266112e-05 3.2473124e-06
000320 b7 8a 71 b8 f3 af 6e 38 e7 70 37 36 a9 1f 15 39
       -5.7588066e-05 5.6907487e-05 2.7334843e-06 0.00014221542
000330 b1 26 33 b7 67 ab 84 38 af 19 b5 38 c3 c7 0d b7
       -1.067824e-05 6.326177e-05 8.6355365e-05 -8.450766e-06
000340 41 c9 1c 37 5c cc df 36 df f2 3f b7 8e fa 07 b8
       9.345183e-06 6.6697085e-06 -1.1441035e-05 -3.2419855e-05
000350 f9 a3 0a b7 3a b7 45 b7 69 a6 11 b7 f2 bf 4e b7
       -8.263619e-06 -1.1784776e-05 -8.681419e-06 -1.2323248e-05
000360 1e bc e1 36 73 ec 4a 38 c6 8a 7a 37 5c 6f 7e 38
       6.7274223e-06 4.8380763e-05 1.4933472e-05 6.066203e-05
000370 80 ca 05 b8 88 c9 1c b7 91 43 9b 38 cc 24 ed 38
       -3.1898264e-05 -9.345247e-06 7.403561e-05 0.000113078946
000380 c1 29 6a b7 ea 06 82 38 32 13 1d 37 f2 88 87 37
       -1.39572085e-05 6.200171e-05 9.3623985e-06 1.6157024e-05
000390 74 02 4d 38 0b e6 5f b8 a4 32 91 b7 ab 98 c1 38
       4.8878093e-05 -5.3381587e-05 -1.7308928e-05 9.231394e-05
0003a0 34 d8 29 b7 5a 52 85 b6 1d bb 33 b7 25 69 a4 37
       -1.0123524e-05 -3.973296e-06 -1.0712797e-05 1.9599285e-05
0003b0 fb e3 c2 38 ad 21 16 b7 f9 f5 8b b7 b8 82 1d b7
       9.2931055e-05 -8.9485375e-06 -1.6684631e-05 -9.388365e-06
0003c0 6e 6f 80 b8 50 33 9f 38 e1 e6 f3 36 b0 a3 62 b7
       -6.124271e-05 7.5912685e-05 7.268842e-06 -1.3508761e-05
0003d0 e4 a8 d3 38 c9 a0 ce 38 20 9a 16 b7 3b 4e a8 38
       0.000100927224 9.852794e-05 -8.976582e-06 8.025436e-05
0003e0 7f 93 bc b6 3b 5b 90 36 be 8d 89 37 67 d3 33 b8
       -5.6200074e-06 4.302155e-06 1.6397677e-05 -4.287381e-05
0003f0 e5 b8 d0 b6 9f 1f a7 38 ae 96 4a b7 d1 5f a3 36
       -6.2204076e-06 7.9690704e-05 -1.2075221e-05 4.868933e-06
